mlruns/0/models/m-c4d4e913894845039f25350e92d1affe/artifacts/data/model.pth (torch, 63177 bytes, 4 tensors)

weight f4 [50, 256]
00000000: 1793 133d b213 37bd f2ab 29bd 66e8 6abd
00000010: 8e3e 39bc 7cc3 2cbd e925 aebc 7f73 983d
00000020: 03b8 623d f097 e13c dd2a c03c ffe6 4fbd
00000030: a6af 4fbd 836e e73c 53bb ca3b 5b96 f7bb
00000040: 4ca0 4f3b 909e aebd 40d5 f83c 89e4 033c
00000050: aac1 99bd c686 f1bc d2cb 9a3d ea82 413d
00000060: 5b88 fc3c 361d 223d 0e1b 683d fe97 063d
00000070: 2590 ab3c c2ec 81bc b4e0 2e3d f0a9 64bd
00000080: f324 73bc 1d79 9bbd f7aa 7bbb 0a59 f5ba
00000090: af00 f23b 8425 d839 2784 3e3d 55b9 be3d
000000a0: 5d96 fc3c 506b 953d e3d0 223d f774 793d
000000b0: 6fdf 68bd 9f5f 39bd 6c69 a1bc dff7 963c
000000c0: 61a3 913c 0e09 103d a80d 68bc 4bdf 28bc
000000d0: 9d71 343d f01d 5e3c 60f0 4bbd fdf7 c23b
000000e0: cbdf f73d 40f5 413d 2b2a 303d 3bac a83c
000000f0: d89a 8b3c 2b55 493c a24b ceba 9857 29bc
00000100: 1e39 8c3b 0803 0d3c c2f6 34bd fa1b b73d
00000110: 8813 7fbc f95a 343c f3e5 a2bd fdf1 953d
00000120: 63e4 b63d e4d7 8d3d dc77 743d 4307 a4bc
00000130: b86c 8fbd b5c4 62bd 34db d6bd f6b2 553c
00000140: d8cc 00bd 613d 89bd 38fc 20bb d834 6bbc
00000150: 3af8 38bd 4027 02bd 7958 e0bd 9c65 843d
00000160: 4f6c 533e ce4d ea3d a3db a13c 9830 e33c
00000170: 9468 8abd 5f0d 2fbc bfc6 fbbd 1489 a3bc
00000180: 8933 61bd 1bb3 013d ac4d afbc ab8b babb
00000190: fdbe 383c 4a49 00bd 0278 7fbd 6f9b 313e
000001a0: 183f 153e ee12 733d 5ac1 c43c 5d24 a93c
000001b0: 4548 b43b ef26 edbb b85a adbd c303 e2bd
000001c0: ff6e 0bbd 2701 38bb b493 35bd 2596 2e3d
000001d0: ea31 b43c 325f e1bd ebec 6bbd e568 d03c
000001e0: 2d6b 013e c4cb e53d 1d84 863c 48f7 13bb
000001f0: 93fd 1d3c 2155 7ebc 2576 16bd 9e50 93bd
00000200: 9b05 d2bd fea5 febc a8e4 82bd 263f 98bd
00000210: 5931 13bd 7104 5abd ad98 80bd bdc3 9a3c
00000220: 3a66 163d f64e ae3d fbfd 8cb9 e56a b23d
00000230: c8f9 e2bc c4c8 56bd d916 c9bd b29e 87bb
00000240: 85e9 cdbd 78c7 c4bd 86fa 06bc 4cb8 3fbd
00000250: 268c 0ebe 927d 04be dcb3 c0bd c692 47bc
00000260: f7df d43d 435b 103d 3c32 063c 587b e73b
00000270: 99da 0cbc 5e34 093d 84b4 78bd 2a7e 68bd
00000280: 9099 d73c 30f3 4bbd 6dd0 d63c 3530 b8bd
00000290: 3f96 ffbd 64dc 9bbd d04d 07be 9d1a 2e3d
000002a0: aaed f03d 68d1 a83b 2a85 22be 4938 8dbd
000002b0: 9c95 cdba 9cbc dd3c d17c 7dbd 5e40 8fbd
000002c0: 0f96 ebbc 666b 80bc 35a9 debc eda1 1dbd
000002d0: bd6d 1fbe 68f2 1dbe 6c11 04be c8f4 823d
000002e0: 5d43 8e3d 6ea9 89bc 9b8f 33be ad52 ccbd
000002f0: c2ba 4d3d 317b 20bd 6205 83bd 11ac 0f3d
00000300: 7e58 4d3c b68c 77bb 49d7 203a 86a7 99bd
00000310: 3073 15be 0d97 b2bd d259 c6bd 0e80 b33d
00000320: 8d00 073e 8e50 04bd 5905 00be 996a d1bc
00000330: a2ca 773d d222 d8bb 8fb4 843d 0fd0 843b
00000340: 4579 37bd 958c 66bc 61d1 033d fbdd 4cbc
00000350: 87ac e5bd af4e eebd def6 b5bd 71e2 f23c
00000360: 3c79 a43d 64e6 63bd 75bc 9bbd 9f0e 1a3d
00000370: dac2 bd3c a71a 3b3d beb4 13bd 17f2 86bc
00000380: 8f43 253d d560 603d bfd7 37bd 9346 493b
00000390: 85e0 b63c 545b d9bd fc21 28be c2d2 9ebd
000003a0: a885 49be 493b dfbd 3877 05be dd38 d2bb
000003b0: 2342 e63c 5966 cfbc 9764 2f3d d228 66bd
000003c0: 9239 21bb 419a 47bd 2cc0 70bd a2e3 13bd
000003d0: 46dd c13c 15d8 42bd 676d a6bd 1656 51be
000003e0: 812f 77be c025 dabd a840 3abd 987f 5fbd
000003f0: 2a43 62bc a851 89bc b40c 01bd 03c5 0b3d
0.036028948 -0.044696517 -0.041423745 -0.05735054 -0.011306418 -0.042178616 -0.021258311 0.07443904
0.05535127 0.02753827 0.023457939 -0.050757404 -0.05070462 0.028250938 0.0061868816 -0.0075557656
0.0031681238 -0.08526337 0.030375123 0.0080500925 -0.075076416 -0.02948321 0.07558407 0.04724399
0.030826738 0.03957864 0.056666426 0.032859795 0.020942757 -0.015859965 0.042694762 -0.055826128
-0.014840352 -0.0759146 -0.0038401464 -0.0018718552 0.0073853354 0.00041226682 0.04651275 0.09312693
0.030833418 0.07295859 0.03974999 0.060902562 -0.056853708 -0.045257207 -0.01970359 0.018428741
0.0177781 0.035164885 -0.014163412 -0.010307143 0.044053663 0.013556942 -0.049789786 0.0059499727
0.12103232 0.04735303 0.043008965 0.020589938 0.017041609 0.012288372 -0.0015739093 -0.010335825
0.00427927 0.00860668 -0.04418064 0.08940883 -0.015568621 0.011008018 -0.079540156 0.07321546
0.0893028 0.069259435 0.05968462 -0.020022994 -0.07003158 -0.055363376 -0.104910284 0.013043156
-0.031445354 -0.0670116 -0.0024564397 -0.014355861 -0.045158602 -0.031775713 -0.10954375 0.06464693
0.20646785 0.11440621 0.019758051 0.027733132 -0.06758228 -0.01068434 -0.12293767 -0.019962825
-0.05498079 0.03166495 -0.021399342 -0.0056929193 0.011276004 -0.031319894 -0.062370308 0.1734445
0.1457485 0.059344225 0.024017978 0.020647222 0.0055017793 -0.0072373073 -0.08464569 -0.11035874
-0.0340414 -0.0028076859 -0.044330314 0.042623658 0.021996457 -0.11004485 -0.05759899 0.025440643
0.1263854 0.11220506 0.016420418 -0.002257781 0.009642976 -0.015523226 -0.036733765 -0.07193111
-0.102549754 -0.03108501 -0.06391269 -0.074339196 -0.035935733 -0.053226892 -0.062791206 0.018892163
0.036718585 0.08511154 -0.0002689211 0.08711795 -0.027706996 -0.05243756 -0.09818811 -0.004138791
-0.10054306 -0.09608358 -0.00823844 -0.04680662 -0.1392065 -0.12938526 -0.094093055 -0.01218099
0.103942804 0.035243284 0.008190688 0.0070642643 -0.00859704 0.033497207 -0.060719028 -0.056760944
0.026318341 -0.04979247 0.026222432 -0.0899357 -0.12479829 -0.076103956 -0.13213277 0.04250585
0.11764081 0.0051519163 -0.1587111 -0.06895501 -0.0015684846 0.027067475 -0.061886612 -0.06994699
-0.028758077 -0.015676212 -0.027180294 -0.038484503 -0.15569206 -0.15424502 -0.12897271 0.063943446
0.06946442 -0.016804423 -0.1753525 -0.09976707 0.050226934 -0.039179984 -0.06397511 0.035076205
0.012533305 -0.003777308 0.00061355956 -0.07502656 -0.14594722 -0.08720217 -0.096851006 0.08764659
0.13183804 -0.032303385 -0.1250204 -0.025563525 0.06049598 -0.006595948 0.06479751 0.004053123
-0.044793386 -0.014071603 0.0321821 -0.012504096 -0.112145476 -0.116361015 -0.08884977 0.029648991
0.08030936 -0.05563964 -0.07604305 0.0376116 0.023164202 0.045679715 -0.03606104 -0.01647286
0.040347632 0.054779846 -0.044883486 0.0030712232 0.022323856 -0.106131226 -0.16419214 -0.077550426
-0.19679892 -0.108999796 -0.1303376 -0.00641547 0.028107708 -0.025317358 0.04282054 -0.056191273
-0.0024600965 -0.048731092 -0.05877702 -0.03610576 0.023665082 -0.047569353 -0.081263356 -0.20442995
-0.24139215 -0.106517315 -0.045471817 -0.054565042 -0.0138099585 -0.01676257 -0.031506255 0.034123432

bias f4 [50]
00000000: 04dd f1bc e7fe 863d 7907 8fbd 787d d8bc
00000010: b8df bebb aaee 9fba a9f3 20bd aaff a43d
00000020: b8cb a53d 72b0 2a3d 03af f83c 0262 823d
00000030: 4be1 38bd 7174 6cbb e37d 263c 44f7 7bbd
00000040: 3502 aa3d f418 0cbd abfc 293c b454 df3c
00000050: 82a0 93bc ca4b e13d 64bd 143d 4c63 de3c
00000060: 708f ad3d 3de2 603d d986 a43b 219b bd3c
00000070: eb78 09bc ddca 433d 969d c3bc 352f c33d
00000080: d1b7 a3bc 49b2 7b3b 3233 00bc a081 2e3d
00000090: de56 073d 9989 333d 82f1 9abc a22a a6bc
000000a0: dfb7 9a3c b81b d3bb 2848 423d 5300 543d
000000b0: 8803 c43d 5f97 893d a2e3 803c aa5c 583c
000000c0: 16f7 52bc c626 3ebd
-0.029524334 0.065915875 -0.06983847 -0.026427016 -0.005825009 -0.0012201865 -0.039294872 0.080565766
0.08095497 0.041672178 0.03035689 0.0636635 -0.04513673 -0.0036080147 0.01016185 -0.061515108
0.08301202 -0.034203485 0.010375182 0.02726207 -0.018020872 0.11000784 0.03631343 0.027146958
0.08474624 0.054903258 0.005020958 0.02314526 -0.0083906455 0.047800887 -0.023878854 0.095304884
-0.019985111 0.0038405827 -0.007824706 0.04260409 0.033041827 0.043832395 -0.018913988 -0.020284
0.018886505 -0.0064425133 0.047432095 0.05175812 0.09570986 0.06718325 0.015733544 0.013205687
-0.012876293 -0.046423696

weight f4 [10, 50]
00000000: 39c8 94be 87ce 0fbe f26d 81be 3ae2 febd
00000010: bc43 043c 92e5 823e c049 353e f47c e4bd
00000020: 3707 39be bebb 9abe 2eb3 c3bd 2b21 8c3e
00000030: 434b 11bd 519d f5bd 16c4 06be 55b4 fdbd
00000040: b324 e4bd 9450 6c3a 455b 2fbe 078b 573d
00000050: 9db4 0fbd 088f 493e b6cb 3fbe d472 58be
00000060: 0f80 44be f8c3 2ebe 0709 11bc 8a29 c1bc
00000070: 7d7d 8abb e6ee c5bd d262 87bc 7692 fb3d
00000080: 4a0a 8f3d 0f6f 8b3a 363d d8bd 5d08 3b3e
00000090: 7fb5 0c3e 8ccd 55be 219f a23e 94bd 483e
000000a0: c31c 9f3d dc0c 66be c3c7 b2bc 4485 dbbc
000000b0: 2de7 dd3d dcff 1f3d 213a 2dbe aeec d3bc
000000c0: 2249 873e c301 98bd dccd 7d3d b7e0 55bd
000000d0: 06d8 f63d 0d11 16be 6674 38be 6652 b63d
000000e0: a08f 8b3d 1edd 3a3e c7be 96be 4203 ee3d
000000f0: 2922 edbc 6267 5fbd 1ada eabd a9a6 02bd
00000100: 055f 34be 5132 b13d 4f84 1dbe 32b9 bcbd
00000110: 5303 153c 3bd6 c63d 7c31 39be 94a8 86be
00000120: ea00 b0be f58d 983d 73f1 8c3d 7e09 de3d
00000130: 73b6 12bc 1296 81bc 6f0f 16be e3d1 2bbd
00000140: 17fb 543e 5843 76be 09be 8dbe 41a2 8f3d
00000150: 97c4 1b3e e159 5ebe 4eb1 8dbe 512e ff3d
00000160: f2b3 5cbd 49c0 523d e14e 86be d3bd 46be
00000170: 9a06 e13d 8bfc 3b3d e25c 5fbe 5716 453d
00000180: a8b8 453e 6a9c 4abe 477d 17bd 4b20 18be
00000190: fb48 8abc 6257 5ebe cec2 60be 5a45 2b3e
000001a0: 569a 1dbe a95e 883d 2a82 f0bd 0a2b 5c3e
000001b0: 8cf1 403a 381d 953d a78b 22bd c3bb 7cbe
000001c0: 26dd 403d 60b9 96bd 11a2 44be 4b91 50be
000001d0: dc73 203e 799d 80be e888 01be 4f78 1bbe
000001e0: 44ac 073d de90 c33d e4c8 153e 88fa 36bd
000001f0: 3f24 4a3e 2cd1 8cbe 822b 033d c920 9e3e
00000200: 8e8e 6dbe 94d3 dfbc 11bd 413e b198 13bc
00000210: 6662 473e 1005 1abe 90e1 313d 09e1 3dbe
00000220: 93e3 2bbd cd43 0d3c e3f2 13be c0b5 c13b
00000230: ef25 643e 7f56 c4bd 619b b73d a4c6 e43d
00000240: 9b43 163e fc7d 8c3e a9b8 e7bc 8808 7c3e
00000250: 761a ecbd cfe3 603d 4015 d8ba 5aee 86be
00000260: d1b7 febd d1dc b93d f6ea 28be fe46 ba3a
00000270: 33fb 0cbe 13db 4dbe bb79 e63d 4074 f0bd
00000280: ffa5 1e3e 19ac 79be 17e7 6dbd 4442 833d
00000290: 0699 2b3e 8fbb aabc 9e1c 833e ffbd 713e
000002a0: 4e02 5ebd 58c6 093e 6490 96be a3b4 1bbd
000002b0: 3d24 03be 4023 07be fcbe ce3d c16b 0b3e
000002c0: 100e a63d c928 16be 94dc 9dbd 076c 483d
000002d0: 6b4e 42be 4b5a f5bc 499c 39bd 1b50 133d
000002e0: f10d 40be a2e3 28be 836e 80bd d9bb 87be
000002f0: ff1f 40be 600f cbbd 35eb 243c 4133 813d
00000300: 8b7d 89be e89c 8ebe 268d 9dbd d880 05be
00000310: 7c04 12be cbf1 053e 2964 73bd c6b7 993c
00000320: 2a4f 893d c8f2 fcbb 87eb 2f3e 854c 4c3a
00000330: fa18 c53d 0aaf 94be 8c10 49be 0b13 033e
00000340: 41b2 4f3e 2dbe 0cbe 253d 223e 9d89 313e
00000350: e89c 0fbe 1af6 1fbd 0c7f 3b3e 2f14 dfbd
00000360: 0615 37be a401 1ebe 78b1 b9bd f15d b1bd
00000370: 79a4 473e 5232 51be 71d3 803d d969 c53c
00000380: 71d2 32be bbc2 713d 6e4d a63d ac0c 7fbc
00000390: c3ca f03d efc7 4cbe 50ab f9bd ee89 213d
000003a0: 3c26 27be c79f 01be 4b4a 443e 08a3 d4bd
000003b0: 3caf 1ebe 5b79 dfbd 40fb 69be 86b7 223e
000003c0: e23b 913d 6c31 52be 8cc0 d23c 8c8e 023d
000003d0: 395f 64be 73c2 50be fe20 77bd 217a efbd
000003e0: ec78 ed3c 4673 5dbd d737 b8bc d00d 603e
000003f0: d8f7 32bd 7ff2 06be cf05 243e 0222 18be
-0.29059008 -0.14043628 -0.25279194 -0.12445493 0.00807279 0.25565773 0.17703915 -0.111566454
-0.18069158 -0.3022136 -0.0955566 0.27369055 -0.035472166 -0.11992896 -0.13160738 -0.12387911
-0.11139812 0.00090146926 -0.1712466 0.05262282 -0.035084356 0.19683468 -0.18730053 -0.21137553
-0.19189475 -0.17066944 -0.00885225 -0.023579378 -0.004226385 -0.09664707 -0.016526613 0.122837946
0.06984384 0.0010637956 -0.1055855 0.18264909 0.1374111 -0.20879191 0.3176203 0.19603568
0.07769158 -0.22465843 -0.02182377 -0.026796944 0.10835109 0.039062366 -0.16916706 -0.025869694
0.26422983 -0.07422211 0.0619639 -0.052216258 0.12052922 -0.14654942 -0.18013152 0.08902435
0.06814504 0.18248412 -0.29442427 0.11621715 -0.028946953 -0.054541953 -0.11467381 -0.03189722
-0.17614372 0.08652175 -0.15382503 -0.09215011 0.009095031 0.0970883 -0.18085283 -0.2630049
-0.34375697 0.07448951 0.0688199 0.10841654 -0.008954632 -0.01581863 -0.14654325 -0.04194821
0.20798908 -0.24049127 -0.27684048 0.07013369 0.15211712 -0.21713974 -0.27674335 0.12460006
-0.053882547 0.05145291 -0.26232055 -0.1940835 0.10987587 0.04589514 -0.21812776 0.048117008
0.19308722 -0.1978623 -0.03698471 -0.14856069 -0.016880503 -0.21713021 -0.21949312 0.16725674
-0.15390906 0.0665868 -0.11743577 0.21500793 0.0007360212 0.07280964 -0.039683964 -0.24681
0.047085904 -0.07359576 -0.19202448 -0.20367925 0.15669197 -0.25120142 -0.12649882 -0.15182613
0.03312327 0.095491156 0.14627415 -0.04467252 0.1974039 -0.27503335 0.032023914 0.30884388
-0.23198912 -0.027322568 0.1891978 -0.009008572 0.1947113 -0.15040994 0.043428004 -0.18542875
-0.04196508 0.008622122 -0.14448123 0.005911559 0.22280096 -0.0958681 0.08965183 0.111707
0.14674227 0.27439868 -0.028286295 0.2461263 -0.115284845 0.054904755 -0.0016485825 -0.26353723
-0.12437404 0.090753205 -0.1649588 0.0014211831 -0.137677 -0.20103101 0.11253687 -0.11740923
0.1549301 -0.24382056 -0.058081713 0.064091235 0.16757593 -0.020841388 0.2560777 0.23607634
-0.054201417 0.13454568 -0.29407036 -0.038014065 -0.12806793 -0.1319704 0.10095021 0.13615324
0.08108151 -0.14663996 -0.077080876 0.048931148 -0.18975227 -0.029950282 -0.04531506 0.035965066
-0.18755318 -0.16493085 -0.062710784 -0.26510504 -0.18762206 -0.09915042 0.010065843 0.06308604
-0.26853594 -0.27854085 -0.076929376 -0.13037431 -0.14259523 0.13080518 -0.059421692 0.018764388
0.067045525 -0.0077193715 0.1717969 0.0007793385 0.096239045 -0.29039794 -0.19635218 0.12800233
0.20282842 -0.13744421 0.15843637 0.17337652 -0.14024699 -0.03905306 0.18310183 -0.108925216
-0.17879114 -0.15430313 -0.090670526 -0.08660496 0.19496335 -0.20429352 0.06290329 0.024098324
-0.1746309 0.0590236 0.08120237 -0.015566986 0.11757424 -0.19998144 -0.121908784 0.03943818
-0.16323179 -0.12658606 0.19168966 -0.10382658 -0.15496534 -0.109118186 -0.2284975 0.15890321
0.070915 -0.20526665 0.02572658 0.031874225 -0.2230195 -0.20386676 -0.0603342 -0.11693216
0.028988324 -0.05406501 -0.022487564 0.21880269 -0.043693393 -0.13178442 0.16017841 -0.14856723

bias f4 [10]
00000000: db9f 0f3e 3a3d bcbd a744 34bd a6aa 8fbc
00000010: cf11 d43d 8360 09be 08c7 5d3d 57f7 d23d
00000020: 35bf 483c 5fc1 b3bd
0.14025824 -0.091913655 -0.044010784 -0.017537426 0.10354959 -0.13415723 0.05414489 0.103010826
0.012252619 -0.08777117
