1/5fd28181fb464ecd8d6074917507edb2/checkpoints/epoch=4-step=570.ckpt (torch, 327856 bytes, 12 tensors)

fc1.weight f4 [100, 256]
000000 37 7e 23 bd 0d 4c 1a bc ab 33 6a 3d e4 dd 2d 3d
       -0.03991529 -0.009417546 0.05717818 0.04244794
000010 e9 4e b3 3d d1 63 f5 3c af 23 17 3d d7 f5 96 bd
       0.08755285 0.029954823 0.036899265 -0.07371109
000020 35 ae 36 3d 11 c1 3e 3d 2a 5c bf 3d 5b a4 c1 3d
       0.04459973 0.04657084 0.09343751 0.094551764
000030 78 b4 ab 3b cb f4 63 3d 20 ad 16 3d 86 16 85 3d
       0.0052400194 0.055653375 0.0367862 0.06498437
000040 ef 7f db bc c2 fc 35 bd cb b6 a5 3d e1 5f bd 3d
       -0.026794402 -0.0444305 0.080915056 0.09246803
000050 b0 bd c8 3d d8 35 32 3c b4 60 1f bd 6e d7 8c bb
       0.09801805 0.010877095 -0.038910583 -0.004298142
000060 03 5c 0a bd 74 dc 42 3d 8d 5a 15 3e 91 2d 01 3e
       -0.033779155 0.04757352 0.14585324 0.12615038
000070 06 21 c1 3d f7 00 fe 3c 7e 83 18 3d 3d 32 f4 3c
       0.09430127 0.03100632 0.037234776 0.029809112
000080 5d c6 64 3d 08 03 36 3d c5 b4 9a bb e9 9a 90 3d
       0.055853236 0.044436485 -0.0047212564 0.07060797
000090 a8 38 f9 3d bf 59 f9 3c a2 80 10 3c 96 0a f2 bc
       0.121690094 0.030438302 0.008819731 -0.029546063
0000a0 39 35 a2 b9 6c 80 d5 3c 4f 21 b5 3d ca dc ae 3d
       -0.00030938702 0.026062213 0.08844244 0.08538206
0000b0 fa ea ff bb 43 20 56 3d d2 ba 1e bd 06 f1 ff 3c
       -0.007809994 0.05227686 -0.038752384 0.031242859
0000c0 ef a6 c6 bc bd e9 40 bd 01 09 77 3d 88 9f 9f 3d
       -0.024249522 -0.04709791 0.06031132 0.077941
0000d0 9b 82 e0 3d 3e e4 de 3d e4 69 8b bd fc bc 4c bd
       0.10962411 0.108833775 -0.068073064 -0.049984917
0000e0 fb fa 53 bb 07 c9 45 3d 28 00 07 3e 8d 96 fa 3d
       -0.003234564 0.048287418 0.13183653 0.122357465
0000f0 04 05 b2 3c 7d 7e 37 3b b1 fb 49 bc 59 8f cb bc
       0.021730907 0.0027998977 -0.012328074 -0.024848627
000100 d2 7b 9a bc b2 bc 5f bc 9c 54 5c 3c 4e 49 65 3d
       -0.01885787 -0.013655828 0.013447907 0.055978112
000110 6d a7 32 3e 94 fa c5 3d 35 67 5b bd ca 2f e6 bb
       0.1744668 0.096669346 -0.053565223 -0.00702474
000120 b1 89 be 3c 93 38 81 3d 18 57 3a 3e 36 4b 00 3e
       0.023259016 0.06309619 0.18197286 0.1252869
000130 2b e1 9d bc 1a 10 8b 3c 42 4a 98 bc 24 45 96 3c
       -0.019272408 0.016975451 -0.018590096 0.018343516
000140 35 c3 d5 3c d9 ff f9 3b 16 fb 85 3d 75 59 0c 3e
       0.026094059 0.0076293764 0.065420315 0.13706
000150 f8 70 f2 3d 39 b3 99 3d 2d 34 7f 3d 91 a5 f0 3d
       0.11837953 0.07504887 0.062305618 0.11750329
000160 1d 9e ad 3d e2 60 42 3e ce ac 2b 3e f0 f6 da 3c
       0.08477423 0.1898227 0.16765139 0.026729077
000170 e1 a1 4b 3d 73 71 82 bd 22 8b bd 3b f6 35 20 bd
       0.049714927 -0.06369295 0.005784408 -0.03911396
000180 03 a9 b8 3b 80 33 19 3d fd 08 2d 3e bc 9d 04 3e
       0.005635382 0.03740263 0.1689796 0.12950796
000190 74 28 40 3e be c5 e8 3d 87 b9 1f 3d 43 cb ce 3d
       0.18765432 0.11365841 0.038995292 0.10097363
0001a0 8c 26 d7 3d ec b1 73 3e 50 54 2b 3e f3 e1 d7 3d
       0.10505399 0.2379834 0.16731381 0.10541143
0001b0 e7 bd b3 3d 86 f2 5c 3d 89 cf 06 bc 43 a6 b2 bc
       0.087764554 0.053942226 -0.008228191 -0.021807795
0001c0 6e 0d 61 bd 6c b9 9c 3c ea e5 8a 3d 97 c3 ab 3d
       -0.05494445 0.019131385 0.06782134 0.08386915
0001d0 07 d8 d9 ba 84 28 61 bd db 67 f0 bc 6e 9f 1c bc
       -0.0016620167 -0.05497028 -0.029346397 -0.009559495
0001e0 b5 c2 0f 3e f8 e6 46 3e 44 5d 1a 3e 09 4d a9 3d
       0.14039119 0.19424045 0.1507464 0.082666464
0001f0 8e 31 05 3d cd c1 c0 bc c8 f6 07 3d 22 ba 0f 3b
       0.032517962 -0.023529911 0.033194333 0.0021931012
000200 21 0d e9 bb 45 89 b1 3c 2f d4 d1 3d 61 d2 b0 3d
       -0.007112161 0.0216719 0.10245549 0.086338766
000210 a9 b6 33 3d 7c 77 ef bd 3d 8c 9c bd ee 53 69 bd
       0.04387537 -0.11692712 -0.07643936 -0.056964807
000220 80 bb af 3d 94 99 59 3e e7 34 cf 3d 47 83 2b 3d
       0.08580685 0.21249992 0.10117512 0.041873243
000230 06 27 69 3d 1b 20 03 3d 37 52 b2 bd f7 d8 4c bd
       0.05692198 0.03201304 -0.087070875 -0.0500116
000240 7d 9a 11 bd 2e 31 38 bd e4 b2 dd 3d 41 cb c1 3d
       -0.035547722 -0.044968776 0.10825136 0.09462596
000250 93 e2 63 bd 1f b9 02 3a 8f 25 28 3d df 62 b1 3d
       -0.055636 0.00049866916 0.041051444 0.08661436
000260 c4 43 3b 3e be d3 2a 3e a9 e9 fb 3d 61 8f 95 bc
       0.1828757 0.16682336 0.123004265 -0.018256845
000270 eb 16 3c 3d cc fb 9b bb 71 9e 61 bd 3b f1 a8 bc
       0.045920294 -0.004760241 -0.055082742 -0.02062284
000280 9f ea 4e bc 37 6f 3a bd 2b 81 ff 3c dc 17 66 bc
       -0.01262918 -0.04551622 0.031189522 -0.014043774
000290 ca 89 59 bd 00 78 7b 3c 5d 24 c9 3d e4 32 df 3d
       -0.05310992 0.015348434 0.09821389 0.108983785
0002a0 f1 dc 4f 3e 8f 49 a8 3d 7c 68 ba bd 2c 4a 4b be
       0.20299126 0.08217155 -0.0910196 -0.19852513
0002b0 cb 57 97 bd a1 5e b4 3a 56 dc 1c bd 8e 3f 40 3c
       -0.07389792 0.0013761112 -0.038296066 0.011733903
0002c0 7c 30 6a bd 2f c8 ad bd 73 53 2c bc 69 48 80 bd
       -0.057175145 -0.084854476 -0.010517943 -0.06263811
0002d0 db 7c 69 bd 50 15 58 bc cc df 73 3c 1c f8 28 3e
       -0.057003837 -0.013188675 0.0148849 0.16500896
0002e0 37 bc 35 3e c6 60 90 bc ec f6 8b be 25 2c 80 be
       0.1774758 -0.01762427 -0.27336824 -0.2503368
0002f0 ad b2 d5 bd 55 4a f8 bd 1c 73 7b bc 1f ee cd 3c
       -0.1043447 -0.12123553 -0.015347268 0.025137959
000300 a8 4c 9a bd b4 33 9f 3c 05 b9 ea bc 18 9b 03 be
       -0.07534152 0.019433834 -0.028652677 -0.12852132
000310 5f 77 11 be 8a f2 b5 bd 71 4a e4 bc 64 ee db 3c
       -0.14205693 -0.08884151 -0.027867528 0.026847072
000320 21 b0 a1 bd c7 22 3a be f1 71 75 be 28 62 23 be
       -0.07894922 -0.18177329 -0.23969246 -0.15955412
000330 a7 8c 23 be 8a d2 16 be db ac b8 3a ce d1 a6 bd
       -0.15971623 -0.14728752 0.0014089601 -0.08145486
000340 48 fb 78 3b bc c4 96 3c 58 96 d7 bd 23 68 cd bd
       0.0037991572 0.018404357 -0.10526723 -0.10029628
000350 a1 d8 5c bd 8e 05 d4 bd 0f d6 69 bd 6e 47 0b be
       -0.05391753 -0.10352622 -0.057088908 -0.13601467
000360 c8 6a fb bd f1 86 64 be 1a d2 52 be 65 84 2e be
       -0.12276226 -0.22317101 -0.2058796 -0.17042692
000370 55 1a 99 bd 49 5a dd bd df 99 98 bd 31 dd eb 3b
       -0.074757256 -0.10808236 -0.074512236 0.007197999
000380 b7 9f 2b bd aa d9 20 bc 96 00 27 bd 08 40 05 bd
       -0.041900363 -0.00981752 -0.040772043 -0.032531768
000390 6e 32 f2 bd 31 6d 16 be 4b 6e dc bd 64 9d c8 bd
       -0.11826025 -0.1469009 -0.10763224 -0.09795645
0003a0 f4 89 95 bd 31 6d 18 be af 95 03 be 7e 1e d0 bd
       -0.07301703 -0.14885403 -0.12850069 -0.10162066
0003b0 42 f7 bf bd 98 b2 c2 bd b0 e5 9c bd 6e a5 6f bd
       -0.093733326 -0.0950672 -0.07660997 -0.058507375
0003c0 01 e1 92 3c ae 1e 68 bd 32 e8 55 bd c1 10 ba bd
       0.017929556 -0.056669883 -0.05222339 -0.09085227
0003d0 f9 ff fe bd ff 0f 02 be a0 4a 55 bd 3b 9d 87 bd
       -0.12451167 -0.12701415 -0.05207312 -0.06621786
0003e0 8b c5 c0 bd ea af a6 bc 5b 2e 0d bd be 64 c8 bd
       -0.09412678 -0.020347554 -0.034468036 -0.0978484
0003f0 b7 6d a6 bd 04 8e 7a 3c 87 71 26 3d e3 29 cf bc
       -0.08126395 0.015292648 0.04063561 -0.025288528

fc1.bias f4 [100]
000000 0e 9d 39 3d 5a b1 51 bc e3 e7 8a bd 68 33 dc 3d
       0.045315795 -0.012798632 -0.0678251 0.107519925
000010 1d a8 af 3c f1 58 28 3c c6 e4 cb 3b a2 31 17 bd
       0.021442467 0.0102751115 0.0062223403 -0.036912568
000020 79 8f 94 bb 3a 00 04 bd cb 20 29 3c 78 d3 56 3d
       -0.004533705 -0.03222678 0.01032276 0.052447766
000030 f5 8a 61 3d bd 04 c5 3a d2 6e a2 3c 4d 32 ce 3d
       0.05506416 0.0015031319 0.019828234 0.10068188
000040 d3 05 08 3d e4 6e 67 bc 70 d3 a4 3b d3 39 1d 3d
       0.03320868 -0.0141255595 0.005030088 0.038385224
000050 e7 ae 03 bc c1 dd 31 3c 8f c2 54 3d 2f 49 15 3d
       -0.008037305 0.010856093 0.051943358 0.036446746
000060 23 9f 06 3e 8f c3 a7 3c 70 88 8d bc 84 60 78 3d
       0.13146643 0.020478992 -0.017276973 0.06063892
000070 1a b3 7d ba d9 5f 8f bd 93 d0 ab bc 7e 86 cd 3d
       -0.00096778723 -0.07000703 -0.02097348 0.10035418
000080 2c fc 57 bd 40 04 33 bd c2 30 cc 3b 7b ee 99 bd
       -0.052730724 -0.043705225 0.0062313983 -0.0751619
000090 8c 31 9d 3d 9a e4 d2 3c d1 75 99 3c 5a 35 64 3d
       0.07675466 0.025743771 0.018732937 0.055714943
0000a0 c1 25 b3 3c 84 7a a0 3a 85 22 8f 3c 5a 41 3c 3d
       0.021868588 0.0012243544 0.017472515 0.04596076
0000b0 3d c0 f8 3c 4d 6c ea 3c e5 d3 34 3d 55 47 39 3a
       0.030365104 0.028616095 0.04414739 0.0007067819
0000c0 b3 56 6a 3d 73 ab ef bb bc 8e 6b 3c 56 70 13 3d
       0.05721159 -0.0073141395 0.014377292 0.035995804
0000d0 5f 42 f4 3c 4a 26 54 bd 9c 86 1c 3d 1e 73 5c bb
       0.029816804 -0.051794328 0.03821431 -0.003363795
0000e0 e6 26 f6 3c 50 23 38 bb 28 db 81 3d ea da 7c 3d
       0.030047845 -0.002809722 0.06340629 0.06173221
0000f0 7d a2 af 3c 7f 3a 4b 3d da 12 35 3c 0a 84 8a 3c
       0.021439785 0.049616333 0.011051858 0.016908664
000100 71 8a 89 bb ac fd 5a 3b 9b b9 0f bd 8e a4 67 ba
       -0.0041974117 0.003341536 -0.035089117 -0.0008836471
000110 0a 05 cc bc f1 54 42 bd d6 ee 34 bc 54 3a 6f bd
       -0.024904747 -0.047444288 -0.011043271 -0.058405235
000120 b7 30 84 3c 7b 9b 3a bd 1a 82 fa 3c 2f 1a 88 bd
       0.01613651 -0.045558434 0.030579615 -0.06645619
000130 50 0b 0e 3d b3 7a 1d bd e2 69 fa bb c2 16 66 bd
       0.034678757 -0.038447093 -0.0076420167 -0.056174047
000140 f0 00 b6 bc de be dc 3b ae 25 07 bd f8 78 d0 3c
       -0.022217244 0.0067366203 -0.03299492 0.025448307
000150 bd 9c ff bc 94 f6 0c bd 4a e0 46 bd 4c e2 f8 ba
       -0.031202668 -0.034414843 -0.048553742 -0.001898834
000160 49 29 98 3d f3 7a a6 3c 5c 8a 41 bd 77 d8 4b 3c
       0.074297495 0.020322299 -0.04725109 0.012441746
000170 b7 d1 92 bb f8 4d 85 bd c8 b1 2e 3c 11 b9 90 3d
       -0.0044805664 -0.06509012 0.010662504 0.070665486
000180 67 90 c0 bc 47 4a 95 bc 31 3f 56 3d 06 c3 da 3b
       -0.023506356 -0.018223895 0.052306358 0.0066760806

fc2.weight f4 [10, 100]
000000 1c d2 af bd cd 52 af bd 99 e3 81 3b 98 88 26 3e
       -0.08584997 -0.08560715 0.0039638993 0.16263044
000010 f3 4f 3e 3d 40 76 08 3e ca 6f 91 be 36 d6 56 be
       0.046462964 0.13326359 -0.284056 -0.20980152
000020 19 b9 49 3b b4 6a c8 bd 85 6a 19 be be 0b 32 be
       0.0030780493 -0.09785977 -0.1498204 -0.17387292
000030 2f 96 62 be 7d a9 a3 be 89 0d 49 be fa b3 3d 3e
       -0.22127603 -0.31965247 -0.1963407 0.18525687
000040 62 41 42 be 0d c4 30 bd 49 04 ce bd 08 a2 a3 3d
       -0.18970254 -0.04315572 -0.10059411 0.079898894
000050 74 88 b0 be 55 d5 53 3d 72 7c 0b 3e 70 3f 13 3e
       -0.34479105 0.05171712 0.13621691 0.14379668
000060 ad e3 2e 3d b5 2d aa bc 77 4c 79 3c a2 29 c9 bb
       0.042697597 -0.020773748 0.015215985 -0.006138996
000070 df 3f bc 3d e8 c6 98 be 32 75 31 3e 76 8f 7e 3d
       0.0919187 -0.29839253 0.17329863 0.062148534
000080 c5 c3 b4 bd 3b 37 c0 3d 06 13 00 3e a6 7e 4e bd
       -0.088264026 0.093855344 0.12507257 -0.05041375
000090 b8 b0 73 bc 7a 6b 0a bd 23 9b 07 be 27 ef 27 be
       -0.014873676 -0.033793904 -0.13242774 -0.16399823
0000a0 04 b8 e3 bd 94 f1 b8 3d 52 70 24 3d 70 3d 17 3e
       -0.111190826 0.09030452 0.04014618 0.1476953
0000b0 d1 bd 75 3d a4 46 bd be 91 08 81 bd e0 4b 28 3c
       0.059995476 -0.36967957 -0.06300462 0.010271996
0000c0 ef 44 b8 3d bb 7d 81 be de cb 49 3e ef 7a b4 bc
       0.08997523 -0.25291237 0.19706675 -0.022031276
0000d0 70 33 e3 3c 60 79 1d bc 09 75 24 3e d3 b8 5c 3e
       0.027734488 -0.009611458 0.1606027 0.2155488
0000e0 08 c9 bf bd 43 ac 2a bd 1d 88 97 3d a0 d9 cd 3d
       -0.093645155 -0.041668188 0.073990084 0.10051274
0000f0 cb 14 81 be a2 7f 8a 3e 4d bb af bc 24 67 86 3d
       -0.25211176 0.270505 -0.021451617 0.06562641
000100 19 bc 16 3e 44 e8 82 bd 40 77 4b be 87 ed 3c 3d
       0.14720191 -0.063919574 -0.19869709 0.04612496
000110 b4 82 0b 3e 1d 0c 5d be 7a 4b 54 3d 4c f6 17 be
       0.13624078 -0.21586652 0.051829793 -0.14840049
000120 2f b7 c5 bd d4 5b eb bd e7 9d 97 3d c0 98 51 be
       -0.0965408 -0.11492124 0.07403164 -0.20468426
000130 1d 65 e8 3d 8d ad 3c be 84 24 8f be 84 0c 39 3d
       0.11347411 -0.1842558 -0.27957547 0.04517795
000140 de ee 4c be 8b f5 ef 3d 2b 42 1f 3d 38 20 a6 bc
       -0.20012996 0.117167555 0.038881462 -0.020279035
000150 8a 16 2b be 62 c7 62 3d d0 dd 5c be 8e 95 2c be
       -0.16707817 0.055365928 -0.2156899 -0.16853926
000160 30 c7 db 3d d7 78 c2 bc 4d 9e 25 3e 4c f1 28 3d
       0.107313514 -0.023739262 0.16173668 0.041245744
000170 b6 55 a5 3d 8e 9b 45 be 30 93 3f be 85 24 8a 3d
       0.08072989 -0.1929762 -0.18708491 0.06745247
000180 22 2c 2e 3e 58 a2 11 be 48 3c c7 bd 1f 21 15 3c
       0.17009023 -0.14222085 -0.097282946 0.009102135
000190 f6 60 75 bd 04 68 75 bd 3f 2c c7 bd 8d 27 a4 bd
       -0.059906922 -0.05991365 -0.09725236 -0.08015356
0001a0 98 98 12 bd 37 64 02 3e 7e 08 08 3e a8 f1 07 bc
       -0.035790056 0.12733541 0.1328449 -0.008297361
0001b0 b5 58 07 3d 39 34 c2 bd 93 46 1f 3e 88 76 49 be
       0.033043582 -0.09482617 0.15554266 -0.19674122
0001c0 6b c3 ea 3d 12 80 0c 3e 31 d2 2b 3e b4 6a 92 bd
       0.11463054 0.1372073 0.167794 -0.07149258
0001d0 70 06 1b 3d 55 99 f8 3d cb 85 03 be 66 dd 82 bd
       0.037847936 0.12138621 -0.12844007 -0.06389885
0001e0 c7 7a ff bd fe 72 99 3d 07 e9 33 be 32 79 28 be
       -0.1247459 0.07492636 -0.17569362 -0.16452482
0001f0 81 37 d5 bd 77 10 4c 3e 76 9a 24 3e aa ad 50 be
       -0.10410977 0.19928156 0.16074547 -0.20378748
000200 ac 73 0a be 00 fd 42 3d d7 eb 32 be 64 89 5d be
       -0.13520688 0.04760456 -0.17472778 -0.21634442
000210 eb 1b 65 bd 3a cc 71 be 4f a5 5a be 73 a1 ea 3d
       -0.055934828 -0.23613063 -0.21352123 0.11456575
000220 ec a8 f5 bd df 9c 76 3c 97 07 00 3d 4a bd f7 bb
       -0.1199511 0.015052049 0.03125724 -0.007560407
000230 44 a4 b4 be bf b2 9d 3b ea 40 72 be 8c 4b fa bd
       -0.35281575 0.004812568 -0.23657575 -0.12221441
000240 54 a8 56 3e 8a 8b 6c be f4 28 80 be ad 08 d9 bd
       0.2096265 -0.23100105 -0.25031245 -0.10597358
000250 fc 0a 18 be 6b b2 0b 3e d3 20 d3 bd 8e 32 47 be
       -0.1484794 0.1364228 -0.10308995 -0.19452879
000260 5f d8 be bd ad 44 d3 bd 18 3a 85 bd 53 85 a8 bc
       -0.09318613 -0.10315833 -0.06505221 -0.020571386
000270 a1 4e e3 bd 3c b1 8a bd 1a 28 05 be 32 59 79 be
       -0.11098982 -0.06772086 -0.13003579 -0.24350432
000280 36 76 ea bc 0b d1 11 3c 90 8a b6 3d a4 d5 1f 3e
       -0.02862082 0.008899937 0.089131474 0.15608841
000290 01 29 02 be 6c 5c d7 3c ca a4 b1 3d 10 d4 32 3d
       -0.12710954 0.026289187 0.08674009 0.04365927
0002a0 23 8f 43 be 46 d5 c7 3d 5d c9 53 be b0 26 52 3c
       -0.19097571 0.097574756 -0.20682283 0.012826607
0002b0 4d 0c c2 bd 72 8e 77 bd ef b2 c8 bd 8d 9a 2b 3e
       -0.094750024 -0.06043858 -0.09799754 0.16758175
0002c0 d9 e4 05 bd 6a a9 d2 bd c8 86 69 3d bb 81 78 3d
       -0.03268895 -0.102862194 0.057013303 0.060670596
0002d0 37 47 7f bc a6 d4 a5 be 82 76 0b 3d 42 c2 16 3c
       -0.015580944 -0.323888 0.034048565 0.009201588
0002e0 20 4c b8 bd 3a e2 8d 3d 0c cc 1d 3e 2e 88 8d 3d
       -0.08998895 0.06927915 0.15409869 0.0691074
0002f0 03 80 94 bd 23 25 91 ba c9 3b 27 be d6 a3 9d bd
       -0.07250979 -0.001107369 -0.163314 -0.07697265
000300 e8 e9 3a be 70 e2 ba 3d c0 f0 0c bd e1 89 ed 3c
       -0.1825329 0.09125221 -0.034409285 0.02899641
000310 f5 8d 4c be 60 fc 8a bd db f5 f8 3a 05 fd 48 3e
       -0.19976027 -0.06786418 0.0018994169 0.1962777
000320 ac 96 35 bd 9d ae 0d 3e c9 80 88 3c 69 dc bd 3c
       -0.044333145 0.13836141 0.016662972 0.023176389
000330 18 f6 e9 bc 41 32 0e be 83 75 03 be 34 54 d8 bd
       -0.02855973 -0.13886358 -0.12837796 -0.105629355
000340 0a 96 d9 be d2 7d 06 be 0b 1a e3 3d 72 1c 0c 3d
       -0.42497283 -0.13133934 0.11088952 0.034206815
000350 48 1a 18 bd 80 fa 2c bd 26 5c e4 3d d0 b8 52 bc
       -0.03713444 -0.042231083 0.111503884 -0.012861446
000360 48 9c d1 bc fe 56 a9 3d ca 7f 50 3d a3 a3 08 3e
       -0.025587216 0.082685456 0.05090312 0.13343672
000370 ae f9 13 be 7c a1 f9 bb 08 1a bc 3c 6d e9 98 3d
       -0.14450714 -0.0076181274 0.022961631 0.074663974
000380 ee 23 9c bd b0 d2 d6 bd cf 2b 41 be b2 40 4d 3e
       -0.076240405 -0.10489404 -0.18864368 0.2004421
000390 99 49 cb 3e e8 4d 39 be 98 ce cb 3d 8c 42 00 3d
       0.39704588 -0.18096125 0.09951514 0.031313464
0003a0 35 77 2a 3d 5b a3 d9 bd 1c af db bd f6 4a d9 bd
       0.04161759 -0.10626861 -0.10726759 -0.10610001
0003b0 d9 24 42 3e 28 a8 04 bd 21 3e 3d 3e ec b8 63 be
       0.18959369 -0.03238693 0.18480732 -0.22238511
0003c0 6d 1f 6f bd 3d 18 7b 3d 28 46 0f 3e c6 72 dd bc
       -0.05837958 0.061302412 0.13991606 -0.027032267
0003d0 9f aa b0 bd 3c 2c f9 3d ef 51 74 3d a6 9a 96 3c
       -0.086262934 0.1216664 0.05964845 0.018384289
0003e0 90 0c 22 be a6 41 d7 3d 86 db 32 be d0 28 ef bd
       -0.15825105 0.10510568 -0.17466554 -0.11677706
0003f0 2b b5 5b 3e 33 0a 1b 3e 9c 46 ac bd 81 8a 09 be
       0.21455829 0.1514061 -0.08411905 -0.13431741

fc2.bias f4 [10]
000000 e0 ea 10 3c 0e 08 fb bc e7 c5 84 3d 93 03 28 3d
       0.008845061 -0.03064349 0.064830594 0.041019034
000010 fa f8 c5 bc 04 0e 7d bd aa a0 26 3d d9 54 7c bd
       -0.024166573 -0.061780944 0.040680565 -0.061604355
000020 c2 de 09 3d 0a 4c 16 bd
       0.033659704 -0.03669361

exp_avg f4 [100, 256]
000000 bc 15 ac 39 d3 71 96 39 3e 3f 83 39 05 b7 59 39
       0.0003282259 0.00028695035 0.00025033386 0.00020762913
000010 a2 50 08 39 4a f4 31 38 bf 75 ca b5 50 17 8a b7
       0.00013000009 4.24276e-05 -1.5084441e-06 -1.6461738e-05
000020 69 46 89 b8 e8 1d b7 b8 a1 ad 17 b8 96 9f 76 38
       -6.545784e-05 -8.7316905e-05 -3.616291e-05 5.8799596e-05
000030 be 1a 12 39 1d a7 44 39 92 c8 89 39 3a 55 ab 39
       0.00013933607 0.00018754271 0.00026280113 0.0003267916
000040 d8 51 a6 39 79 77 75 39 b1 86 30 39 8a ee f1 38
       0.00031722966 0.00023409528 0.00016834844 0.00011536207
000050 2e 0d 94 b7 98 ce 10 b9 5c 09 40 b9 cf 3e 13 b9
       -1.7649112e-05 -0.00013809872 -0.00018314034 -0.0001404241
000060 ef 6a 3d b9 16 59 96 b9 43 83 8e b9 ae 54 cf b8
       -0.0001806428 -0.00028676604 -0.00027182148 -9.886302e-05
000070 90 d4 46 38 9d d2 f7 38 82 90 58 39 b7 64 9e 39
       4.7404843e-05 0.000118171076 0.00020653199 0.00030211147
000080 87 ae b2 39 42 d5 87 39 c2 49 2e 39 95 1c a1 38
       0.0003408084 0.00025908096 0.0001662141 7.682402e-05
000090 ca 8e 47 b8 33 80 f5 b8 20 39 d0 b8 22 5f d5 b6
       -4.757828e-05 -0.00011706389 -9.928853e-05 -6.3589696e-06
0000a0 a5 0f 96 b8 2c 13 90 b9 0b 91 a7 b9 c4 41 35 b9
       -7.1554714e-05 -0.00027480104 -0.00031960788 -0.00017286005
0000b0 cb c4 31 b7 53 8d 03 39 90 8f 7f 39 49 57 a8 39
       -1.0595842e-05 0.00012545781 0.00024372176 0.0003210849
0000c0 5a c6 bd 39 80 36 a8 39 88 40 89 39 36 8f 21 39
       0.00036196673 0.00032084063 0.00026178756 0.00015407507
0000d0 c5 33 7a 37 fc 83 32 b8 3d d1 00 38 6e 7c f8 38
       1.4913215e-05 -4.2561427e-05 3.0712446e-05 0.00011848738
0000e0 aa f1 68 b6 dc 8f 7c b9 ce 6f 8d b9 c4 3e 27 b9
       -3.471136e-06 -0.00024086185 -0.00026976917 -0.00015949743
0000f0 ef 70 96 36 af d9 67 39 87 79 bc 39 57 23 c4 39
       4.4834956e-06 0.0002211097 0.000359487 0.00037410363
000100 8b 39 c5 39 33 2c b9 39 1e e2 a4 39 c1 a4 6d 39
       0.0003761764 0.0003531888 0.00031448988 0.00022663457
000110 f3 40 a9 38 3e 4c 13 b7 02 85 6c 38 c7 26 a4 38
       8.070646e-05 -8.779634e-06 5.6390658e-05 7.827352e-05
000120 65 78 b8 b8 45 49 94 b9 52 37 92 b9 2a 42 05 b9
       -8.796229e-05 -0.0002828335 -0.00027888507 -0.00012708516
000130 b4 51 b5 38 17 4d 9d 39 fd a3 cf 39 ce c4 cd 39
       8.645971e-05 0.0003000281 0.00039604297 0.00039247278
000140 b1 23 d8 39 af ee bc 39 5d da 84 39 5c 24 24 39
       0.00041225323 0.00036035987 0.00025339695 0.00015653804
000150 0c 21 a3 38 d4 c7 4a 37 18 8e ec 37 8b 91 a0 b8
       7.778601e-05 1.2086664e-05 2.819956e-05 -7.656504e-05
000160 94 60 9a b9 a0 61 d1 b9 c4 f9 92 b9 12 4a 9f b7
       -0.00029445125 -0.00039936323 -0.0002803338 -1.8988769e-05
000170 d9 9d 64 39 07 83 b0 39 25 b9 bd 39 7b 54 c4 39
       0.00021802577 0.0003366696 0.00036186833 0.00037446976
000180 3b 57 c6 39 fc 57 a5 39 5f 3c 63 39 4f 39 29 39
       0.00037830495 0.00031536806 0.00021670897 0.00016138445
000190 98 34 f6 38 84 cd 30 38 64 ee c3 b7 41 9f 7f b9
       0.000117399904 4.215307e-05 -2.335682e-05 -0.00024378022
0001a0 17 1c f9 b9 7d cf 02 ba ac bb 86 b9 d9 6b 6f 38
       -0.0004751391 -0.00049900246 -0.00025698298 5.708248e-05
0001b0 74 07 9b 39 1c 4e d3 39 45 bb df 39 19 14 d9 39
       0.00029569457 0.00040303252 0.000426734 0.0004140444
0001c0 a7 41 b0 39 2e 49 a5 39 62 94 a1 39 83 a6 b1 39
       0.0003361825 0.00031525776 0.00030818867 0.00033884132
0001d0 77 3d a0 39 01 84 47 39 b5 47 60 36 7e b7 8b b9
       0.00030563373 0.00019027294 3.342034e-06 -0.00026648858
0001e0 e6 03 f5 b9 e3 ce f4 b9 6e 72 6c b9 4c fa d2 38
       -0.00046732946 -0.0004669345 -0.00022549342 0.00010060202
0001f0 f5 bb bc 39 cb 45 f8 39 75 ed 03 3a 61 b2 f5 39
       0.00035998193 0.00047354246 0.0005032637 0.00046862944
000200 d3 ba b2 39 cd b0 af 39 99 2e b3 39 34 59 ca 39
       0.0003409 0.00033510328 0.00034176258 0.00038594904
000210 29 8d ba 39 db 5e 81 39 d4 cc ee 37 4d 73 67 b9
       0.00035581857 0.0002467547 2.8467191e-05 -0.0002207283
000220 60 db cb b9 8b 60 c6 b9 f0 d4 53 b9 c0 5c b4 38
       -0.00038882624 -0.00037837433 -0.00020201853 8.600345e-05
000230 25 2d b7 39 1e 67 f7 39 f3 4b 09 3a e2 7d 00 3a
       0.00034938115 0.0004718834 0.00052374526 0.00049015705
000240 82 84 b7 39 e4 4b b0 39 fb 74 a7 39 4d 72 a7 39
       0.00035003206 0.0003362588 0.0003193988 0.00031937883
000250 00 b1 8d 39 db de 04 39 72 73 9a b8 d5 08 59 b9
       0.0002702549 0.00012671521 -7.3647956e-05 -0.00020698023
000260 b5 e6 a7 b9 b7 c9 a0 b9 5d 34 46 b9 82 00 aa 37
       -0.00032024612 -0.00030667867 -0.00018902258 2.0265816e-05
000270 05 c8 8e 39 6b 88 ec 39 53 4d 07 3a 51 04 f2 39
       0.00027233377 0.00045115067 0.00051613635 0.00046161053
000280 0f c8 bb 39 65 df b5 39 02 4a a9 39 c3 a5 92 39
       0.00035816475 0.00034689452 0.00032289332 0.00027970792
000290 3b 27 30 39 90 3e 9b b7 29 8f 2c b9 b7 75 42 b9
       0.00016799282 -1.8506573e-05 -0.0001645653 -0.00018545134
0002a0 58 9e 6c b9 9b 86 1a b9 01 17 1f b8 aa b7 51 38
       -0.00022565702 -0.00014736729 -3.7929978e-05 5.0000534e-05
0002b0 93 38 5c 39 27 7a c9 39 e1 03 e1 39 5b 94 cd 39
       0.0002100191 0.00038428718 0.00042918234 0.0003921118
0002c0 be da c3 39 80 bb bf 39 78 76 b1 39 6a 3f 92 39
       0.00037356274 0.00036570057 0.00033848337 0.00027894537
0002d0 90 ee 16 39 a6 48 69 35 76 e6 7c b8 1f 5a aa b8
       0.00014393986 8.690498e-07 -6.0296115e-05 -8.123018e-05
0002e0 49 1d 09 b9 d4 c4 d5 37 6b 98 32 39 e7 49 23 39
       -0.00013076248 2.5483234e-05 0.00017032183 0.00015572422
0002f0 c6 c0 43 39 9d 92 9d 39 cf 9c bc 39 f9 c4 bd 39
       0.00018668463 0.0003005461 0.00035974986 0.00036195645
000300 ef 0a c7 39 39 db d2 39 5a 7d d4 39 bb af b5 39
       0.00037964384 0.00040217655 0.00040529185 0.0003465394
000310 99 d9 58 39 21 8b df 38 b1 07 87 38 07 94 28 b7
       0.00020680427 0.000106593834 6.438734e-05 -1.0048046e-05
000320 58 48 a3 b8 8f f4 d1 38 ea 70 78 39 2d a8 4e 39
       -7.785921e-05 0.00010011449 0.00023693187 0.00019708341
000330 bb ba 56 39 d9 3c 9f 39 f1 87 c5 39 66 b2 c6 39
       0.00020478193 0.00030372178 0.00037676052 0.0003789842
000340 53 e0 c2 39 83 13 d3 39 77 22 e5 39 fb 25 d0 39
       0.00037169698 0.00040259594 0.00043703962 0.0003970115
000350 53 ff 81 39 44 61 eb 38 b4 5b 45 b7 09 f8 d1 b8
       0.0002479503 0.0001122379 -1.1763466e-05 -0.00010012097
000360 ab 03 0f b9 30 58 8c 37 dc 85 23 39 c3 74 3d 39
       -0.00013638909 1.6730366e-05 0.00015594758 0.00018067942
000370 71 67 83 39 79 ab b5 39 c7 5a cd 39 f3 e2 c6 39
       0.00025063337 0.00034650767 0.0003916828 0.00037934593
000380 6d a1 bd 39 42 f1 c8 39 63 42 df 39 47 15 df 39
       0.0003616916 0.00038326724 0.00042583336 0.00042549727
000390 64 98 ad 39 bf 59 1d 39 57 f5 a0 b8 05 a5 4b b9
       0.0003311067 0.0001500612 -7.675093e-05 -0.00019421063
0003a0 97 23 55 b9 e3 97 9e b8 86 30 dc 38 da 70 75 39
       -0.00020326521 -7.562318e-05 0.00010499456 0.00023407061
0003b0 02 12 b1 39 cf f9 c9 39 d2 fa ca 39 6a eb c1 39
       0.00033773488 0.0003852383 0.00038715318 0.00036987226
0003c0 3f be ba 39 ea fe bf 39 c9 be d0 39 4a 0a e2 39
       0.0003561843 0.00036620285 0.00039814998 0.00043113745
0003d0 a3 c2 d8 39 8b 0a 88 39 24 bd d8 37 96 55 bf b8
       0.00041343746 0.00025947797 2.5837282e-05 -9.123531e-05
0003e0 67 28 a4 b8 16 08 1f 38 a5 4f 60 39 df 8a ab 39
       -7.827655e-05 3.7916085e-05 0.00021391975 0.0003271913
0003f0 e6 e2 c3 39 01 42 c6 39 17 d9 c1 39 d9 3c bd 39
       0.0003736235 0.0003781468 0.00036973573 0.00036094224

exp_avg_sq f4 [100, 256]
000000 fa 6b c9 36 7d 37 c4 36 5b 97 ba 36 63 8e aa 36
       6.002837e-06 5.847715e-06 5.560852e-06 5.082971e-06
000010 a3 a1 93 36 f4 15 73 36 9e 4f 3f 36 11 ba 1b 36
       4.3997584e-06 3.62226e-06 2.8507561e-06 2.3205105e-06
000020 ca 13 14 36 90 3b 27 36 54 2d 44 36 71 4b 72 36
       2.2065237e-06 2.491961e-06 2.923266e-06 3.6104723e-06
000030 00 15 97 36 6e c9 ad 36 cd 83 ba 36 d5 b0 c3 36
       4.5025954e-06 5.1792513e-06 5.5585756e-06 5.832039e-06
000040 af 49 c6 36 44 9a ba 36 c4 5c a8 36 61 a0 91 36
       5.9094377e-06 5.561191e-06 5.0175895e-06 4.3400073e-06
000050 5a 33 72 36 3e 8d 3e 36 df 62 17 36 76 88 12 36
       3.60907e-06 2.839442e-06 2.2558304e-06 2.1835126e-06
000060 3e a4 18 36 ae a5 29 36 f0 40 31 36 30 5c 46 36
       2.2745367e-06 2.52794e-06 2.6412854e-06 2.955796e-06
000070 0a d5 7a 36 f7 b7 99 36 6a da ad 36 eb 38 be 36
       3.7376908e-06 4.5811717e-06 5.1812285e-06 5.6690674e-06
000080 28 d1 c1 36 42 90 b1 36 49 61 99 36 10 f6 7f 36
       5.776197e-06 5.291805e-06 4.571081e-06 3.8141188e-06
000090 0c a1 52 36 75 93 22 36 35 d3 00 36 b2 71 10 36
       3.138618e-06 2.4225712e-06 1.9196425e-06 2.1523852e-06
0000a0 50 42 16 36 d7 8f 1b 36 4f de 1c 36 c4 3d 30 36
       2.239034e-06 2.3180526e-06 2.3375212e-06 2.6261996e-06
0000b0 dc c8 59 36 a9 50 89 36 5d 72 a0 36 53 62 b6 36
       3.2452435e-06 4.0923082e-06 4.781685e-06 5.435469e-06
0000c0 0d e2 b9 36 7f e7 a4 36 b2 00 88 36 c6 b4 5a 36
       5.5397454e-06 4.9145306e-06 4.053197e-06 3.2589755e-06
0000d0 a5 e7 36 36 af be 11 36 0c c6 f5 35 07 a0 07 36
       2.7254948e-06 2.1717676e-06 1.8311562e-06 2.0209716e-06
0000e0 09 f0 05 36 b9 92 fc 35 ca f7 f8 35 99 f1 1a 36
       1.9958263e-06 1.8818165e-06 1.8549556e-06 2.3088417e-06
0000f0 43 6e 4f 36 40 fd 81 36 05 c8 96 36 f2 3a ad 36
       3.0909584e-06 3.8739818e-06 4.4936337e-06 5.162664e-06
000100 b0 0f b0 36 9e a5 97 36 7d 62 76 36 d5 72 42 36
       5.247035e-06 4.519431e-06 3.6714184e-06 2.8975094e-06
000110 f7 ee 26 36 03 46 12 36 84 f3 0d 36 00 c7 11 36
       2.4875023e-06 2.1796448e-06 2.1152382e-06 2.1722517e-06
000120 bb 9d 04 36 09 2a dd 35 bb 7b d6 35 c8 58 0f 36
       1.9761344e-06 1.6478017e-06 1.5980253e-06 2.1360338e-06
000130 24 6e 4d 36 ea c4 80 36 d5 a3 95 36 38 8a ac 36
       3.061149e-06 3.837621e-06 4.4596186e-06 5.1420902e-06
000140 35 55 aa 36 ff bb 94 36 2c 3f 7d 36 f2 a9 49 36
       5.076314e-06 4.4326293e-06 3.7736709e-06 3.0050255e-06
000150 35 c8 25 36 04 ff 16 36 ff fb 18 36 18 48 0c 36
       2.4703452e-06 2.250018e-06 2.2796446e-06 2.090359e-06
000160 65 c3 f3 35 b1 e9 c4 35 9c f4 bd 35 2a 40 09 36
       1.8161778e-06 1.4671151e-06 1.4152788e-06 2.045194e-06
000170 9b 2a 3e 36 ee 1e 77 36 29 4e 97 36 41 1f b0 36
       2.8337006e-06 3.6823872e-06 4.5092497e-06 5.248847e-06
000180 85 8a af 36 f5 6b 9c 36 4c b7 85 36 80 71 49 36
       5.231532e-06 4.66173e-06 3.9850474e-06 3.00174e-06
000190 6f b2 13 36 16 92 01 36 97 e4 fd 35 12 8c dd 35
       2.200857e-06 1.9307531e-06 1.8916497e-06 1.6506549e-06
0001a0 c6 8e dd 35 8d 4d c6 35 0c 23 cb 35 fd fe 19 36
       1.6507336e-06 1.477472e-06 1.5134879e-06 2.29472e-06
0001b0 09 a4 44 36 d6 48 72 36 52 6d 95 36 32 8b ae 36
       2.9301757e-06 3.6103206e-06 4.4532726e-06 5.2018086e-06
0001c0 f7 fc b3 36 d9 4e a0 36 88 5f 81 36 04 9f 34 36
       5.3640647e-06 4.7775507e-06 3.855621e-06 2.691465e-06
0001d0 33 21 02 36 4e f6 e5 35 e8 b4 cb 35 ad f6 b3 35
       1.9390834e-06 1.7133514e-06 1.5177329e-06 1.3408331e-06
0001e0 f8 46 d3 35 6d 7c d3 35 94 da e2 35 58 1a 26 36
       1.574138e-06 1.5756938e-06 1.6901927e-06 2.4751262e-06
0001f0 84 9a 48 36 12 c3 70 36 56 f3 94 36 f9 3a ab 36
       2.9892262e-06 3.5876333e-06 4.4390717e-06 5.1030624e-06
000200 fc cb af 36 6d 68 9c 36 71 8d 79 36 ba db 2f 36
       5.2391533e-06 4.661319e-06 3.718622e-06 2.620493e-06
000210 fd 97 0b 36 8f 15 f4 35 36 1f cf 35 76 b9 c9 35
       2.0801083e-06 1.8185691e-06 1.5431785e-06 1.5029643e-06
000220 e5 9b ea 35 6f 56 dd 35 f5 e5 eb 35 90 e2 1e 36
       1.747973e-06 1.6490939e-06 1.7575791e-06 2.3675711e-06
000230 cb b2 42 36 de 5c 70 36 4f 1b 92 36 59 4d a9 36
       2.9012324e-06 3.5816843e-06 4.354318e-06 5.045597e-06
000240 0b cd a9 36 d4 f9 93 36 0d 8f 70 36 81 46 39 36
       5.0604626e-06 4.410025e-06 3.5846053e-06 2.7608187e-06
000250 12 8b 22 36 56 d0 0f 36 65 23 f5 35 3c 11 ec 35
       2.422083e-06 2.1429928e-06 1.8264224e-06 1.7588386e-06
000260 43 4c f7 35 2f da e0 35 87 65 e9 35 86 91 0b 36
       1.8425129e-06 1.67528e-06 1.7389401e-06 2.079732e-06
000270 5a 03 39 36 d6 2b 71 36 fb 25 91 36 73 7d aa 36
       2.75691e-06 3.5937314e-06 4.3257583e-06 5.080999e-06
000280 33 03 ac 36 90 7e 94 36 0c 76 7b 36 dc cb 4d 36
       5.126372e-06 4.4254775e-06 3.7470627e-06 3.0666042e-06
000290 5d 60 31 36 7b 26 1f 36 c1 87 0a 36 dd 48 f5 35
       2.6431146e-06 2.3715245e-06 2.0642622e-06 1.8275128e-06
0002a0 34 91 e5 35 e2 54 d6 35 49 ed d4 35 9c 77 01 36
       1.7104089e-06 1.5968947e-06 1.586429e-06 1.929212e-06
0002b0 d1 7d 3b 36 88 eb 75 36 34 0e 97 36 1b 79 b0 36
       2.7938406e-06 3.6644942e-06 4.501804e-06 5.2593073e-06
0002c0 7f ad b3 36 22 4c 9f 36 59 55 8f 36 d0 c1 77 36
       5.3548133e-06 4.7474323e-06 4.271668e-06 3.6918682e-06
0002d0 1e 8b 50 36 c0 3c 30 36 de 9c 10 36 b9 53 ee 35
       3.1075392e-06 2.6261405e-06 2.154898e-06 1.7756748e-06
0002e0 4c 40 d6 35 57 6c d0 35 bb 1d dd 35 b5 76 11 36
       1.5962955e-06 1.5528739e-06 1.6474436e-06 2.167578e-06
0002f0 15 99 50 36 32 d4 82 36 17 ca 9f 36 e6 04 b7 36
       3.108352e-06 3.8990047e-06 4.7620956e-06 5.4543953e-06
000300 fe 03 bc 36 c6 e9 a9 36 d5 7d 9b 36 7e 39 8b 36
       5.6033014e-06 5.0638073e-06 4.6340087e-06 4.149216e-06
000310 8a 28 6c 36 97 09 45 36 46 81 18 36 81 5e e0 35
       3.5190337e-06 2.936087e-06 2.2725012e-06 1.6716805e-06
000320 91 ef c7 35 c7 3c da 35 39 8e 09 36 c9 ee 33 36
       1.4896378e-06 1.6259954e-06 2.0497375e-06 2.681207e-06
000330 9d 7f 6c 36 15 a4 8e 36 07 e5 a6 36 e0 9b bb 36
       3.524102e-06 4.2510314e-06 4.973848e-06 5.5911805e-06
000340 05 d4 c1 36 5c 05 b2 36 15 f4 a2 36 a9 88 97 36
       5.7765305e-06 5.3054373e-06 4.856391e-06 4.51606e-06
000350 3f 0b 86 36 d7 f4 5a 36 84 f5 29 36 1a 53 f1 35
       3.9948204e-06 3.2627047e-06 2.5325871e-06 1.7980085e-06
000360 32 d2 c0 35 83 2b d7 35 11 90 1a 36 11 3d 60 36
       1.436629e-06 1.6031412e-06 2.3031646e-06 3.3414146e-06
000370 11 f8 8c 36 e6 61 9c 36 4f bf af 36 8d cc c0 36
       4.201204e-06 4.660559e-06 5.2376777e-06 5.7458587e-06
000380 a7 00 c6 36 45 b8 ba 36 2d e2 ab 36 fa ee 9e 36
       5.900936e-06 5.5646838e-06 5.1225275e-06 4.7365875e-06
000390 e0 93 8c 36 e4 02 68 36 01 91 3b 36 3d 1d 0e 36
       4.18954e-06 3.4572377e-06 2.7949575e-06 2.1176668e-06
0003a0 7e 67 e4 35 61 9f 03 36 ef ad 3f 36 38 36 88 36
       1.7017444e-06 1.9613292e-06 2.856246e-06 4.0594277e-06
0003b0 21 dd 9d 36 3e a5 a7 36 8f 91 b6 36 1e ca c2 36
       4.7047074e-06 4.9962246e-06 5.440968e-06 5.80518e-06
0003c0 04 8d c9 36 66 58 c4 36 e3 73 ba 36 75 c7 ab 36
       6.006683e-06 5.851546e-06 5.556723e-06 5.119417e-06
0003d0 3b c6 94 36 1c ca 73 36 d2 b2 46 36 46 42 21 36
       4.433821e-06 3.6327465e-06 2.9608386e-06 2.4029446e-06
0003e0 4f ce 15 36 63 c1 39 36 08 4b 7d 36 89 62 9e 36
       2.2322818e-06 2.7679714e-06 3.7743612e-06 4.720238e-06
0003f0 6e 81 ad 36 d5 d8 b6 36 71 73 bf 36 8f df c5 36
       5.1708694e-06 5.4492652e-06 5.7056827e-06 5.897083e-06

exp_avg f4 [100]
000000 9b 70 ba b9 ff 53 a1 39 16 1c a4 0e a5 f0 18 3a
       -0.00035560582 0.00030770895 4.0456167e-30 0.00058341987
000010 ca e0 5f 38 ab c6 3e ba ab bc dc 39 17 99 ea b6
       5.3376694e-05 -0.00072775286 0.00042102239 -6.9915654e-06
000020 7e e0 4b b9 ba f2 9d b8 f0 64 11 ba e2 52 e5 39
       -0.00019443218 -7.531555e-05 -0.0005546352 0.00043740036
000030 1c 36 7a 3a 8c ed 27 39 47 44 e4 39 7d f9 f9 b9
       0.0009544806 0.00016014854 0.0004353842 -0.00047678864
000040 db d0 af 39 d1 8a 23 39 e5 f4 81 b9 97 82 24 ba
       0.0003353421 0.00015596604 -0.00024787258 -0.0006275563
000050 98 cf 9d 39 0f 1c e0 38 30 56 12 39 34 c8 12 3a
       0.00030100043 0.00010686379 0.00013955752 0.00055992906
000060 99 81 8a 3a 1d 35 e3 b8 7e c5 99 b8 49 f6 14 b9
       0.0010567188 -0.000108340966 -7.332394e-05 -0.00014206128
000070 92 b6 50 ba cf 6b 14 b7 9e 7f e7 39 96 73 e8 38
       -0.00079617754 -8.846589e-06 0.00044154836 0.000110841516
000080 95 7c 01 3a ea 29 03 ba 7e cc da b9 fc f2 1b 3a
       0.00049395236 -0.0005003499 -0.0004173256 0.0005948988
000090 09 b5 5c 3a c2 58 0b 2f 14 2b 98 b9 ef eb 1a 3a
       0.00084193103 1.267351e-10 -0.00029023795 0.00059097906
0000a0 fa 01 40 ba f3 21 b5 ad 62 ab 3a 3a be 71 d3 b9
       -0.0007324513 -2.0592394e-11 0.0007120875 -0.000403298
0000b0 47 60 05 39 cc 9b 6c 3a 22 b6 ab b8 8b ee f5 ac
       0.00012719735 0.0009025901 -8.18784e-05 -6.9898024e-12
0000c0 51 31 8f b9 8c 28 83 3a 94 86 22 b9 8e b9 b5 b9
       -0.0002731183 0.0010006591 -0.00015499658 -0.0003466126
0000d0 df aa 61 ba af 0f 81 39 b3 4a 4e ba 2e 55 ca b9
       -0.00086085306 0.00024616483 -0.00078694074 -0.00038591906
0000e0 11 f2 48 3a dd 40 79 3a 7e 6b f0 b9 42 7b 40 b8
       0.0007665465 0.00095082616 -0.00045856455 -4.589116e-05
0000f0 5d 76 08 39 35 f1 15 ba 59 ba d1 38 c1 d5 0c b9
       0.00013014064 -0.00057198416 0.000100006066 -0.0001343107
000100 de 08 0c ba 3a e2 25 b8 39 db b5 3a 42 98 35 b2
       -0.00053418975 -3.9549755e-05 0.0013874538 -1.0570206e-08
000110 c8 72 de b9 34 71 32 3a 6d 3d a0 38 99 f2 e9 38
       -0.00042428658 0.000680703 7.640836e-05 0.00011155493
000120 53 09 81 ba 2d d0 a2 0b dc ad 11 b9 d4 d2 35 b9
       -0.0009844698 6.271336e-32 -0.00013893045 -0.00017340045
000130 b2 ad f6 b9 87 ab 02 b8 3d 3a dd 39 7d e2 09 ba
       -0.0004705019 -3.1154163e-05 0.00042195796 -0.00052598846
000140 7f be 7e 3a 69 d4 07 ba d9 5b f2 0c 54 cd d8 b9
       0.0009717717 -0.0005181493 3.7341283e-31 -0.00041351712
000150 1e 56 66 3a bd ac 1a ba 1d 6a 75 3a 44 ca 11 3a
       0.0008786636 -0.0005900374 0.00093618204 0.0005561451
000160 27 f1 11 3a bd 47 bb b8 3f 43 d7 ba cb 40 53 3a
       0.00055672455 -8.930217e-05 -0.0016423239 0.0008058666
000170 a2 b8 8f 39 0b 99 0e b9 3b ae 2d 39 95 68 22 ba
       0.00027412648 -0.00013599188 0.00016563472 -0.00061953935
000180 68 30 db b9 ee 4f 4d ba 79 27 4b 3a a7 17 3c 3a
       -0.00041807 -0.000783204 0.00077497173 0.00071751553

exp_avg_sq f4 [100]
000000 8e ab cb 36 1c 38 0b 37 92 25 ac 31 e0 93 53 36
       6.069843e-06 8.29811e-06 5.01013e-09 3.1527525e-06
000010 93 18 21 34 0f 5f b6 36 ba 77 a7 36 ef a7 50 34
       1.5003234e-07 5.435089e-06 4.990926e-06 1.9432603e-07
000020 d0 39 30 36 48 f2 d8 34 28 73 8e 36 77 cc c8 36
       2.6259695e-06 4.0409418e-07 4.2453357e-06 5.9842673e-06
000030 84 4a 88 36 5b b2 45 37 5d b1 14 37 e7 d9 df 36
       4.0617906e-06 1.1783642e-05 8.862783e-06 6.671285e-06
000040 2a f1 bd 36 be 16 da 36 ed 95 bf 36 f4 5b 27 37
       5.660714e-06 6.499554e-06 5.7096972e-06 9.975385e-06
000050 41 d5 ce 36 da 11 27 37 31 8b 23 36 02 6a f9 36
       6.1641044e-06 9.958132e-06 2.4369913e-06 7.433119e-06
000060 2b bd d3 36 9f c3 a9 36 75 ad e4 36 f7 c1 c8 36
       6.310312e-06 5.059366e-06 6.8151226e-06 5.983045e-06
000070 97 81 c8 36 7f 43 bd 36 b0 36 02 37 13 7f 93 36
       5.9755507e-06 5.6404965e-06 7.761337e-06 4.395735e-06
000080 f6 17 f5 36 c8 f5 da 36 61 8f fc 36 e5 ca e7 36
       7.3043584e-06 6.525519e-06 7.5268767e-06 6.9079565e-06
000090 25 5d e1 35 3a 90 51 33 3b bb be 36 5b 83 22 37
       1.6790915e-06 4.8792778e-08 5.6842377e-06 9.686536e-06
0000a0 d3 b0 96 36 68 7a 1b 30 7f ba 40 37 b3 9e 2a 37
       4.4909334e-06 5.656262e-10 1.1487514e-05 1.016974e-05
0000b0 a3 d6 df 36 18 c1 3c 37 52 a2 d0 36 46 ed 96 33
       6.670905e-06 1.1250631e-05 6.2177796e-06 7.028079e-08
0000c0 6c b9 4d 37 45 25 09 37 d6 83 8f 36 7a 2d 1b 37
       1.2262124e-05 8.174514e-06 4.27708e-06 9.249308e-06
0000d0 15 16 26 37 0d 63 2a 37 a8 53 b7 36 62 cb 2c 36
       9.899512e-06 1.0155852e-05 5.463564e-06 2.5748382e-06
0000e0 56 0d 84 36 00 90 2b 37 13 59 e8 36 93 46 82 36
       3.935459e-06 1.0225922e-05 6.9245084e-06 3.882518e-06
0000f0 66 53 be 36 70 39 ee 36 e5 69 f6 36 aa 8c d5 36
       5.67215e-06 7.0996393e-06 7.343699e-06 6.36427e-06
000100 0d db 29 37 69 cc 55 35 dd 48 3e 37 be 71 d3 32
       1.0124187e-05 7.964614e-07 1.1341847e-05 2.4615357e-08
000110 36 79 1f 37 eb e4 81 36 fb 75 1b 37 df 0c 83 36
       9.50536e-06 3.871149e-06 9.266189e-06 3.9056026e-06
000120 60 fd b8 36 7d e1 38 2c 8f 48 6e 36 cd be c7 36
       5.513124e-06 2.6273144e-12 3.5506998e-06 5.9528743e-06
000130 ca 94 a4 36 ac 25 8b 34 c0 6c 0d 37 49 b4 ac 36
       4.904902e-06 2.5918177e-07 8.429575e-06 5.1469874e-06
000140 2e c1 8c 36 ba 20 17 37 51 d5 cc 2e 3a f8 24 37
       4.194814e-06 9.007921e-06 9.3147386e-11 9.8329565e-06
000150 f4 55 04 37 bf 69 e5 36 db 28 d1 36 5d 53 c8 36
       7.887826e-06 6.8370423e-06 6.2334416e-06 5.9701692e-06
000160 3c 79 d0 36 d0 d5 25 34 a0 5d d1 36 11 dd ea 36
       6.2129966e-06 1.5444607e-07 6.2395848e-06 6.999479e-06
000170 01 05 3a 37 10 68 d3 36 bb c8 2a 37 4b 41 a5 36
       1.1087629e-05 6.3004045e-06 1.0179526e-05 4.9249843e-06
000180 1f 14 bb 36 25 c4 ee 36 f5 14 f8 36 f8 fe 0e 37
       5.5753767e-06 7.115787e-06 7.3934157e-06 8.523224e-06

exp_avg f4 [10, 100]
000000 3f a7 89 39 fc b5 ea ba c0 f7 93 8f 13 46 f5 bb
       0.00026255284 -0.0017907019 -1.4590749e-29 -0.00748516
000010 83 33 a8 b9 b8 fa 23 bb 89 0e 97 b9 f7 90 78 38
       -0.00032081836 -0.0025021266 -0.00028811794 5.9262817e-05
000020 5c 6e fb bb b8 f2 94 b9 f0 c5 ed ba 08 1c b7 bb
       -0.007673068 -0.000284096 -0.0018140655 -0.0055880584
000030 45 19 27 bb 82 00 dc 39 e3 e0 15 bb 3f 90 8e bb
       -0.002549724 0.00041962048 -0.0022869639 -0.0043506916
000040 ff d3 40 ba e5 48 c2 ba 4a ce 95 bb d6 4d 29 bb
       -0.00073558086 -0.001482275 -0.0045717107 -0.0025833747
000050 d2 d1 dc b8 d0 a4 1a bb d9 58 91 bb ac c0 23 bc
       -0.000105294996 -0.002359677 -0.0044356403 -0.009994667
000060 60 e5 33 bc 48 7c 80 ba 81 6d 7c ba d8 65 9f bb
       -0.01097998 -0.0009802664 -0.00096293545 -0.0048644356
000070 17 d9 f4 ba cc 1e 2a 39 0b a5 55 bc 34 08 11 bc
       -0.001868042 0.00016223936 -0.013039838 -0.008852053
000080 a3 aa 60 bb c5 84 76 bb 1d 28 c4 bb a6 de 7d bb
       -0.0034281395 -0.0037615758 -0.005986227 -0.0038737445
000090 b3 36 eb bb 5b 04 09 27 6d 9d 72 b8 2c 47 4e bb
       -0.0071781515 1.901493e-15 -5.784391e-05 -0.0031475527
0000a0 a2 34 90 bb 64 25 3f ad 20 72 dd bb 08 b3 f0 ba
       -0.0044008056 -1.0865395e-11 -0.0067579895 -0.0018363902
0000b0 fd 73 3c bb d8 61 5e b9 39 a2 12 bb d5 dd 4c ad
       -0.0028755658 -0.0002120802 -0.0022374524 -1.1645314e-11
0000c0 39 99 c6 bb cc f7 d2 ba 25 9e 33 bb a9 17 21 bb
       -0.006060746 -0.0016095578 -0.0027407494 -0.0024580753
0000d0 f7 02 38 bb ac 95 18 bc 30 89 4f bb 7f 9b 2a bb
       -0.002807794 -0.009313028 -0.0031667463 -0.0026032624
0000e0 47 9f e6 bb ca d4 0d bc 8c 70 33 bb 07 58 e9 bb
       -0.0070380303 -0.00865669 -0.0027380316 -0.0071210894
0000f0 f0 df d6 b9 17 f1 cd bb 33 2d aa bb 4d 34 4a bb
       -0.00040984107 -0.0062848437 -0.0051933764 -0.0030853928
000100 af 86 b7 bb 71 9d 7b b7 f0 33 4a bb 8a 84 a9 2d
       -0.0056007723 -1.4997423e-05 -0.003085371 1.9271935e-11
000110 7a 38 cc ba bf 84 6d ba 35 72 ac bb 49 a7 a0 3a
       -0.0015580796 -0.0009060613 -0.005262638 0.0012256886
000120 58 2b 6c ba 9f 0e 58 0d b9 93 11 bc b9 54 5e 39
       -0.0009009144 6.657774e-31 -0.0088853175 0.00021203131
000130 2f 17 1b bb 01 07 9f b8 20 3d cd 38 cb aa 0a bc
       -0.0023664942 -7.5830154e-05 9.786547e-05 -0.008463572
000140 80 89 a5 ba 7e 4b 47 bc a1 41 8a 0d fc be 38 bb
       -0.0012629479 -0.012163995 8.520706e-31 -0.0028190007
000150 82 e2 bc bb 55 18 88 ba bd d7 1b 3a 03 94 3a ba
       -0.0057643065 -0.0010383228 0.0005944928 -0.00071173924
000160 74 e2 36 bc 7e 4b a5 ba c3 ae 2c bb 18 85 20 bc
       -0.011162389 -0.0012610999 -0.0026349283 -0.009797357
000170 21 d2 56 bc 9b 0e 5d 39 bb 11 59 39 35 bb 49 ba
       -0.013111622 0.00021081643 0.00020701338 -0.00076954375
000180 de f7 a8 bb 6d 92 d0 b5 b5 eb 4c 39 57 82 b7 bb
       -0.005156501 -1.5539823e-06 0.00019542764 -0.0056002545
000190 fd 04 e1 3a 52 0d 91 39 25 f9 3e 0e ea 32 3d 39
       0.0017167624 0.0002766648 2.3539267e-30 0.00018043412
0001a0 93 37 e1 33 b3 c0 80 bb 78 c1 4d 3b 7d 69 83 2f
       1.0487488e-07 -0.0039292215 0.0031395834 2.3903715e-10
0001b0 69 0d 6f 38 a5 bd 3a 33 f0 40 71 39 54 cb 7c 3b
       5.699453e-05 4.347898e-08 0.00023007742 0.0038573341
0001c0 e6 aa 41 3b a1 4d 8b 3a 1d 59 e0 3a 9a b4 f1 38
       0.0029551326 0.0010627994 0.0017116402 0.00011525415
0001d0 a5 a4 33 3b 35 7c 0e b7 c1 7b 4c 3a 76 5c 8b 3a
       0.0027411368 -8.492779e-06 0.0007800423 0.0010632414
0001e0 8a 2a 19 3b 3e fc 00 bb 1c 19 eb 37 a5 3d 02 3a
       0.0023371303 -0.0019681598 2.8025876e-05 0.0004968292
0001f0 72 93 80 ba 68 f8 c0 ba 01 f1 2e bb 53 91 c6 3a
       -0.0009809567 -0.0014722468 -0.0026693942 0.0015149511
000200 b7 a5 9c 3a d2 91 2e 3b f7 64 87 3a ac 15 01 ba
       0.0011951242 0.0026637209 0.0010329772 -0.0004924189
000210 95 c0 a0 38 7a 73 54 3a 5d 08 9d 3a b2 22 d3 b7
       7.665266e-05 0.00081043656 0.0011980642 -2.5169316e-05
000220 1b 72 5f 39 5b ca 09 2b 1b 40 09 3a e4 04 4a b9
       0.00021309445 4.8953e-13 0.0005235688 -0.00019266043
000230 81 1a 46 38 b7 0f 59 21 cb 6c 70 38 a4 e7 8c bb
       4.7231562e-05 7.354326e-19 5.732178e-05 -0.0043000747
000240 94 33 f6 3a d6 66 75 3a f4 63 1b 3a 5e 2a b5 26
       0.0018783682 0.0009361332 0.0005927675 1.2570882e-15
000250 fd f3 0d 3b 1a 1e 8c 3a 48 14 0e ba ad f0 4c 3a
       0.002166032 0.0010690123 -0.0005419892 0.0007817846
000260 09 04 c0 3a 67 a7 bc 39 dd 29 58 3a b3 8e 01 37
       0.001464964 0.0003598288 0.0008245984 7.722224e-06
000270 a4 9a f4 3a bf ea da 3a a9 c8 3c 3a 04 be f7 39
       0.0018661809 0.001670204 0.00072015316 0.00047253084
000280 e5 19 1b 3b 8e 94 82 ba f8 db 10 3b 9b 73 8a 38
       0.0023666557 -0.0009962486 0.0022103768 6.601886e-05
000290 a8 37 eb ba 40 12 76 35 0b a8 a2 ba 11 2f d5 2b
       -0.0017945664 9.16687e-07 -0.00124097 1.5147624e-12
0002a0 15 f5 2e 3a b6 7e e0 3a b1 89 10 bb 88 c8 3b 3a
       0.00066740933 0.0017127607 -0.0022054727 0.00071633654
0002b0 f0 db fc 3a 02 ec 43 0d 87 52 64 3a 54 b0 bd 39
       0.0019291621 6.03731e-31 0.00087098073 0.00036180264
0002c0 bc 39 51 ba 9b 76 78 34 43 8e 67 3a 5e 51 ec 37
       -0.00079813204 2.3139948e-07 0.00088331493 2.8171282e-05
0002d0 7e 28 89 3a 1e d9 87 3a af c7 76 0d 94 06 11 3b
       0.0010464338 0.0010364389 7.6044963e-31 0.0022129165
0002e0 b9 26 3c 3b 0a 61 05 bb 56 7a 0a 39 68 3f 7b b8
       0.0028709604 -0.002035203 0.00013206279 -5.9902115e-05
0002f0 cf 2b a0 b8 22 b9 9c 33 14 0b cf 37 bc 31 8e 39
       -7.6375545e-05 7.2979915e-08 2.4681482e-05 0.00027121406
000300 44 03 0d 3b 6a 9e 9c 3a 16 43 99 3a 22 41 12 bb
       0.002151684 0.0011949067 0.0011692967 -0.0022316654
000310 58 2b f3 39 32 d4 f4 3a 84 32 2d bb de 16 26 3b
       0.00046380865 0.0018678962 -0.0026427815 0.002534322
000320 76 11 a1 38 0b 4a bc 3b be 45 4b 0e af c4 c5 3a
       7.6803306e-05 0.0057461313 2.5055261e-30 0.0015088524
000330 ca 50 a4 38 7d 17 9c 3a b1 d0 85 38 86 af 13 36
       7.8351775e-05 0.0011908856 6.380806e-05 2.2006875e-06
000340 f5 15 98 3a cb e1 fa 38 d0 39 49 bb d1 15 52 3b
       0.0011603223 0.00011962986 -0.0030704625 0.003205646
000350 39 0d 90 39 11 80 cb 3a e9 ba f0 ba 71 38 b5 39
       0.00027475672 0.0015525838 -0.001836625 0.00034565062
000360 fb dd 82 3b 5c cd 31 bb 2f a2 54 39 f0 29 7f 3a
       0.0039937473 -0.002713046 0.00020278314 0.0009733727
000370 98 3b 95 39 a9 30 b2 39 a0 be 43 3b c0 13 78 3b
       0.00028463895 0.0003398706 0.002986826 0.0037853569
000380 fc af f3 3a 4a f6 b6 3a a9 a1 92 3a c2 db f7 ba
       0.0018591876 0.0013958898 0.0011187094 -0.0018910097
000390 d0 c0 97 3b 63 3c 4e 3a 4a 1b 97 3b 05 9b a6 3b
       0.0046311393 0.00078672747 0.0046114074 0.0050843977
0003a0 25 72 75 39 ac fa 00 3b 46 da 30 3b 11 43 ac 3a
       0.00023407543 0.0019680662 0.002698557 0.0013142546
0003b0 0d 90 bf 3b 53 27 92 2b 47 95 ff 3a 8d b8 b9 3b
       0.0058460296 1.0384839e-12 0.0019499444 0.005667752
0003c0 e3 9b 96 3b 67 ac 40 2a 94 74 26 3b 1a ba 0f 3b
       0.00459622 1.711284e-13 0.0025399076 0.0021930994
0003d0 72 1c 2e 39 ef 8a 21 3b 0e d6 64 3b b4 9a a1 2b
       0.0001660453 0.0024649461 0.0034917626 1.1482677e-12
0003e0 e3 02 d4 3b 14 ac b8 b8 31 79 3c 3b c9 6d bd 3b
       0.0064700707 -8.805856e-05 0.002875876 0.0057809097
0003f0 a8 5d 18 bb 1e 76 4d 3b 3d 13 4b 39 24 d0 b5 38
       -0.0023249183 0.003135092 0.00019366755 8.669522e-05
