1/27bb95af3cec4b8f890a05cd9828689a/checkpoints/epoch=4-step=570.ckpt (torch, 167728 bytes, 12 tensors)

fc1.weight f4 [50, 256]
000000 17 93 13 3d b2 13 37 bd f2 ab 29 bd 66 e8 6a bd
       0.036028948 -0.044696517 -0.041423745 -0.05735054
000010 8e 3e 39 bc 7c c3 2c bd e9 25 ae bc 7f 73 98 3d
       -0.011306418 -0.042178616 -0.021258311 0.07443904
000020 03 b8 62 3d f0 97 e1 3c dd 2a c0 3c ff e6 4f bd
       0.05535127 0.02753827 0.023457939 -0.050757404
000030 a6 af 4f bd 83 6e e7 3c 53 bb ca 3b 5b 96 f7 bb
       -0.05070462 0.028250938 0.0061868816 -0.0075557656
000040 4c a0 4f 3b 90 9e ae bd 40 d5 f8 3c 89 e4 03 3c
       0.0031681238 -0.08526337 0.030375123 0.0080500925
000050 aa c1 99 bd c6 86 f1 bc d2 cb 9a 3d ea 82 41 3d
       -0.075076416 -0.02948321 0.07558407 0.04724399
000060 5b 88 fc 3c 36 1d 22 3d 0e 1b 68 3d fe 97 06 3d
       0.030826738 0.03957864 0.056666426 0.032859795
000070 25 90 ab 3c c2 ec 81 bc b4 e0 2e 3d f0 a9 64 bd
       0.020942757 -0.015859965 0.042694762 -0.055826128
000080 f3 24 73 bc 1d 79 9b bd f7 aa 7b bb 0a 59 f5 ba
       -0.014840352 -0.0759146 -0.0038401464 -0.0018718552
000090 af 00 f2 3b 84 25 d8 39 27 84 3e 3d 55 b9 be 3d
       0.0073853354 0.00041226682 0.04651275 0.09312693
0000a0 5d 96 fc 3c 50 6b 95 3d e3 d0 22 3d f7 74 79 3d
       0.030833418 0.07295859 0.03974999 0.060902562
0000b0 6f df 68 bd 9f 5f 39 bd 6c 69 a1 bc df f7 96 3c
       -0.056853708 -0.045257207 -0.01970359 0.018428741
0000c0 61 a3 91 3c 0e 09 10 3d a8 0d 68 bc 4b df 28 bc
       0.0177781 0.035164885 -0.014163412 -0.010307143
0000d0 9d 71 34 3d f0 1d 5e 3c 60 f0 4b bd fd f7 c2 3b
       0.044053663 0.013556942 -0.049789786 0.0059499727
0000e0 cb df f7 3d 40 f5 41 3d 2b 2a 30 3d 3b ac a8 3c
       0.12103232 0.04735303 0.043008965 0.020589938
0000f0 d8 9a 8b 3c 2b 55 49 3c a2 4b ce ba 98 57 29 bc
       0.017041609 0.012288372 -0.0015739093 -0.010335825
000100 1e 39 8c 3b 08 03 0d 3c c2 f6 34 bd fa 1b b7 3d
       0.00427927 0.00860668 -0.04418064 0.08940883
000110 88 13 7f bc f9 5a 34 3c f3 e5 a2 bd fd f1 95 3d
       -0.015568621 0.011008018 -0.079540156 0.07321546
000120 63 e4 b6 3d e4 d7 8d 3d dc 77 74 3d 43 07 a4 bc
       0.0893028 0.069259435 0.05968462 -0.020022994
000130 b8 6c 8f bd b5 c4 62 bd 34 db d6 bd f6 b2 55 3c
       -0.07003158 -0.055363376 -0.104910284 0.013043156
000140 d8 cc 00 bd 61 3d 89 bd 38 fc 20 bb d8 34 6b bc
       -0.031445354 -0.0670116 -0.0024564397 -0.014355861
000150 3a f8 38 bd 40 27 02 bd 79 58 e0 bd 9c 65 84 3d
       -0.045158602 -0.031775713 -0.10954375 0.06464693
000160 4f 6c 53 3e ce 4d ea 3d a3 db a1 3c 98 30 e3 3c
       0.20646785 0.11440621 0.019758051 0.027733132
000170 94 68 8a bd 5f 0d 2f bc bf c6 fb bd 14 89 a3 bc
       -0.06758228 -0.01068434 -0.12293767 -0.019962825
000180 89 33 61 bd 1b b3 01 3d ac 4d af bc ab 8b ba bb
       -0.05498079 0.03166495 -0.021399342 -0.0056929193
000190 fd be 38 3c 4a 49 00 bd 02 78 7f bd 6f 9b 31 3e
       0.011276004 -0.031319894 -0.062370308 0.1734445
0001a0 18 3f 15 3e ee 12 73 3d 5a c1 c4 3c 5d 24 a9 3c
       0.1457485 0.059344225 0.024017978 0.020647222
0001b0 45 48 b4 3b ef 26 ed bb b8 5a ad bd c3 03 e2 bd
       0.0055017793 -0.0072373073 -0.08464569 -0.11035874
0001c0 ff 6e 0b bd 27 01 38 bb b4 93 35 bd 25 96 2e 3d
       -0.0340414 -0.0028076859 -0.044330314 0.042623658
0001d0 ea 31 b4 3c 32 5f e1 bd eb ec 6b bd e5 68 d0 3c
       0.021996457 -0.11004485 -0.05759899 0.025440643
0001e0 2d 6b 01 3e c4 cb e5 3d 1d 84 86 3c 48 f7 13 bb
       0.1263854 0.11220506 0.016420418 -0.002257781
0001f0 93 fd 1d 3c 21 55 7e bc 25 76 16 bd 9e 50 93 bd
       0.009642976 -0.015523226 -0.036733765 -0.07193111
000200 9b 05 d2 bd fe a5 fe bc a8 e4 82 bd 26 3f 98 bd
       -0.102549754 -0.03108501 -0.06391269 -0.074339196
000210 59 31 13 bd 71 04 5a bd ad 98 80 bd bd c3 9a 3c
       -0.035935733 -0.053226892 -0.062791206 0.018892163
000220 3a 66 16 3d f6 4e ae 3d fb fd 8c b9 e5 6a b2 3d
       0.036718585 0.08511154 -0.0002689211 0.08711795
000230 c8 f9 e2 bc c4 c8 56 bd d9 16 c9 bd b2 9e 87 bb
       -0.027706996 -0.05243756 -0.09818811 -0.004138791
000240 85 e9 cd bd 78 c7 c4 bd 86 fa 06 bc 4c b8 3f bd
       -0.10054306 -0.09608358 -0.00823844 -0.04680662
000250 26 8c 0e be 92 7d 04 be dc b3 c0 bd c6 92 47 bc
       -0.1392065 -0.12938526 -0.094093055 -0.01218099
000260 f7 df d4 3d 43 5b 10 3d 3c 32 06 3c 58 7b e7 3b
       0.103942804 0.035243284 0.008190688 0.0070642643
000270 99 da 0c bc 5e 34 09 3d 84 b4 78 bd 2a 7e 68 bd
       -0.00859704 0.033497207 -0.060719028 -0.056760944
000280 90 99 d7 3c 30 f3 4b bd 6d d0 d6 3c 35 30 b8 bd
       0.026318341 -0.04979247 0.026222432 -0.0899357
000290 3f 96 ff bd 64 dc 9b bd d0 4d 07 be 9d 1a 2e 3d
       -0.12479829 -0.076103956 -0.13213277 0.04250585
0002a0 aa ed f0 3d 68 d1 a8 3b 2a 85 22 be 49 38 8d bd
       0.11764081 0.0051519163 -0.1587111 -0.06895501
0002b0 9c 95 cd ba 9c bc dd 3c d1 7c 7d bd 5e 40 8f bd
       -0.0015684846 0.027067475 -0.061886612 -0.06994699
0002c0 0f 96 eb bc 66 6b 80 bc 35 a9 de bc ed a1 1d bd
       -0.028758077 -0.015676212 -0.027180294 -0.038484503
0002d0 bd 6d 1f be 68 f2 1d be 6c 11 04 be c8 f4 82 3d
       -0.15569206 -0.15424502 -0.12897271 0.063943446
0002e0 5d 43 8e 3d 6e a9 89 bc 9b 8f 33 be ad 52 cc bd
       0.06946442 -0.016804423 -0.1753525 -0.09976707
0002f0 c2 ba 4d 3d 31 7b 20 bd 62 05 83 bd 11 ac 0f 3d
       0.050226934 -0.039179984 -0.06397511 0.035076205
000300 7e 58 4d 3c b6 8c 77 bb 49 d7 20 3a 86 a7 99 bd
       0.012533305 -0.003777308 0.00061355956 -0.07502656
000310 30 73 15 be 0d 97 b2 bd d2 59 c6 bd 0e 80 b3 3d
       -0.14594722 -0.08720217 -0.096851006 0.08764659
000320 8d 00 07 3e 8e 50 04 bd 59 05 00 be 99 6a d1 bc
       0.13183804 -0.032303385 -0.1250204 -0.025563525
000330 a2 ca 77 3d d2 22 d8 bb 8f b4 84 3d 0f d0 84 3b
       0.06049598 -0.006595948 0.06479751 0.004053123
000340 45 79 37 bd 95 8c 66 bc 61 d1 03 3d fb dd 4c bc
       -0.044793386 -0.014071603 0.0321821 -0.012504096
000350 87 ac e5 bd af 4e ee bd de f6 b5 bd 71 e2 f2 3c
       -0.112145476 -0.116361015 -0.08884977 0.029648991
000360 3c 79 a4 3d 64 e6 63 bd 75 bc 9b bd 9f 0e 1a 3d
       0.08030936 -0.05563964 -0.07604305 0.0376116
000370 da c2 bd 3c a7 1a 3b 3d be b4 13 bd 17 f2 86 bc
       0.023164202 0.045679715 -0.03606104 -0.01647286
000380 8f 43 25 3d d5 60 60 3d bf d7 37 bd 93 46 49 3b
       0.040347632 0.054779846 -0.044883486 0.0030712232
000390 85 e0 b6 3c 54 5b d9 bd fc 21 28 be c2 d2 9e bd
       0.022323856 -0.106131226 -0.16419214 -0.077550426
0003a0 a8 85 49 be 49 3b df bd 38 77 05 be dd 38 d2 bb
       -0.19679892 -0.108999796 -0.1303376 -0.00641547
0003b0 23 42 e6 3c 59 66 cf bc 97 64 2f 3d d2 28 66 bd
       0.028107708 -0.025317358 0.04282054 -0.056191273
0003c0 92 39 21 bb 41 9a 47 bd 2c c0 70 bd a2 e3 13 bd
       -0.0024600965 -0.048731092 -0.05877702 -0.03610576
0003d0 46 dd c1 3c 15 d8 42 bd 67 6d a6 bd 16 56 51 be
       0.023665082 -0.047569353 -0.081263356 -0.20442995
0003e0 81 2f 77 be c0 25 da bd a8 40 3a bd 98 7f 5f bd
       -0.24139215 -0.106517315 -0.045471817 -0.054565042
0003f0 2a 43 62 bc a8 51 89 bc b4 0c 01 bd 03 c5 0b 3d
       -0.0138099585 -0.01676257 -0.031506255 0.034123432

fc1.bias f4 [50]
000000 04 dd f1 bc e7 fe 86 3d 79 07 8f bd 78 7d d8 bc
       -0.029524334 0.065915875 -0.06983847 -0.026427016
000010 b8 df be bb aa ee 9f ba a9 f3 20 bd aa ff a4 3d
       -0.005825009 -0.0012201865 -0.039294872 0.080565766
000020 b8 cb a5 3d 72 b0 2a 3d 03 af f8 3c 02 62 82 3d
       0.08095497 0.041672178 0.03035689 0.0636635
000030 4b e1 38 bd 71 74 6c bb e3 7d 26 3c 44 f7 7b bd
       -0.04513673 -0.0036080147 0.01016185 -0.061515108
000040 35 02 aa 3d f4 18 0c bd ab fc 29 3c b4 54 df 3c
       0.08301202 -0.034203485 0.010375182 0.02726207
000050 82 a0 93 bc ca 4b e1 3d 64 bd 14 3d 4c 63 de 3c
       -0.018020872 0.11000784 0.03631343 0.027146958
000060 70 8f ad 3d 3d e2 60 3d d9 86 a4 3b 21 9b bd 3c
       0.08474624 0.054903258 0.005020958 0.02314526
000070 eb 78 09 bc dd ca 43 3d 96 9d c3 bc 35 2f c3 3d
       -0.0083906455 0.047800887 -0.023878854 0.095304884
000080 d1 b7 a3 bc 49 b2 7b 3b 32 33 00 bc a0 81 2e 3d
       -0.019985111 0.0038405827 -0.007824706 0.04260409
000090 de 56 07 3d 99 89 33 3d 82 f1 9a bc a2 2a a6 bc
       0.033041827 0.043832395 -0.018913988 -0.020284
0000a0 df b7 9a 3c b8 1b d3 bb 28 48 42 3d 53 00 54 3d
       0.018886505 -0.0064425133 0.047432095 0.05175812
0000b0 88 03 c4 3d 5f 97 89 3d a2 e3 80 3c aa 5c 58 3c
       0.09570986 0.06718325 0.015733544 0.013205687
0000c0 16 f7 52 bc c6 26 3e bd
       -0.012876293 -0.046423696

fc2.weight f4 [10, 50]
000000 39 c8 94 be 87 ce 0f be f2 6d 81 be 3a e2 fe bd
       -0.29059008 -0.14043628 -0.25279194 -0.12445493
000010 bc 43 04 3c 92 e5 82 3e c0 49 35 3e f4 7c e4 bd
       0.00807279 0.25565773 0.17703915 -0.111566454
000020 37 07 39 be be bb 9a be 2e b3 c3 bd 2b 21 8c 3e
       -0.18069158 -0.3022136 -0.0955566 0.27369055
000030 43 4b 11 bd 51 9d f5 bd 16 c4 06 be 55 b4 fd bd
       -0.035472166 -0.11992896 -0.13160738 -0.12387911
000040 b3 24 e4 bd 94 50 6c 3a 45 5b 2f be 07 8b 57 3d
       -0.11139812 0.00090146926 -0.1712466 0.05262282
000050 9d b4 0f bd 08 8f 49 3e b6 cb 3f be d4 72 58 be
       -0.035084356 0.19683468 -0.18730053 -0.21137553
000060 0f 80 44 be f8 c3 2e be 07 09 11 bc 8a 29 c1 bc
       -0.19189475 -0.17066944 -0.00885225 -0.023579378
000070 7d 7d 8a bb e6 ee c5 bd d2 62 87 bc 76 92 fb 3d
       -0.004226385 -0.09664707 -0.016526613 0.122837946
000080 4a 0a 8f 3d 0f 6f 8b 3a 36 3d d8 bd 5d 08 3b 3e
       0.06984384 0.0010637956 -0.1055855 0.18264909
000090 7f b5 0c 3e 8c cd 55 be 21 9f a2 3e 94 bd 48 3e
       0.1374111 -0.20879191 0.3176203 0.19603568
0000a0 c3 1c 9f 3d dc 0c 66 be c3 c7 b2 bc 44 85 db bc
       0.07769158 -0.22465843 -0.02182377 -0.026796944
0000b0 2d e7 dd 3d dc ff 1f 3d 21 3a 2d be ae ec d3 bc
       0.10835109 0.039062366 -0.16916706 -0.025869694
0000c0 22 49 87 3e c3 01 98 bd dc cd 7d 3d b7 e0 55 bd
       0.26422983 -0.07422211 0.0619639 -0.052216258
0000d0 06 d8 f6 3d 0d 11 16 be 66 74 38 be 66 52 b6 3d
       0.12052922 -0.14654942 -0.18013152 0.08902435
0000e0 a0 8f 8b 3d 1e dd 3a 3e c7 be 96 be 42 03 ee 3d
       0.06814504 0.18248412 -0.29442427 0.11621715
0000f0 29 22 ed bc 62 67 5f bd 1a da ea bd a9 a6 02 bd
       -0.028946953 -0.054541953 -0.11467381 -0.03189722
000100 05 5f 34 be 51 32 b1 3d 4f 84 1d be 32 b9 bc bd
       -0.17614372 0.08652175 -0.15382503 -0.09215011
000110 53 03 15 3c 3b d6 c6 3d 7c 31 39 be 94 a8 86 be
       0.009095031 0.0970883 -0.18085283 -0.2630049
000120 ea 00 b0 be f5 8d 98 3d 73 f1 8c 3d 7e 09 de 3d
       -0.34375697 0.07448951 0.0688199 0.10841654
000130 73 b6 12 bc 12 96 81 bc 6f 0f 16 be e3 d1 2b bd
       -0.008954632 -0.01581863 -0.14654325 -0.04194821
000140 17 fb 54 3e 58 43 76 be 09 be 8d be 41 a2 8f 3d
       0.20798908 -0.24049127 -0.27684048 0.07013369
000150 97 c4 1b 3e e1 59 5e be 4e b1 8d be 51 2e ff 3d
       0.15211712 -0.21713974 -0.27674335 0.12460006
000160 f2 b3 5c bd 49 c0 52 3d e1 4e 86 be d3 bd 46 be
       -0.053882547 0.05145291 -0.26232055 -0.1940835
000170 9a 06 e1 3d 8b fc 3b 3d e2 5c 5f be 57 16 45 3d
       0.10987587 0.04589514 -0.21812776 0.048117008
000180 a8 b8 45 3e 6a 9c 4a be 47 7d 17 bd 4b 20 18 be
       0.19308722 -0.1978623 -0.03698471 -0.14856069
000190 fb 48 8a bc 62 57 5e be ce c2 60 be 5a 45 2b 3e
       -0.016880503 -0.21713021 -0.21949312 0.16725674
0001a0 56 9a 1d be a9 5e 88 3d 2a 82 f0 bd 0a 2b 5c 3e
       -0.15390906 0.0665868 -0.11743577 0.21500793
0001b0 8c f1 40 3a 38 1d 95 3d a7 8b 22 bd c3 bb 7c be
       0.0007360212 0.07280964 -0.039683964 -0.24681
0001c0 26 dd 40 3d 60 b9 96 bd 11 a2 44 be 4b 91 50 be
       0.047085904 -0.07359576 -0.19202448 -0.20367925
0001d0 dc 73 20 3e 79 9d 80 be e8 88 01 be 4f 78 1b be
       0.15669197 -0.25120142 -0.12649882 -0.15182613
0001e0 44 ac 07 3d de 90 c3 3d e4 c8 15 3e 88 fa 36 bd
       0.03312327 0.095491156 0.14627415 -0.04467252
0001f0 3f 24 4a 3e 2c d1 8c be 82 2b 03 3d c9 20 9e 3e
       0.1974039 -0.27503335 0.032023914 0.30884388
000200 8e 8e 6d be 94 d3 df bc 11 bd 41 3e b1 98 13 bc
       -0.23198912 -0.027322568 0.1891978 -0.009008572
000210 66 62 47 3e 10 05 1a be 90 e1 31 3d 09 e1 3d be
       0.1947113 -0.15040994 0.043428004 -0.18542875
000220 93 e3 2b bd cd 43 0d 3c e3 f2 13 be c0 b5 c1 3b
       -0.04196508 0.008622122 -0.14448123 0.005911559
000230 ef 25 64 3e 7f 56 c4 bd 61 9b b7 3d a4 c6 e4 3d
       0.22280096 -0.0958681 0.08965183 0.111707
000240 9b 43 16 3e fc 7d 8c 3e a9 b8 e7 bc 88 08 7c 3e
       0.14674227 0.27439868 -0.028286295 0.2461263
000250 76 1a ec bd cf e3 60 3d 40 15 d8 ba 5a ee 86 be
       -0.115284845 0.054904755 -0.0016485825 -0.26353723
000260 d1 b7 fe bd d1 dc b9 3d f6 ea 28 be fe 46 ba 3a
       -0.12437404 0.090753205 -0.1649588 0.0014211831
000270 33 fb 0c be 13 db 4d be bb 79 e6 3d 40 74 f0 bd
       -0.137677 -0.20103101 0.11253687 -0.11740923
000280 ff a5 1e 3e 19 ac 79 be 17 e7 6d bd 44 42 83 3d
       0.1549301 -0.24382056 -0.058081713 0.064091235
000290 06 99 2b 3e 8f bb aa bc 9e 1c 83 3e ff bd 71 3e
       0.16757593 -0.020841388 0.2560777 0.23607634
0002a0 4e 02 5e bd 58 c6 09 3e 64 90 96 be a3 b4 1b bd
       -0.054201417 0.13454568 -0.29407036 -0.038014065
0002b0 3d 24 03 be 40 23 07 be fc be ce 3d c1 6b 0b 3e
       -0.12806793 -0.1319704 0.10095021 0.13615324
0002c0 10 0e a6 3d c9 28 16 be 94 dc 9d bd 07 6c 48 3d
       0.08108151 -0.14663996 -0.077080876 0.048931148
0002d0 6b 4e 42 be 4b 5a f5 bc 49 9c 39 bd 1b 50 13 3d
       -0.18975227 -0.029950282 -0.04531506 0.035965066
0002e0 f1 0d 40 be a2 e3 28 be 83 6e 80 bd d9 bb 87 be
       -0.18755318 -0.16493085 -0.062710784 -0.26510504
0002f0 ff 1f 40 be 60 0f cb bd 35 eb 24 3c 41 33 81 3d
       -0.18762206 -0.09915042 0.010065843 0.06308604
000300 8b 7d 89 be e8 9c 8e be 26 8d 9d bd d8 80 05 be
       -0.26853594 -0.27854085 -0.076929376 -0.13037431
000310 7c 04 12 be cb f1 05 3e 29 64 73 bd c6 b7 99 3c
       -0.14259523 0.13080518 -0.059421692 0.018764388
000320 2a 4f 89 3d c8 f2 fc bb 87 eb 2f 3e 85 4c 4c 3a
       0.067045525 -0.0077193715 0.1717969 0.0007793385
000330 fa 18 c5 3d 0a af 94 be 8c 10 49 be 0b 13 03 3e
       0.096239045 -0.29039794 -0.19635218 0.12800233
000340 41 b2 4f 3e 2d be 0c be 25 3d 22 3e 9d 89 31 3e
       0.20282842 -0.13744421 0.15843637 0.17337652
000350 e8 9c 0f be 1a f6 1f bd 0c 7f 3b 3e 2f 14 df bd
       -0.14024699 -0.03905306 0.18310183 -0.108925216
000360 06 15 37 be a4 01 1e be 78 b1 b9 bd f1 5d b1 bd
       -0.17879114 -0.15430313 -0.090670526 -0.08660496
000370 79 a4 47 3e 52 32 51 be 71 d3 80 3d d9 69 c5 3c
       0.19496335 -0.20429352 0.06290329 0.024098324
000380 71 d2 32 be bb c2 71 3d 6e 4d a6 3d ac 0c 7f bc
       -0.1746309 0.0590236 0.08120237 -0.015566986
000390 c3 ca f0 3d ef c7 4c be 50 ab f9 bd ee 89 21 3d
       0.11757424 -0.19998144 -0.121908784 0.03943818
0003a0 3c 26 27 be c7 9f 01 be 4b 4a 44 3e 08 a3 d4 bd
       -0.16323179 -0.12658606 0.19168966 -0.10382658
0003b0 3c af 1e be 5b 79 df bd 40 fb 69 be 86 b7 22 3e
       -0.15496534 -0.109118186 -0.2284975 0.15890321
0003c0 e2 3b 91 3d 6c 31 52 be 8c c0 d2 3c 8c 8e 02 3d
       0.070915 -0.20526665 0.02572658 0.031874225
0003d0 39 5f 64 be 73 c2 50 be fe 20 77 bd 21 7a ef bd
       -0.2230195 -0.20386676 -0.0603342 -0.11693216
0003e0 ec 78 ed 3c 46 73 5d bd d7 37 b8 bc d0 0d 60 3e
       0.028988324 -0.05406501 -0.022487564 0.21880269
0003f0 d8 f7 32 bd 7f f2 06 be cf 05 24 3e 02 22 18 be
       -0.043693393 -0.13178442 0.16017841 -0.14856723

fc2.bias f4 [10]
000000 db 9f 0f 3e 3a 3d bc bd a7 44 34 bd a6 aa 8f bc
       0.14025824 -0.091913655 -0.044010784 -0.017537426
000010 cf 11 d4 3d 83 60 09 be 08 c7 5d 3d 57 f7 d2 3d
       0.10354959 -0.13415723 0.05414489 0.103010826
000020 35 bf 48 3c 5f c1 b3 bd
       0.012252619 -0.08777117

exp_avg f4 [50, 256]
000000 cd c4 be 39 6e c4 d2 39 cb fe dd 39 5e 4b de 39
       0.00036386252 0.00040200673 0.0004234224 0.00042399293
000010 3a bd b2 39 56 c9 aa 39 f2 09 d4 39 6e 73 e4 39
       0.0003409179 0.00032574934 0.000404432 0.0004357355
000020 82 5e 09 3a b5 6a 30 3a f3 36 4e 3a 0e e5 75 3a
       0.0005240218 0.0006729768 0.00078664644 0.000938014
000030 b1 bc 4c 3a 3b ab 08 3a 1f 60 d1 39 2b 6c b8 39
       0.00078100996 0.00052135036 0.00039935202 0.00035175806
000040 f5 3c d5 39 fc a3 02 3a 78 6e 10 3a 8c 9f 0d 3a
       0.00040671942 0.0004983542 0.0005509625 0.00054024975
000050 66 dc ff 39 25 1c 0b 3a 32 02 01 3a c4 52 d7 39
       0.000488016 0.0005306623 0.00049212866 0.0004106966
000060 d1 6c f8 39 20 43 00 3a a9 39 19 3a 5e 05 81 3a
       0.0004738332 0.0004892815 0.0005845079 0.0009843518
000070 47 85 8b 3a 86 4a 5a 3a 2d dc 23 3a fc 1a f2 39
       0.0010644578 0.0008327145 0.00062507653 0.00046177942
000080 5e 17 da 39 7e e3 05 3a cc a3 25 3a dd fd 44 3a
       0.0004159761 0.00051074463 0.0006318658 0.0007514635
000090 a6 d8 3f 3a ce dc fa 39 28 55 87 38 f1 7e 51 b9
       0.0007318355 0.00047848228 6.453163e-05 -0.00019979083
0000a0 42 0b 8b b9 ee 48 c6 b9 98 04 a5 b8 56 0b 26 3a
       -0.00026520534 -0.0003781984 -7.868669e-05 0.00063340866
0000b0 a8 28 81 3a a2 b3 89 3a 22 59 65 3a 7a f5 17 3a
       0.0009854035 0.0010505805 0.00087489386 0.0005796772
0000c0 77 ab d5 39 06 35 02 3a d6 dd 2f 3a 18 f3 5d 3a
       0.00040754277 0.00049670076 0.00067087763 0.0008466705
0000d0 43 d4 3d 3a f9 95 3e 39 49 b9 c4 b9 27 3d 31 ba
       0.00072414073 0.00018175681 -0.0003752208 -0.00067611266
0000e0 ee 32 64 ba 28 61 82 ba 2b a1 d0 b9 12 02 05 3a
       -0.0008705099 -0.0009947168 -0.0003979293 0.0005073856
0000f0 31 15 75 3a 88 9a 8c 3a 4d f1 66 3a b8 af 0f 3a
       0.0009349166 0.0010727206 0.00088097603 0.0005481201
000100 57 06 e5 39 bf 6b 13 3a 51 ea 2e 3a 67 4b 2d 3a
       0.00043683007 0.00056236604 0.0006672489 0.0006610662
000110 8c 87 03 3a 52 fd 50 39 5f 25 0f b9 c8 2d 0f ba
       0.00050174515 0.00019930795 -0.00013651465 -0.0005461839
000120 c5 24 6b ba d3 d6 5c ba 02 d3 23 b9 a4 44 0e 3a
       -0.00089700177 -0.0008424345 -0.00015623498 0.00054270984
000130 0b b8 6a 3a f3 bd 8a 3a a7 16 5f 3a 11 e9 08 3a
       0.0008953816 0.0010585174 0.00085101504 0.0005222718
000140 a4 d2 03 3a 47 ac 2d 3a 6d 47 0f 3a 3c 85 ba 39
       0.00050286413 0.00066250976 0.00054656604 0.00035575952
000150 02 34 98 39 d1 4b 32 39 36 5e 01 38 02 2e 84 b9
       0.00029030448 0.00017003647 3.0843737e-05 -0.0002521128
000160 94 63 04 ba 65 51 94 b9 a4 4f 79 39 30 3d 0d 3a
       -0.00050502387 -0.00028289403 0.00023776159 0.0005387841
000170 17 af 32 3a 5c 09 66 3a 8f e6 5b 3a bf 70 1c 3a
       0.00068162516 0.00087751984 0.0008388543 0.0005967728
000180 64 e6 1f 3a 8e be 4a 3a d9 e4 ed 39 52 72 53 39
       0.00060996995 0.00077340833 0.00045374667 0.00020165116
000190 64 91 02 39 86 3e 0a b9 7b 58 6b b9 9f 67 36 b9
       0.00012451928 -0.00013183997 -0.00022444308 -0.00017395474
0001a0 c2 8d 1e b9 44 6e bc 38 a9 50 cd 39 4d cc e4 39
       -0.00015120863 8.985077e-05 0.00039160743 0.00043639765
0001b0 fb 16 d8 39 b8 85 18 3a 97 36 44 3a 85 a0 2c 3a
       0.00041215852 0.00058182655 0.0007484941 0.00065851986
0001c0 60 de 39 3a 60 05 57 3a 37 0a 05 3a 36 69 ca 39
       0.00070903264 0.00082024 0.00050750695 0.0003860683
0001d0 ff d6 66 39 f8 11 83 b9 cf 0b ca b9 68 c1 64 b9
       0.00022014602 -0.00024999655 -0.0003853724 -0.00021815824
0001e0 69 89 2c b9 30 52 c5 b6 4a c6 8c 39 55 3d b9 39
       -0.00016454388 -5.8806254e-06 0.00026850618 0.00035331646
0001f0 5a a5 ab 39 46 4a e5 39 72 86 29 3a 16 31 24 3a
       0.00032738858 0.00043733622 0.00064668723 0.0006263418
000200 15 ed 3d 3a b4 bb 4f 3a d2 7a 09 3a 3b 0a f8 39
       0.0007245106 0.0007924393 0.0005244437 0.00047309868
000210 b5 9b 81 39 91 c0 a0 b9 10 25 e2 b9 6d d7 bb b9
       0.00024720808 -0.0003066105 -0.00043133693 -0.00035827924
000220 c1 70 f6 b9 7b c6 8f b9 79 8f 51 39 d5 e3 e3 39
       -0.00047004785 -0.00027422965 0.00019985241 0.00043466562
000230 b8 25 c4 39 50 de dd 39 56 d1 22 3a 44 46 1d 3a
       0.00037412136 0.0004231804 0.0006211003 0.0005999545
000240 5c 2f 2d 3a 53 42 48 3a bd bf 00 3a ad c3 b6 39
       0.00066064834 0.00076392776 0.0004911384 0.00034859535
000250 8c c9 c0 38 10 83 cf b9 2e 17 fd b9 94 44 0b ba
       9.1928145e-05 -0.00039579766 -0.0004827319 -0.0005312648
000260 e4 25 3e ba 64 d9 c9 b9 47 48 80 39 34 48 03 3a
       -0.0007253571 -0.00038499676 0.00024467913 0.00050080125
000270 94 d9 bc 39 f9 3a de 39 9f 01 26 3a f1 5d 1a 3a
       0.00036020263 0.00042387078 0.0006332639 0.0005888632
000280 b2 2e 12 3a 58 b1 36 3a c9 a1 16 3a 91 aa e8 39
       0.0005576416 0.00069691753 0.0005746154 0.0004437757
000290 4a 36 1c 39 a4 3d a6 b9 e1 9b f0 b9 21 4b 12 ba
       0.00014897544 -0.00031707913 -0.00045892506 -0.0005580653
0002a0 25 3f 3a ba 30 3b 85 b9 be 0b 8e 39 10 29 a5 39
       -0.0007104746 -0.00025411835 0.000270931 0.00031501846
0002b0 22 a6 6e 39 0b 1e c9 39 0d cc 15 3a 8d a6 14 3a
       0.00022759338 0.0003836009 0.0005714305 0.000567057
0002c0 af 9d d7 39 e6 53 fa 39 69 28 1b 3a 8c cf 25 3a
       0.0004112548 0.00047746225 0.00059188023 0.00063251774
0002d0 81 45 c9 39 49 11 83 b8 37 7b 8f b9 78 9d 00 ba
       0.00038389492 -6.2497864e-05 -0.00027366888 -0.0004906277
0002e0 d4 77 2c ba 54 df 51 b9 9e 64 d5 38 a6 91 02 38
       -0.0006579135 -0.0002001499 0.00010175373 3.113006e-05
0002f0 57 a5 41 39 68 1a c6 39 92 36 ed 39 23 e6 05 3a
       0.00018467508 0.00037785177 0.0004524482 0.00051078404
000300 e4 af b4 39 2d 80 ab 39 58 d5 dc 39 25 72 f8 39
       0.00034463324 0.0003271116 0.00042120623 0.0004738729
000310 43 1b c1 39 d3 e5 fa 38 af 6c a8 b8 03 70 ce b9
       0.0003683214 0.00011963737 -8.031108e-05 -0.00039374837
000320 31 7e 22 ba 4d 4f c0 b9 d9 68 9f b9 92 39 43 b9
       -0.00061986136 -0.00036680177 -0.0003040496 -0.00018618096
000330 e6 c6 ae 39 dd 7d 0f 3a 0b f8 ee 39 06 87 dc 39
       0.00033336057 0.0005473772 0.00045579704 0.0004206227
000340 4e 96 ac 39 24 43 af 39 3a 5d bc 39 32 c5 a9 39
       0.00032918382 0.00033428625 0.00035927613 0.00032381114
000350 08 88 a3 39 76 5d a5 39 d3 ac 11 39 b7 11 1c b9
       0.00031191134 0.00031540886 0.0001389266 -0.00014883919
000360 ce c3 9d b9 d9 62 3a b9 34 ab 67 b9 1d fc c9 38
       -0.0003009126 -0.00017775166 -0.00022093655 9.631387e-05
000370 fc 02 2b 3a cf 68 36 3a a5 4f fb 39 21 f5 be 39
       0.0006523577 0.0006958367 0.0004793379 0.0003642226
000380 25 46 a8 39 01 b1 ae 39 af 06 c3 39 24 a5 a2 39
       0.0003209572 0.00033319744 0.00037198278 0.00031022087
000390 d7 c3 87 39 0b ca ea 39 6f fa 09 3a 8b a4 0f 3a
       0.0002589512 0.00044782492 0.0005263453 0.0005479536
0003a0 4d 61 21 3a 3f a5 2c 3a 50 15 e0 39 ba b2 0a 3a
       0.00061561615 0.0006585903 0.00042740488 0.00052909146
0003b0 9e 66 35 3a fd 5d 0f 3a da c0 c2 39 37 cf a7 39
       0.0006919893 0.00054690224 0.0003714625 0.0003200711
0003c0 73 f0 a9 39 12 6a ad 39 09 11 bb 39 b5 50 b3 39
       0.0003241334 0.0003307616 0.00035680112 0.00034201672
0003d0 b0 89 94 39 ac b2 b2 39 1f fc ef 39 54 95 27 3a
       0.00028331345 0.00034083927 0.00045773477 0.0006392796
0003e0 0c a9 5a 3a 89 d4 61 3a be 48 1c 3a bb 40 f7 39
       0.000834123 0.0008614739 0.0005961767 0.0004715974
0003f0 4e e7 cc 39 62 a6 a5 39 91 e7 9a 39 22 a3 a2 39
       0.00039082248 0.00031595217 0.000295457 0.0003102059

exp_avg_sq f4 [50, 256]
000000 79 71 47 37 a2 c8 43 37 38 fc 3b 37 f6 e0 2b 37
       1.1887744e-05 1.1669619e-05 1.1204793e-05 1.0244772e-05
000010 62 33 12 37 3d fc e3 36 cc cf 9e 36 6b 25 6a 36
       8.714242e-06 6.7944916e-06 4.7329577e-06 3.4890497e-06
000020 61 1e 6e 36 07 c6 9c 36 a7 1f cd 36 f3 df 01 37
       3.5482446e-06 4.6722157e-06 6.113161e-06 7.741141e-06
000030 6a 68 1b 37 47 2f 2d 37 e2 c7 39 37 8c 74 42 37
       9.263031e-06 1.0322611e-05 1.1073398e-05 1.1590437e-05
000040 c0 26 44 37 e0 a2 3b 37 20 38 2a 37 4d d5 0d 37
       1.1691533e-05 1.1183991e-05 1.0145857e-05 8.453918e-06
000050 60 73 de 36 fc 32 a7 36 5f 6b 69 36 7e 59 49 36
       6.629547e-06 4.982923e-06 3.4782204e-06 3.0003425e-06
000060 4f f5 51 36 26 22 89 36 d7 57 ad 36 0d 86 d9 36
       3.1286215e-06 4.0868936e-06 5.1660277e-06 6.4827095e-06
000070 c9 85 05 37 b3 b5 1b 37 bf ce 2f 37 e8 b3 3d 37
       7.958567e-06 9.281025e-06 1.047895e-05 1.1307166e-05
000080 ec de 40 37 4a 2c 32 37 b9 bd 15 37 f2 a3 e4 36
       1.1495995e-05 1.0619939e-05 8.925265e-06 6.8140153e-06
000090 a5 62 b2 36 a7 cc 88 36 17 cd 46 36 5f 54 3b 36
       5.316297e-06 4.0769405e-06 2.9623677e-06 2.7914282e-06
0000a0 da 43 3e 36 8b f2 70 36 66 d7 91 36 50 22 b0 36
       2.83517e-06 3.5903965e-06 4.3464124e-06 5.2492032e-06
0000b0 59 b2 e1 36 29 10 11 37 d9 6c 2c 37 12 a2 3c 37
       6.726285e-06 8.646436e-06 1.0277342e-05 1.1243408e-05
0000c0 03 8c 3c 37 8d 9d 27 37 b3 94 04 37 91 3f c4 36
       1.1238272e-05 9.990658e-06 7.902435e-06 5.8486553e-06
0000d0 a6 dc 93 36 1b 36 66 36 dd b0 50 36 11 65 60 36
       4.4066282e-06 3.4304164e-06 3.1097363e-06 3.343743e-06
0000e0 17 32 82 36 e3 21 83 36 f2 0c 83 36 eb 31 9b 36
       3.880133e-06 3.908049e-06 3.9056113e-06 4.625171e-06
0000f0 39 7e ca 36 b3 e2 09 37 10 ce 2b 37 b9 91 3d 37
       6.0347634e-06 8.218619e-06 1.0240372e-05 1.1299207e-05
000100 95 0c 3a 37 77 c6 22 37 5a 5d f8 36 de 50 ba 36
       1.1089393e-05 9.702161e-06 7.4018435e-06 5.552646e-06
000110 72 da 8e 36 53 a4 7a 36 6d ab 79 36 45 5e 8b 36
       4.25736e-06 3.7348552e-06 3.7203674e-06 4.1534972e-06
000120 95 24 be 36 f6 33 92 36 c4 d7 6f 36 2d a8 9d 36
       5.6667e-06 4.357188e-06 3.5739367e-06 4.698543e-06
000130 55 09 c6 36 23 15 07 37 3e 5b 2c 37 5e c4 3e 37
       5.901946e-06 8.051548e-06 1.0273243e-05 1.1370603e-05
000140 f8 f2 37 37 c2 d3 20 37 2c 8e fc 36 ce a2 cf 36
       1.0964221e-05 9.586047e-06 7.526736e-06 6.1880337e-06
000150 77 f3 a9 36 6e 7a 9e 36 26 46 88 36 7d 5c a8 36
       5.0649355e-06 4.7230196e-06 4.061282e-06 5.017557e-06
000160 4f 66 f6 36 89 bb a5 36 f7 37 80 36 52 2d b0 36
       7.3432816e-06 4.939215e-06 3.8212124e-06 5.2504847e-06
000170 07 37 d9 36 f4 5a 0f 37 84 24 30 37 9c e2 3e 37
       6.47351e-06 8.544641e-06 1.0498919e-05 1.1377644e-05
000180 38 e8 33 37 b2 5c 1f 37 e8 39 07 37 1c 18 e5 36
       1.0723299e-05 9.498721e-06 8.060109e-06 6.8275385e-06
000190 34 7c b4 36 c9 98 a1 36 b4 8d 84 36 65 f6 c1 36
       5.378877e-06 4.8159604e-06 3.950403e-06 5.7805323e-06
0001a0 1b b9 05 37 d7 10 af 36 4b f5 89 36 92 49 b9 36
       7.970516e-06 5.217367e-06 4.111474e-06 5.5219944e-06
0001b0 3b 03 ef 36 b4 f2 18 37 d9 e4 32 37 58 8e 3c 37
       7.123131e-06 9.116415e-06 1.06629095e-05 1.1238815e-05
0001c0 5b cf 2f 37 d6 2c 1d 37 2e 90 0a 37 ba 6d e6 36
       1.04790915e-05 9.368368e-06 8.25901e-06 6.867308e-06
0001d0 b1 fa a9 36 cb 14 8d 36 69 81 81 36 eb 2b cd 36
       5.065777e-06 4.204548e-06 3.859565e-06 6.114589e-06
0001e0 d6 05 fb 36 3c cf ab 36 5f 68 90 36 e9 d5 b5 36
       7.4810623e-06 5.1203224e-06 4.303685e-06 5.4191228e-06
0001f0 ac c6 f6 36 9b ff 1b 37 49 a9 33 37 18 bc 3a 37
       7.3544998e-06 9.298233e-06 1.0708646e-05 1.1130258e-05
000200 6f 23 2d 37 66 b8 1a 37 5c cf 07 37 94 95 e0 36
       1.0319854e-05 9.222049e-06 8.094907e-06 6.6931334e-06
000210 94 2b a8 36 22 c7 81 36 ab 89 77 36 91 cb c0 36
       5.0118633e-06 3.8676817e-06 3.6886001e-06 5.745744e-06
000220 dc 14 d5 36 81 81 9a 36 89 2d 8b 36 a5 6f b2 36
       6.350323e-06 4.604634e-06 4.147824e-06 5.3178105e-06
000230 35 15 fb 36 11 8a 1a 37 d4 4f 2f 37 8a 8a 37 37
       7.4828517e-06 9.211261e-06 1.0449399e-05 1.0939906e-05
000240 5d c8 2c 37 cd ea 1a 37 16 b1 07 37 9a ef e7 36
       1.029865e-05 9.233784e-06 8.087858e-06 6.9122298e-06
000250 14 29 c4 36 38 bd a0 36 b8 e6 85 36 56 5c ab 36
       5.8460373e-06 4.7903995e-06 3.990568e-06 5.1069464e-06
000260 1b 57 ae 36 f1 d9 86 36 93 b2 84 36 2c f8 b8 36
       5.1957445e-06 4.018883e-06 3.9546953e-06 5.5125183e-06
000270 41 52 02 37 e0 a1 19 37 62 25 29 37 bb d4 31 37
       7.767755e-06 9.1572e-06 1.0081889e-05 1.0599552e-05
000280 3d a2 2e 37 56 08 1c 37 a5 5a 07 37 db 5c f4 36
       1.0408982e-05 9.300265e-06 8.067732e-06 7.2825765e-06
000290 3f c2 f2 36 3c 33 da 36 71 f5 a1 36 be 3c 9c 36
       7.2347752e-06 6.5028707e-06 4.826747e-06 4.6562336e-06
0002a0 5e 53 91 36 0d ef 66 36 6f d0 84 36 e1 b4 bb 36
       4.331042e-06 3.4411817e-06 3.9581714e-06 5.5940914e-06
0002b0 54 9d 02 37 2a 3c 15 37 9e 60 21 37 af 40 2e 37
       7.785235e-06 8.8951e-06 9.618843e-06 1.03862685e-05
0002c0 31 9d 32 37 6b a2 1f 37 5e 6b 0a 37 55 58 fb 36
       1.0646226e-05 9.514954e-06 8.250439e-06 7.490666e-06
0002d0 9f 4d 09 37 4e 9d 04 37 31 6b a9 36 f2 a2 90 36
       8.183909e-06 7.9044385e-06 5.049071e-06 4.3105038e-06
0002e0 06 d7 85 36 e5 d1 42 36 b4 82 81 36 a3 f8 b3 36
       3.988741e-06 2.9030427e-06 3.8597154e-06 5.363561e-06
0002f0 bd 46 f5 36 c1 e8 0e 37 36 34 1e 37 57 94 30 37
       7.309804e-06 8.518052e-06 9.42969e-06 1.05249555e-05
000300 c7 a0 37 37 96 1a 26 37 09 d3 11 37 df 56 00 37
       1.0945084e-05 9.900561e-06 8.691809e-06 7.649621e-06
000310 a7 b4 0b 37 65 fe 0c 37 da 54 9a 36 c0 c6 84 36
       8.327107e-06 8.403881e-06 4.5994357e-06 3.957044e-06
000320 8e dc 88 36 55 a6 3b 36 64 7a 8c 36 5d a2 ba 36
       4.078792e-06 2.796199e-06 4.1865733e-06 5.5621335e-06
000330 35 2e f4 36 ce f7 14 37 ac 3b 25 37 48 19 37 37
       7.277146e-06 8.879184e-06 9.84866e-06 1.0913536e-05
000340 d0 d6 3b 37 45 a1 2b 37 2d 14 1b 37 8a ff 05 37
       1.11960835e-05 1.0229943e-05 9.2434175e-06 7.986915e-06
000350 23 4d 02 37 57 a8 0b 37 c0 8e a4 36 5d c5 4a 36
       7.766564e-06 8.32424e-06 4.904199e-06 3.0215226e-06
000360 bc 80 44 36 7f 29 44 36 2c 54 a3 36 bd bd cd 36
       2.928121e-06 2.923043e-06 4.8675774e-06 6.1315645e-06
000370 d0 f5 04 37 9c cc 1f 37 42 01 30 37 4f 1f 3e 37
       7.925046e-06 9.524778e-06 1.049071e-05 1.1332172e-05
000380 aa 89 40 37 6c 92 33 37 90 44 24 37 9d fc 11 37
       1.1476144e-05 1.0703323e-05 9.791125e-06 8.70149e-06
000390 56 69 fd 36 83 bf 03 37 a1 37 ee 36 e3 94 94 36
       7.5522503e-06 7.852798e-06 7.099429e-06 4.4280764e-06
0003a0 39 ca 69 36 40 1b 8e 36 ae f2 b8 36 9e 32 e7 36
       3.4837415e-06 4.235102e-06 5.511879e-06 6.890229e-06
0003b0 29 91 13 37 f1 66 2c 37 3d d5 3a 37 ce bb 43 37
       8.7956805e-06 1.0275967e-05 1.1136112e-05 1.1666632e-05
0003c0 bb 94 45 37 38 6a 3f 37 6f 7b 35 37 c2 f0 25 37
       1.1776744e-05 1.1409218e-05 1.081718e-05 9.890822e-06
0003d0 2f a9 0e 37 37 df f1 36 58 ac dd 36 74 7e b1 36
       8.503251e-06 7.2083453e-06 6.6063767e-06 5.289732e-06
0003e0 8e 87 8e 36 18 87 9c 36 ac 8b d9 36 dc 69 0e 37
       4.2477104e-06 4.6648893e-06 6.483364e-06 8.488507e-06
0003f0 4b 68 2b 37 be 76 3c 37 db 52 43 37 dd 64 47 37
       1.0216677e-05 1.123332e-05 1.1642197e-05 1.1884808e-05

exp_avg f4 [50]
000000 9a ad a9 b9 58 bf e1 3a e2 86 c1 ba 1c 5e 91 39
       -0.00032363535 0.0017223163 -0.001476493 0.00027726672
000010 e9 3f 4f 3a 15 28 9c 3a 2f 43 9c 39 ae ab 87 39
       0.00079059467 0.0011913801 0.00029804694 0.00025877118
000020 bd 3d 23 ba e4 4b 9e 3a ad 6f 38 ba cc b8 27 ba
       -0.0006227156 0.001207706 -0.0007035684 -0.00063980813
000030 90 2c 70 0e 7b 62 0f b3 38 a0 99 ba 2b 56 8f 39
       2.960374e-30 -3.338435e-08 -0.0011720723 0.00027339286
000040 2c f0 01 3b 4a 91 ed 39 d6 14 a2 b9 b1 75 fd b9
       0.0019826991 0.0004531241 -0.00030914572 -0.00048343607
000050 ce 1f 07 b9 8a cd 91 39 29 8a 10 ba 12 66 8a b9
       -0.00012886451 0.00027809694 -0.00055137515 -0.0002639746
000060 ee 94 d2 38 19 a7 4a ba 93 2e cd 2f 07 26 91 3a
       0.00010041321 -0.0007730588 3.7322376e-10 0.0011073955
000070 b0 da 82 ba bc aa 8c 39 41 5f b4 3a 9b dd 80 39
       -0.0009983387 0.00026830088 0.0013761298 0.0002457917
000080 54 a3 30 3a c3 45 a7 3a a8 0b 94 ba 64 8b 52 ba
       0.0006738205 0.001276188 -0.0011294978 -0.0008031635
000090 66 82 89 3a 87 b9 85 3a ac 56 79 ba 09 76 94 ba
       0.0010491132 0.0010202386 -0.00095115113 -0.0011326681
0000a0 a6 2e ac 39 b6 21 3d ba 79 3f 0b ba 48 30 53 3a
       0.00032841152 -0.0007214801 -0.00053118874 0.00080562057
0000b0 4d 21 e6 39 d0 30 c3 3a c6 6d b0 3a 6f e3 fa 3a
       0.0004389383 0.0014891867 0.0013460449 0.0019141267
0000c0 55 17 07 ba 8a 71 33 10
       -0.0005153318 3.5388993e-29

exp_avg_sq f4 [50]
000000 15 19 4a 37 2d 03 dc 36 62 58 e6 37 1c d3 df 37
       1.2045978e-05 6.5568806e-06 2.7459293e-05 2.6681977e-05
000010 ef 44 81 37 18 b6 09 38 c9 5c e9 37 06 b4 0a 38
       1.5410098e-05 3.2832933e-05 2.7818971e-05 3.3069424e-05
000020 ac 38 0d 38 15 36 44 37 50 84 3e 38 4b 04 11 36
       3.36698e-05 1.1695102e-05 4.5422756e-05 2.1609183e-06
000030 07 a6 71 2f 45 12 41 35 d3 ac c6 37 2d 34 ff 37
       2.1977807e-10 7.192469e-07 2.3683917e-05 3.0422665e-05
000040 b5 40 9f 37 6c fe e9 37 19 dd aa 37 ea 89 83 37
       1.8984409e-05 2.7894239e-05 2.0368536e-05 1.5680638e-05
000050 ca 31 9d 37 38 c3 ba 37 7b e2 71 37 97 0f d3 37
       1.8739043e-05 2.2263834e-05 1.4417451e-05 2.516042e-05
000060 50 be 1a 38 aa ea 9b 37 b1 44 62 33 b0 b7 d0 35
       3.6893704e-05 1.8586714e-05 5.26822e-08 1.5550668e-06
000070 4b 76 c0 37 a4 fc c0 37 cc 60 e7 37 bd 6b ca 37
       2.2943268e-05 2.3005829e-05 2.758242e-05 2.4130446e-05
000080 d9 fb 97 37 ca 32 fb 37 a8 d4 df 37 31 31 ee 37
       1.8117878e-05 2.9945182e-05 2.6682697e-05 2.8394717e-05
000090 8b 4d bb 37 cd 4c 00 38 97 30 9b 37 6a 4e ae 37
       2.2328246e-05 3.0589104e-05 1.8500066e-05 2.077893e-05
0000a0 48 15 aa 37 e0 b8 df 37 53 63 82 37 8d e7 b6 37
       2.0275489e-05 2.666976e-05 1.5543459e-05 2.1803915e-05
0000b0 9e 07 18 38 08 53 4f 36 7b 93 a5 37 84 02 05 38
       3.6246718e-05 3.0893734e-06 1.9738209e-05 3.1712014e-05
0000c0 ea df b1 37 10 ec 71 34
       2.1204312e-05 2.2530753e-07

exp_avg f4 [10, 50]
000000 89 63 0c 3b 1b 72 be 39 f9 4a 85 3a fe 21 1b bb
       0.0021421632 0.0003632464 0.0010169438 -0.0023671384
000010 8d 3f b9 ba 76 cf c7 bb 32 6f 06 bb 9a c9 8c b9
       -0.001413332 -0.0060977293 -0.0020513055 -0.00026853086
000020 f9 90 e9 ba 31 35 8a ba 3f 4c 6f bb 57 3e 02 bc
       -0.0017819694 -0.0010544417 -0.0036513952 -0.007949433
000030 ae e4 ad 0e 76 b4 f0 31 6a a8 07 bb 7b 9c 0e bb
       4.2868003e-30 7.0054353e-09 -0.0020699748 -0.002176075
000040 4c 80 47 bc c4 51 85 bb 36 2f a8 ba e6 d7 10 bb
       -0.012176584 -0.004068585 -0.0012831453 -0.0022101342
000050 71 c4 04 bb 76 6c fb bb 90 47 ff ba c6 37 01 3b
       -0.002025869 -0.0076728417 -0.0019476283 0.0019717081
000060 51 fb 79 bb a8 44 85 b9 1b 29 23 2b 9c d2 56 ba
       -0.003814418 -0.0002541889 5.796628e-13 -0.00081948354
000070 79 82 90 ba b0 26 d1 bb 9e f6 35 3a 24 22 c4 bb
       -0.0011025212 -0.0063827857 0.0006941351 -0.005985515
000080 1e f5 a4 bb cf cd 9a ba 25 db 07 3a c0 9a a9 bb
       -0.005034103 -0.0011810603 0.00051824964 -0.0051759183
000090 6d b0 06 bc 6c a6 e8 b9 f3 68 e2 bb ce 06 6e 39
       -0.008220774 -0.00044374482 -0.0069094836 0.00022699984
0000a0 05 38 98 bb 44 c3 3b bb f3 0f 1f ba 38 c4 0b bb
       -0.00464535 -0.0028650323 -0.0006067745 -0.0021326672
0000b0 f2 e6 81 bb 84 d5 a5 ba 52 ee 11 ba c4 a6 ff bb
       -0.0039642984 -0.0012652134 -0.00055668235 -0.0078018624
0000c0 6f a1 60 bb c0 ef 5f 90 d6 78 aa 39 08 39 33 3a
       -0.003427591 -4.4163692e-29 0.00032514957 0.00068368064
0000d0 3e 60 ff ba 20 2c 8f 3a 26 8d c2 39 d2 dc 22 bb
       -0.0019483638 0.0010923184 0.00037107727 -0.0024850857
0000e0 ea 6f 4a ba b7 f1 60 bb cf 08 23 3b b8 c3 50 bb
       -0.0007722365 -0.003432376 0.0024877077 -0.0031854939
0000f0 71 20 86 bb 76 49 4c 38 d3 b1 01 0e 07 c4 9c 30
       -0.004093223 4.8705806e-05 1.5986097e-30 1.1406208e-09
000100 82 fd 52 39 b4 60 02 3a 62 1b d7 3a df 87 28 3a
       0.000201216 0.00049735163 0.0016411359 0.0006428938
000110 74 42 58 bb 75 49 f4 ba 3d 69 88 b9 62 30 bc 3a
       -0.0032998594 -0.0018637615 -0.0002601835 0.0014357681
000120 0c ac dd 3a 53 c1 eb 3a c9 0a da 39 15 c1 67 bb
       0.0016912236 0.0017986692 0.00041588236 -0.0035362889
000130 b1 04 c0 2b 44 da 64 3a 1d 1f 31 3b f2 f9 26 3b
       1.3643723e-12 0.0008730034 0.0027026602 0.002547857
000140 b4 38 75 bb d5 d3 f7 ba bc cc b9 3a 7d cb a3 bb
       -0.003741783 -0.0018907735 0.0014175395 -0.004998623
000150 19 ea fa ba 40 67 02 bb c5 1c 2a bb 31 c2 9a bb
       -0.0019143253 -0.0019897968 -0.002595709 -0.0047228565
000160 ab fa cf 38 b5 2b f2 3a f3 50 42 3a 7d 69 80 3b
       9.91722e-05 0.001847616 0.0007412575 0.003918825
000170 5f c3 23 bb ac f9 46 bb 83 bb 86 3b 87 e0 6b 3a
       -0.0024988276 -0.0030361218 0.0041117086 0.0008997996
000180 b8 e5 46 bb 91 6b 11 3a ab 01 cf ba 5f d3 d8 0e
       -0.0030349325 0.00055473397 -0.0015793344 5.3451654e-30
000190 cf 73 f8 3b c8 71 78 3a ac 9f ca 3b 04 41 2e 3c
       0.007582165 0.0009477404 0.006183585 0.010635618
0001a0 51 f2 78 3b a5 ab 10 3c 00 7b 7d 3b 10 6a 5d 3b
       0.0037986229 0.008829986 0.003867805 0.0033785142
0001b0 ed 19 3d 3c 28 6e bd 39 d0 90 a4 3b fc 94 2d 3b
       0.011541826 0.00036130962 0.005022146 0.0026486507
0001c0 ba e6 3d 0e 10 5c 62 33 64 8d 66 3c 50 4d b1 3b
       2.340714e-30 5.2703456e-08 0.014071796 0.0054108277
0001d0 92 29 04 3c 3a 4a 30 3c 36 ee ac 3b dd 1c 22 3c
       0.008066552 0.0107598845 0.0052774204 0.009894577
0001e0 f4 4a 0f 3b 92 ca bf 3b b2 dc b4 39 a3 18 df 3b
       0.0021864744 0.0058530057 0.00034496706 0.006808357
0001f0 90 76 1b 3c 35 a7 25 3c 9f 20 d4 2a 76 ef 29 bb
       0.009488717 0.010110666 3.76814e-13 -0.0025930083
000200 16 de 37 3c 89 c4 8d 3b 04 5d 0f 3a c1 11 f6 3b
       0.011222383 0.0043264073 0.00054688775 0.0075094406
000210 00 89 d2 3b 6c b6 a9 3b 12 ca aa 3b c4 6d a6 3b
       0.006425023 0.005179217 0.005212077 0.005079003
000220 b8 69 3a 3c 71 e9 b1 39 63 52 0e 3b 7a 65 05 3c
       0.011377744 0.00033933998 0.0021716587 0.00814187
000230 29 de 2d 3c b4 cc 31 3c 46 cc a7 3b 94 e7 7d 3b
       0.010612049 0.010852028 0.005120787 0.0038742768
000240 69 06 26 3c 09 14 c0 ba 70 97 8d 3a 94 b9 c5 3b
       0.010133364 -0.0014654408 0.0010802578 0.0060340855
000250 4d 2e c6 3b fc a4 92 0e 1a 9c 2f bb 65 f8 20 3b
       0.006048 3.6150653e-30 -0.0026795925 0.0024562117
000260 77 db dd b6 35 b8 76 bb 4f 85 b1 ba 7a 62 1e 3b
       -6.6118623e-06 -0.0037646417 -0.0013543757 0.0024167583
000270 ec 91 a2 3a 2e 19 36 3a 89 7d 8a bb 65 ab 1b 3b
       0.0012403107 0.0006946501 -0.0042263907 0.0023753282
000280 e9 84 0f bb a0 4b c2 b8 90 d9 18 0e b1 77 c2 b3
       -0.002189929 -9.264727e-05 1.8840199e-30 -9.055601e-08
000290 72 4b b7 bb 61 db 80 3a 60 66 c2 38 e4 7e b3 b9
       -0.0055937106 0.0009831005 9.26971e-05 -0.0003423608
0002a0 8f f0 86 39 36 01 ba ba 3b d4 94 3a 7c 47 92 ba
       0.00025737702 -0.0014191035 0.0011354754 -0.001116022
0002b0 6b ae 20 3a 3c 5e 37 ba 2b f8 12 bb fc 1a 0c b9
       0.0006129506 -0.0006994938 -0.0022425752 -0.00013361493
0002c0 19 3b cc 2f 36 ad e5 39 d5 fb 59 bb 21 c7 a2 3a
       3.7149375e-10 0.00043807336 -0.0033261676 0.0012418964
0002d0 96 0b 41 3b e7 fd d0 38 36 f2 97 ba b4 ce 5d 3a
       0.0029456369 9.965506e-05 -0.001159257 0.0008461282
0002e0 39 d0 f7 3a d5 53 bf 3a 7e c3 f7 b8 87 19 6d 3b
       0.001890666 0.0014597127 -0.00011814291 0.0036178546
0002f0 6c a4 39 3b f8 4a d7 ba 38 31 ef ba 63 c4 d9 ba
       0.0028326763 -0.0016425541 -0.0018248921 -0.0016614314
000300 7d c5 5e 3b 0a 44 84 3a 48 7c 5c ba 03 57 ab 3a
       0.0033992224 0.0010091078 -0.00084108533 0.0013072196
000310 65 9f 1f 3b d5 5b 23 ba c1 c3 a1 39 60 aa e5 0e
       0.002435648 -0.00062316406 0.0003085416 5.6616924e-30
000320 7c 06 b0 bc db c4 3c bb 13 34 73 bc 7e b4 a3 bc
       -0.021487467 -0.0028803858 -0.014843958 -0.019983526
000330 81 c7 a6 bb 47 d8 1a bc b2 22 f5 ba 6d 8f 8e bc
       -0.0050897007 -0.009450979 -0.0018702357 -0.017402375
000340 07 09 a8 bc 04 f5 de bb bb fb 8c bc 1a 19 a9 39
       -0.020512117 -0.0068041105 -0.017209878 0.00032252894
000350 22 c3 2f 0e 74 01 77 b4 01 1d d4 bc 50 48 12 bc
       2.1664368e-30 -2.3004196e-07 -0.025892736 -0.008928373
000360 78 6d 12 3a 03 18 53 bb 3b b3 85 bc cf b2 d5 bb
       0.000558577 -0.0032210357 -0.016320815 -0.00652156
000370 34 c7 4d bc 54 fa 0c b8 64 b0 6c bb f1 fd 69 bc
       -0.012559701 -3.3611737e-05 -0.003611588 -0.014281736
000380 ae fd 85 bc 09 ac 7d bc 85 8e b8 2f be a1 15 3b
       -0.016356315 -0.015482911 3.357067e-10 0.0022832002
000390 9f ee 97 bc 40 a7 97 3a 17 45 0a bc 40 65 46 bc
       -0.0185464 0.001157023 -0.008439324 -0.012109101
0003a0 0d 49 dc bb 2b fa 0a bc 23 9e 78 bc e2 48 6c bb
       -0.0067225755 -0.008482496 -0.0151744215 -0.0036054184
0003b0 10 09 7b bc 7d 9e 2f bc d6 a2 36 3b 23 43 fb bb
       -0.015321985 -0.010718939 0.0027868054 -0.0076679154
0003c0 2a 6e b8 bc 5f de 91 bb 00 0c 9f bc 8a a4 59 bc
       -0.022513468 -0.0044515575 -0.019414902 -0.013283858
0003d0 26 ec f7 bb 81 a1 d9 3a 9a be 95 bb fe 3a a4 bb
       -0.007565993 0.0016603918 -0.0045698406 -0.005011915
0003e0 63 7a 06 bb 6c 5c 11 8f fc 54 c4 3b 7c f6 07 3b
       -0.0020519726 -7.166852e-30 0.0059915762 0.0020746281
0003f0 2a 72 10 3b c4 21 aa 3b 78 b3 ae 3b 68 e7 d2 39
       0.0022040703 0.0051920135 0.005331453 0.00040226732

exp_avg_sq f4 [10, 50]
000000 bd 6e 44 39 57 31 aa 37 fe 6b 0d 39 67 3a ac 39
       0.0001873327 2.0288555e-05 0.00013487038 0.0003284991
000010 af 09 15 39 9f 36 91 3a c3 04 48 3a d4 44 78 39
       0.00014213355 0.00110789 0.0007630104 0.00023676764
000020 d2 04 ac 39 83 ae f0 38 d3 34 9c 39 84 ba 68 38
       0.00032809988 0.00011476597 0.00029793996 5.5486817e-05
000030 03 39 a7 2f 54 28 d2 36 cb 4f e9 39 12 fb 06 39
       3.0417632e-10 6.2631825e-06 0.00044500674 0.00012872767
000040 76 a9 06 3a 26 63 22 3a 0c a2 40 39 36 68 1b 3a
       0.0005136946 0.0006194584 0.00018370914 0.00059283094
000050 41 32 f1 38 76 25 9c 3a a6 fa 44 38 e0 8e 08 39
       0.00011501136 0.001191302 4.6963476e-05 0.00013023196
000060 b3 cc 62 39 81 64 a1 39 b7 f2 b5 35 93 85 d9 36
       0.00021629296 0.00030783194 1.355619e-06 6.482654e-06
000070 ea 5d d9 39 e1 0b da 38 bc 46 24 39 8d 0b 87 3a
       0.00041459437 0.00010397263 0.0001566661 0.0010303125
000080 5f ae 0f 3a a4 75 08 3a a6 a2 48 39 f3 de bd 3a
       0.00054810004 0.0005205518 0.00019134078 0.0014486
000090 6c b2 eb 3a a7 f8 40 39 d9 19 e2 39 99 5b 70 3a
       0.0017982251 0.00018403177 0.00043125337 0.00091689226
0000a0 ad 46 2f 3a a5 44 d4 38 29 d4 a3 39 f3 34 1a 3a
       0.0006686252 0.00010121734 0.00031247854 0.0005882524
0000b0 75 0c fe 39 79 ed 6a 36 73 6f 3e 39 d9 25 43 3a
       0.00048455936 3.5006944e-06 0.0001816133 0.00074442994
0000c0 2e 80 1f 3a 8e a5 e8 34 40 1e 94 3a d1 4c ee 35
       0.0006084469 4.3333824e-07 0.0011300519 1.7754738e-06
0000d0 ec fe 49 3a 85 a3 49 39 be cd 3c 37 d9 f4 ab 39
       0.0007705528 0.0001922977 1.1253576e-05 0.00032798087
0000e0 a7 84 46 39 98 83 15 3a 57 0e 92 39 f2 3e 0b 39
       0.00018932168 0.0005703508 0.00027857974 0.00013279522
0000f0 6e e4 a6 39 3c 10 6e 31 1d 19 84 2f a1 ae ec 33
       0.0003183218 3.4642786e-09 2.4028504e-10 1.1021371e-07
000100 28 cc 03 3a b1 5b da 39 fc 21 d7 38 d1 7f 28 39
       0.0005027675 0.00041648516 0.00010258329 0.00016069344
000110 e2 08 52 3a 8d 9a 0b 3a ca 10 06 38 3a 97 d8 38
       0.0008012188 0.0005325459 3.1963726e-05 0.00010327851
000120 8e 8e f2 36 6b 6f 31 3a 98 39 34 3a c4 d9 67 3a
       7.2287576e-06 0.0006768617 0.0006875037 0.00088444
000130 3a 5c 37 32 81 f9 bd 35 4f 4a fa 39 a9 13 35 39
       1.0672972e-08 1.4154213e-06 0.0004773908 0.00017268829
000140 a6 c4 4e 3a 18 44 1b 39 20 30 e7 38 8e dc fc 39
       0.0007887579 0.00014807319 0.00011023902 0.00048229512
000150 f0 72 0f 3a 28 76 0e 39 87 9a 73 39 d1 0a 56 3a
       0.0005472144 0.00013586192 0.00023231852 0.0008165064
000160 ef d8 29 36 92 9a 64 39 43 3c 8d 39 70 9a 63 39
       2.5309234e-06 0.00021801356 0.00026938514 0.0002170594
000170 7e 6a 80 3a ea b0 93 39 59 7d 6e 39 97 ce 44 35
       0.0009797362 0.00028169836 0.00022744144 7.331632e-07
000180 cb ac ca 39 ff a8 d8 38 84 8a cf 37 f9 3a df 31
       0.00038657183 0.000103311606 2.4740824e-05 6.4968586e-09
000190 7c dc 67 3a d0 0b e8 37 35 f0 0e 3a 44 5a ce 3a
       0.00088448054 2.7662056e-05 0.0005452664 0.0015743454
0001a0 a8 4d d2 38 ea c2 8b 3a 0e f3 ac 39 9b a3 91 3a
       0.00010028045 0.0010662947 0.00032987486 0.001111138
0001b0 2c 9b 76 3a e0 34 c9 39 43 3f 39 3a cb ee 8f 37
       0.00094072777 0.00038377102 0.00070666167 1.7158125e-05
0001c0 46 e3 b4 2f 69 e9 9e 33 98 47 65 3a 1a e3 a9 39
       3.2903297e-10 7.3999054e-08 0.0008746325 0.00032403396
0001d0 ac 33 6b 3a f8 17 d6 39 98 e8 3d 3a 32 28 08 3a
       0.0008972238 0.0004083512 0.0007244437 0.0005193978
0001e0 b8 38 98 39 d9 5e 59 3a ad a4 93 39 1f 14 17 3a
       0.00029033958 0.00082920265 0.00028160718 0.0005763191
0001f0 f0 6c cd 3a 5e 7a 09 3a 60 b2 63 32 34 d2 aa 38
       0.0015672725 0.00052443694 1.3253697e-08 8.145385e-05
000200 25 ed 38 3a 60 ed b3 39 f7 2e fc 39 ce 54 2d 3a
       0.000705438 0.000343184 0.00048100177 0.0006612063
000210 c4 b2 a7 3a 27 cd fd 39 58 2d 4a 3a e0 2f 14 3a
       0.0012794365 0.0004840877 0.0007712445 0.0005652886
000220 65 95 9f 3a 56 d5 29 3a 14 f7 c8 38 cc b0 3c 3a
       0.001217526 0.0006478628 9.582765e-05 0.00071979756
000230 3b c5 f5 3a 10 4e f3 39 16 ff d8 3a b5 59 75 3a
       0.0018750796 0.00046406733 0.0016555514 0.00093593757
000240 62 11 73 3a 03 ad 7e 38 5d d6 68 39 df aa a1 3a
       0.00092723046 6.071945e-05 0.000222051 0.0012334249
000250 8b 5f 4b 39 c9 06 2c 31 3b da 9c 3a 46 c6 2a 37
       0.00019395181 2.503315e-09 0.0011966893 1.0178954e-05
000260 b7 32 7f 39 d6 ca 0f 3a 6b 98 7e 38 4d 7b 59 3a
       0.00024337588 0.0005485242 6.070027e-05 0.00082962663
000270 47 ce 74 39 15 68 75 39 c4 03 76 3a 19 ad 7c 38
       0.00023346498 0.00023403794 0.00093847164 6.024269e-05
000280 6b 09 8b 3a 17 75 93 36 9b fc 7a 2f 9f cc c9 33
       0.0010607665 4.3945724e-06 2.2827111e-10 9.397012e-08
000290 ab f4 2f 3b 47 0e 23 3a bb 86 56 3b ab 52 ed 3a
       0.0026848714 0.0006220084 0.0032734114 0.0018106302
0002a0 a0 15 95 3a 57 cd 7d 3a 59 0c 43 38 de d2 80 3a
       0.0011374243 0.0009681782 4.6503123e-05 0.0009828468
0002b0 01 8c b4 37 90 88 2b 3a 54 b8 98 3a c6 46 c1 3a
       2.1522867e-05 0.0006543482 0.0011651614 0.0014745824
0002c0 73 16 50 32 27 b4 86 36 39 aa 94 3a fb a6 53 3a
       1.2112298e-08 4.0144837e-06 0.0011342234 0.0008073893
0002d0 88 7a 19 39 c1 7b 23 3a 3a a4 0f 3a d7 42 ba 3a
       0.00014636863 0.00062363973 0.0005479489 0.0014210594
0002e0 8c 13 f9 38 78 f1 90 39 54 d5 bf 3a e2 2f 9b 39
       0.00011876886 0.0002764573 0.001463572 0.0002959958
0002f0 0a ce 88 38 c6 a9 c6 39 0a c2 6b 3a 2c a3 92 3a
       6.523363e-05 0.00037891994 0.00089934526 0.0011187545
000300 a9 eb e4 39 e6 b2 a3 39 15 a6 a6 3a 84 78 77 36
       0.0004366313 0.00031223072 0.0012714291 3.6876017e-06
000310 10 f1 50 39 2f 9f 82 3a 2f 1e 53 39 27 36 f2 31
       0.00019926229 0.0009965653 0.00020133772 7.0492834e-09
000320 b6 e0 48 3b 40 63 62 38 30 21 0b 3b 7f b3 88 3a
       0.0030651516 5.3975033e-05 0.0021229498 0.001042947
000330 18 9a 86 39 44 14 45 3a bc 4e a0 39 05 b6 ac 3a
       0.0002567328 0.00075179734 0.0003057624 0.0013176805
000340 12 ca 60 3b 9f 61 4f 39 2e 90 d3 3a d9 9e 94 37
       0.003430013 0.00019777425 0.0016140991 1.7716944e-05
000350 7b 08 dc 2f 58 98 14 35 b7 05 98 3b 7c 02 91 3a
       4.0023793e-10 5.5355986e-07 0.004639353 0.0011063362
000360 9d 97 5d 39 35 34 b7 39 21 39 03 3b 81 a0 0a 3a
       0.00021132683 0.00034943377 0.0020023065 0.0005288199
000370 50 b2 a1 3a a4 9c 7c 39 af aa 2d 3a 86 48 1d 3b
       0.0012336466 0.00024090946 0.000662486 0.0023999526
000380 d0 51 88 3a 53 2f d5 3a 20 42 8b 32 da 78 c7 38
       0.0010400359 0.0016264714 1.62118e-08 9.51157e-05
000390 46 75 92 3b a8 41 1f 3a c1 5d 0c 3a 75 7f 77 3a
       0.0044695465 0.0006075152 0.00053545466 0.0009441295
0003a0 be d0 c8 39 be fd 64 3a a3 c7 c3 3a bb 50 26 3a
       0.00038302498 0.00087353203 0.0014936816 0.0006344427
0003b0 d9 43 a1 3a 67 e9 51 3a 72 0f a7 38 a7 93 e4 3a
       0.0012303545 0.0008007497 7.9660575e-05 0.0017439023
0003c0 72 33 fb 3a 1f fb 6e 3a bc 48 1c 3b d9 67 8a 3a
       0.0019165112 0.00091163995 0.0023847064 0.0010559513
0003d0 01 31 80 3a 2f 63 82 38 3c b9 5a 39 25 67 ae 39
       0.0009780229 6.2173574e-05 0.00020859105 0.00033264715
0003e0 20 da c8 39 a9 09 34 32 fe 6e 5b 3a f9 ef 63 38
       0.00038309488 1.0479575e-08 0.0008370726 5.434451e-05
0003f0 37 a7 dc 39 f2 96 01 3a 7f bf a9 39 b5 3d 69 3a
       0.00042086255 0.0004943452 0.00032376868 0.00088974397

exp_avg f4 [10]
000000 51 25 f0 ba 52 3f 9e b9 90 d8 5d 3b 61 c5 3d b7
       -0.0018321668 -0.00030183286 0.0033851005 -1.1311234e-05
000010 e7 50 8a bb c0 d5 35 3b f4 1c ab 3a 74 9b 42 bb
       -0.00422107 0.0027745813 0.0013054893 -0.0029694708
000020 2a af eb 37 d8 82 f1 3a
       2.809575e-05 0.0018425835

exp_avg_sq f4 [10]
000000 77 d6 86 39 a3 20 f2 38 8d a7 8e 39 17 a9 87 39
       0.0002571826 0.00011545538 0.00027209186 0.00025875188
000010 ec 6f a5 39 45 cf 56 39 14 16 4c 39 8c 81 98 39
       0.0003155464 0.00020485844 0.00019463181 0.0002908822
000020 6f fb 8e 39 2c 7e bb 39
       0.00027271683 0.00035761425
