1/bbd82b99cd964f97bebe3f11402f99e0/checkpoints/epoch=4-step=570.ckpt (torch, 648240 bytes, 12 tensors)

fc1.weight f4 [200, 256]
0.014408827 0.03522281 0.047048897 0.043202486 0.04726408 -0.037778147 -0.05593628 -0.021441804
-0.080731966 -0.15649688 -0.05929895 -0.059384473 -0.0075331354 -0.033432472 -0.008304869 -0.015473668
-0.038204625 0.0064582736 0.030846931 -0.049813475 -0.032665685 -0.06995662 -0.060159694 -0.15334952
-0.16196972 -0.05952995 -0.08452897 -0.039898593 -0.055138737 -0.05223373 -0.068766885 0.041332882
-0.07017342 -0.047111418 -0.009289835 -0.0851372 0.020305986 -0.08928026 -0.10763568 -0.02829957
0.016171081 -0.06362529 -0.045066494 -0.040569022 -0.025951833 -0.07660332 -0.053712793 0.016123386
-0.08068315 -0.054642748 -0.09244208 -0.09163275 -0.0002708177 -0.052536663 -0.07088557 -0.032662008
-0.014055941 0.015964923 -0.046529077 -0.05300083 -0.08079339 -0.09925795 -0.06565408 -0.052596036
-0.08467862 -0.0749538 -0.011276864 0.01891741 -0.03888524 0.063486174 0.07398871 0.02163326
0.054413505 0.009834576 -0.010883082 -0.07650965 0.012725311 -0.023010816 -0.05021192 -0.019223655
-0.09678131 -0.064240314 0.005150518 -0.061276782 0.00023895336 0.046400532 0.040347643 0.06961588
-0.026152646 0.038011782 0.05327565 -0.008056406 0.04952874 0.05275884 0.013486228 0.05265318
0.030573055 -0.07389669 0.034124218 0.048763093 0.021043124 0.1488663 0.0971827 -0.026727583
0.05971105 0.0549448 -0.011702828 0.0700394 0.03921322 0.059430648 -0.014172972 0.021853745
-0.043385763 0.029411096 0.02505574 0.08417777 -0.014925677 0.056524355 0.030649265 0.056856588
0.046865307 -0.030025948 0.013356096 0.06796213 -0.01251438 -0.0133446185 -0.028805517 -0.019935265
-0.0098201055 -0.016347632 0.046754565 0.07027901 0.013018896 0.069045044 0.027503997 -0.006961496
-0.025767514 0.052334815 0.014062458 -0.012296438 0.0005285806 0.060763326 0.006621413 -0.034723908
-0.025809422 -0.050979603 0.04639266 0.0043845885 0.04927542 0.088936865 0.048369985 0.07707311
-0.014740073 -0.058559902 -0.025134772 0.04642895 0.059810396 -0.05139822 -0.025060015 -0.04935925
-0.080907196 -2.2617729e-05 0.053757932 0.09559979 0.111067206 0.14362918 0.07404809 0.11368557
-0.007832544 -0.04289678 -0.027427949 0.026193801 -0.036575127 -0.05052247 -0.0771594 -0.028580926
0.034202732 -0.08887078 0.024426432 0.087857224 0.08781268 0.14671946 0.054856375 0.13045119
0.05611653 -0.009178386 -0.06683202 0.025500692 -0.041215986 -0.03255042 -0.060482383 -0.07702053
0.032434117 -0.02276038 0.0010080496 -0.030755226 0.04426901 0.1319641 0.07906717 0.039329544
0.060355384 -0.041140936 -0.047943257 0.017123977 -0.051172197 -0.021565555 -0.04915238 -0.0040940363
-0.06411542 -0.07602964 0.006446865 0.04764499 0.058163036 0.04505176 0.109189734 0.10872108
0.09956595 0.06716277 0.037601825 -0.037552383 -0.034363158 -0.048568126 -0.0028142168 -0.084342554
0.04694631 -0.032260735 -0.0053675333 -0.019032864 0.048803132 -0.020616587 0.066658415 0.0988658
0.16812797 0.08141613 0.09021128 0.0014697497 -0.048340034 -0.025802623 0.004474974 -0.022782758
-0.009574416 0.030613478 0.0009926241 -0.04561349 -0.06093068 0.043364376 0.029045742 0.08880048
0.09943784 0.046394054 -0.016881922 0.001152066 -0.044723365 -0.06485201 -0.06569331 0.023482231
00000000: 0013 6c3c cb45 103d 58b6 403d 17f5 303d
00000010: fb97 413d 42bd 1abd 711d 65bd b9a6 afbc
00000020: cd56 a5bd b840 20be 75e3 72bd 223d 73bd
00000030: 85d8 f6bb 7df0 08bd 2511 08bc 4585 7dbc
00000040: 747c 1cbd ed9f d33b b4b2 fc3c 3709 4cbd
00000050: 74cc 05bd 6b45 8fbd 036a 76bd a807 1dbe
00000060: 64db 25be add5 73bd 861d adbd b56c 23bd
00000070: 28d9 61bd 09f3 55bd a7d5 8cbd ab4c 293d
00000080: 15b7 8fbd e7f7 40bd 6434 18bc 6a5c aebd
00000090: bd58 a63c 92d8 b6bd 1870 dcbd 80d4 e7bc
000000a0: 3779 843c fa4d 82bd a597 38bd b42b 26bd
000000b0: f098 d4bc 34e2 9cbd f201 5cbd 3115 843c
000000c0: 353d a5bd 13d1 5fbd 4652 bdbd f4a9 bbbd
000000d0: 89fc 8db9 af30 57bd 742c 91bd 99c8 05bd
000000e0: e44a 66bc dfc8 823c 4695 3ebd 6617 59bd
000000f0: 0177 a5bd c147 cbbd a575 86bd f16e 57bd
00000100: fc6b adbd 6181 99bd 99c2 38bc aff8 9a3c
00000110: 2146 1fbd 0a05 823d 6587 973d 3c38 b13c
00000120: b2e0 5e3d 3421 213c f44e 32bc 17b1 9cbd
00000130: d37d 503c 2e81 bcbc 04ab 4dbd ed7a 9dbc
00000140: 4835 c6bd 6d90 83bd adc5 a83b 5dfd 7abd
00000150: 8e8f 7a39 7c0e 3e3d 9243 253d c592 8e3d
00000160: 133e d6bc 3eb2 1b3d 9137 5a3d 04ff 03bc
00000170: a6de 4a3d a719 583d 57f5 5c3c dcaa 573d
00000180: 5874 fa3c 2657 97bd d6c5 0b3d cfbb 473d
00000190: a162 ac3c 6870 183e b907 c73d cef3 dabc
000001a0: 9393 743d cc0d 613d 38bd 3fbc d170 8f3d
000001b0: 0b9e 203d 8d6d 733d c135 68bc a006 b33c
000001c0: 45b5 31bd 8aef f03c b241 cd3c 6565 ac3d
000001d0: d48a 74bc 1586 673d 2b14 fb3c 74e2 683d
000001e0: d6f5 3f3d faf8 f5bc 87d3 5a3c bb2f 8b3d
000001f0: 1d09 4dbc 63a3 5abc 8cf9 ebbc 484f a3bc
00000200: 82e4 20bc 78eb 85bc b781 3f3d 71ee 8f3d
00000210: 354d 553c 7d67 8d3d 1050 e13c 431d e4bb
00000220: 6516 d3bc 085d 563d 3966 663c 0077 49bc
00000230: 7290 0a3a f7e2 783d 70f8 d83b a83a 0ebd
00000240: 486e d3bc fdcf 50bd 3b06 3e3d 98ac 8f3b
00000250: 06d5 493d 8824 b63d 9b1f 463d 82d8 9d3d
00000260: 5980 71bc 82dc 6fbd 70e7 cdbc 482c 3e3d
00000270: bffb 743d f186 52bd a94a cdbc ed2c 4abd
00000280: acb2 a5bd 34bb bdb7 4731 5c3d d3c9 c33d
00000290: 3477 e33d 8713 133e 86a6 973d fbd3 e83d
000002a0: 1254 00bc 89b4 2fbd 94b0 e0bc 6294 d63c
000002b0: cdcf 15bd a6f0 4ebd bf05 9ebd 8c22 eabc
000002c0: 2a18 0c3d e201 b6bd f119 c83c 7dee b33d
000002d0: 22d7 b33d a03d 163e 14b1 603d ff94 053e
000002e0: 72da 653d f160 16bc 3adf 88bd d4e6 d03c
000002f0: 18d2 28bd 9753 05bd 60bc 77bd f1bc 9dbd
00000300: a3d9 043d fa73 babc 8820 843a 62f2 fbbc
00000310: 6c53 353d 9921 073e f8ed a13d 0418 213d
00000320: 3537 773d 6683 28bd 2660 44bd 9547 8c3c
00000330: f099 51bd 3faa b0bc 0254 49bd 4427 86bb
00000340: f24e 83bd 6eb5 9bbd 3940 d33b 6527 433d
00000350: 5d3c 6e3d 3288 383d de9e df3d 28a9 de3d
00000360: 3ce9 cb3d a28c 893d 5f04 1a3d 87d0 19bd
00000370: 62c0 0cbd 5fef 46bd b96e 38bb cabb acbd
00000380: c64a 403d d523 04bd 22e2 afbb cfea 9bbc
00000390: cbe5 473d 1ee4 a8bc 3584 883d 277a ca3d
000003a0: bd29 2c3e 80bd a63d b1c0 b83d 9ea4 c03a
000003b0: 3300 46bd 0660 d3bc cda2 923b e8a2 babc
000003c0: 03de 1cbc 1ec9 fa3c f01a 823a 36d5 3abd
000003d0: 7392 79bd d89e 313d 56f1 ed3c 07dd b53d
000003e0: 11a6 cb3d b107 3e3d f54b 8abc ec00 973a
000003f0: d92f 37bd 21d1 84bd 378a 86bd cf5d c03c

fc1.bias f4 [200]
-0.042842418 0.05842695 -0.014968114 0.04691058 0.028986484 0.04354916 -0.04882733 0.07608922
0.002768813 0.008408709 0.041329913 -0.060464814 -0.031459812 -0.013025394 -0.001017783 -0.04586816
-0.010433871 0.041351706 0.0031991254 -0.01868701 0.070055716 0.08495922 0.0545573 -0.027257815
-0.02881477 0.040389214 0.07209061 0.013983945 0.028159296 0.034542605 0.024450276 0.027355041
-0.0298496 0.071652845 -0.025247356 -0.0021562108 0.0044662515 -0.061055955 -0.025929846 0.019616427
0.04564341 0.0018242565 0.021930391 -0.0339847 -0.014464729 0.02977674 -0.07904962 0.05289866
-0.00061401003 0.026024316 0.014634259 -0.009408756 -0.033066686 -0.051931094 0.073293515 0.037248313
0.043887913 0.05101926 -0.012483311 -0.029663462 0.045237474 0.045337528 -0.0056222915 -0.060511403
0.040593397 -0.012353899 0.04786478 -0.02293504 0.046744883 0.0050600125 -0.027413528 0.01776548
0.017229462 -0.01662304 0.047624607 -0.012300747 0.06480859 -0.021291105 0.033270102 -0.054176994
-0.0067338017 0.049328476 0.049419656 -0.012234421 0.014398569 0.03988048 0.04002389 0.038034193
0.03742022 -0.009937823 0.03624904 -0.032357655 0.0032957906 -0.0077605094 -0.040514976 0.04215382
-0.041146416 0.0370387 -0.025078684 0.001005855 0.060423225 0.0061070216 0.06970379 0.056453165
0.010529343 0.036515333 0.0041616443 -0.03861021 -0.04941938 0.014111141 -0.0140683055 0.059656076
-0.0042982437 0.049598332 -0.033333387 0.037288133 -0.04044056 0.02944702 -0.063127235 0.004619912
-0.058508307 0.0149811 0.035887156 0.043272704 -0.038108747 -0.029878441 -0.021967245 0.03525806
-0.013012626 0.0046372786 -0.024226423 0.0018015357 -0.0072168782 0.053041704 0.059696335 0.005326785
-0.040353905 -0.0052264296 -0.01972827 -0.03821022 -0.050878234 -0.02017217 -0.01718112 0.015893208
-0.053727027 0.03530482 0.076364435 0.036686596 0.05519991 -0.03919422 0.07945674 -0.0024896371
-0.024383241 0.03498099 -0.042409662 -0.031097306 -0.025443047 -0.03261265 0.064850405 0.043466445
0.0664517 0.055617116 0.056056287 0.069259524 -0.01539213 0.0059933336 -0.004524708 0.023544159
0.011196728 0.048803166 0.02391206 -0.022921983 0.060943685 -0.059849508 -0.012170098 0.05360172
0.021166593 0.008554321 -0.01693909 -0.047131762 0.026586354 0.002695791 0.031296585 0.07955286
-0.04553517 -0.015104135 -0.019821389 0.057066824 -0.06814043 0.010413783 -0.00037378693 -0.04356609
0.049375884 0.022286173 0.046941914 0.009076341 0.028971374 0.081418574 0.02889251 0.09197022
00000000: 887b 2fbd 1951 6f3d d23c 75bc 4f25 403d
00000010: 1075 ed3c 9b60 323d 2bff 47bd aad4 9b3d
00000020: f974 353b afc4 093c 8e49 293d f4a9 77bd
00000030: 01dc 00bd 7668 55bc 2167 85ba 40e0 3bbd
00000040: d4f2 2abc 6860 293d 6ba8 513b 8015 99bc
00000050: 5f79 8f3d 19ff ad3d 7a77 5f3d c84b dfbc
00000060: f40c ecbc 296f 253d 3ea4 933d eb1c 653c
00000070: 53ae e63c 8c7c 0d3d f24b c83c ae17 e03c
00000080: 2687 f4bc babe 923d 8bd3 cebc 374f 0dbb
00000090: a259 923b cf15 7abd d46a d4bc a1b2 a03c
000000a0: 96f4 3a3d e41b ef3a 5da7 b33c 8a33 0bbd
000000b0: 79fd 6cbc 5aee f33c c4e4 a1bd 44ac 583d
000000c0: 84f5 20ba f230 d53c 88c4 6f3c 2f27 1abc
000000d0: ef70 07bd b3b5 54bd e91a 963d b091 183d
000000e0: d0c3 333d 92f9 503d cd86 4cbc ca00 f3bc
000000f0: ee4a 393d d8b3 393d 333b b8bb ceda 77bd
00000100: 4345 263d 0268 4abc dc0d 443d 44e2 bbbc
00000110: 9077 3f3d 76ce a53b 5692 e0bc e988 913c
00000120: cd24 8d3c 0b2d 88bc 0512 433d 1389 49bc
00000130: 5eba 843d af6a aebc 3b46 083d b2e8 5dbd
00000140: 39a7 dcbb a80c 4a3d 446c 4a3d e272 48bc
00000150: fae7 6b3c b759 233d 17f0 233d bec9 1b3d
00000160: f245 193d 40d2 22bc e079 143d 7689 04bd
00000170: 31fe 573b df4b febb 08f3 25bd 7ca9 2c3d
00000180: 2589 28bd e4b5 173d d071 cdbc e5d6 833a
00000190: 587e 773d 691d c83b dcc0 8e3d 6f3b 673d
000001a0: 4483 2c3c 1a91 153d 675e 883b bd25 1ebd
000001b0: fa6b 4abd 6a32 673c c07e 66bc ee59 743d
000001c0: 48d8 8cbb 9f27 4b3d 9788 08bd 71bb 183d
000001d0: 00a5 25bd e03a f13c da48 81bd a162 973b
000001e0: 68a6 6fbd 4a73 753c 69fe 123d b83e 313d
000001f0: eb17 1cbd a2c3 f4bc a7f4 b3bc c16a 103d
00000200: e932 55bc 50f4 973b 7e76 c6bc 8221 ec3a
00000210: 907b ecbb 4242 593d 2584 743d 508c ae3b
00000220: 234a 25bd 7842 abbb 2e9d a1bc 5282 1cbd
00000230: b265 50bd 1b40 a5bc 6cbf 8cbc 7932 823c
00000240: df10 5cbd c99b 103d f564 9c3d af44 163d
00000250: 4d19 623d 1e8a 20bd 37ba a23d 2e29 23bb
00000260: 5dbf c7bc 3a48 0f3d c1b5 2dbd c7bf febc
00000270: f06d d0bc d894 05bd 4ad0 843d df09 323d
00000280: d417 883d c6ce 633d 479b 653d f0d7 8d3d
00000290: 462f 7cbc ba63 c43b 0044 94bb aedf c03c
000002a0: 7b72 373c d4e5 473d 39e3 c33c e2c6 bbbc
000002b0: 16a0 793d c224 75bd 1765 47bc 7a8d 5b3d
000002c0: 9065 ad3c 6c27 0c3c d9c3 8abc 3c0d 41bd
000002d0: a0cb d93c deab 303b d930 003d 9cec a23d
000002e0: 1683 3abd 5577 77bc 7760 a2bc e7be 693d
000002f0: 368d 8bbd 929e 2a3c d5f8 c3b9 5b72 32bd
00000300: 5e3e 4a3d 7e91 b63c 2a46 403d efb4 143c
00000310: 6055 ed3c c8be a63d fcaf ec3c e25a bc3d

fc2.weight f4 [10, 200]
0.11292449 -0.10209205 0.038981892 0.10632913 -0.006984147 -0.06735286 -0.009270482 -0.024181634
0.05746646 -0.05601132 -0.12916753 -0.09531971 -0.091957 -0.008576038 0.05180725 0.019434726
-0.008315833 0.06200604 0.060615428 -0.01933647 0.12473058 0.035939418 0.047836546 0.103615955
0.03047611 -0.07895062 0.07650152 -0.09634127 -0.1543096 0.021905826 -0.15308104 -0.09899241
0.10086349 -0.11553642 0.04956198 -0.061478514 -0.09995434 -0.117497995 -0.07118695 0.011328039
-0.028110486 -0.052678544 0.10125239 0.067940176 0.10796827 -0.082220644 0.0026783415 -0.08241178
-0.03966499 0.087688826 0.1052384 -0.10471412 -0.13021706 -0.105034925 0.0731656 -0.07052292
0.118655175 0.061442655 0.039404612 -0.026443409 -0.04963478 0.07882849 -0.068248086 0.07194004
-0.081268065 0.080385216 -0.07551686 0.13125539 0.064878196 0.05299725 -0.04597642 -0.04288842
0.09871026 -0.053002622 0.050498385 -0.006959024 -0.2866736 0.16339862 0.063113645 -0.031041339
0.0063049207 -0.09973758 0.07752466 0.08220028 -0.10886015 0.085146904 -0.13103542 -0.04432816
0.04432604 -0.13689777 0.043635033 -0.117254786 -0.052030686 -0.078523844 0.22747257 0.048310988
-0.049729075 0.062412977 -0.12635191 0.117047034 0.05270981 -0.13500847 -0.07461244 -0.04217688
-0.112537816 -0.11546829 0.031190213 0.036992554 -0.08243972 -0.039146658 -0.091378555 0.080846846
0.05847012 -0.1608186 -0.09977361 0.012945852 -0.08452082 0.005167053 -0.08624392 -0.06948812
0.031523023 -0.013216355 0.043933604 -0.08137668 0.020544248 0.038538333 -0.0650636 -0.020165136
-0.17074937 -0.044667546 0.075681545 0.19320776 0.037700094 0.04922716 0.026387079 -0.09483371
0.03487429 -0.14059608 0.09437073 -0.037316225 -0.044643287 -0.07069175 0.09324165 0.0745802
0.028029667 -0.0561745 -0.03878738 0.08913878 -0.01945106 -0.1516577 0.08203176 -0.1109037
-0.14627519 -0.10730686 -0.08167446 -0.08945753 -0.08779434 -0.026179254 -0.06001855 -0.101252705
0.05636761 -0.041081242 0.14239357 -0.05461014 0.10619346 -0.010502419 -0.06351123 0.06581356
0.09273126 -0.061778665 -0.12883964 0.094307214 0.080937706 -0.07256619 -0.13556024 -0.00808251
-0.12692624 0.053294256 0.1700922 -0.049877524 0.027417505 -0.035261277 -0.10666617 -0.051237546
0.100977786 0.055542096 0.16322275 -0.006369881 -0.071379736 -0.11126216 0.02661425 -0.14147598
0.12105425 -0.040475607 -0.033119693 0.0020463753 -0.03784337 0.090894856 0.037696492 -0.089526765
0.0674278 -0.11375493 -0.06673336 -0.086111605 -0.018684337 0.027901325 0.010457318 -0.13533238
-0.022786032 -0.06882321 0.104157776 0.12584883 -0.06977269 -0.08685305 -0.03744788 0.0050309435
-0.10242575 -0.05930033 -0.04750199 -0.06583354 -0.018919501 -0.09421097 -0.055104706 -0.027453393
-0.0688646 0.092776164 -0.07774961 0.0085597765 -0.14741729 -0.0818273 0.028093874 0.12040472
-0.030611012 0.017168973 -0.11864438 -0.07990515 -0.027955817 -0.0280361 -0.025415963 -0.13732885
-0.00667687 -0.092568986 -0.12823628 0.029426858 -0.099451825 0.010082891 0.078861155 -0.115768336
-0.06281256 -0.11606299 0.052537974 0.0798108 0.010098594 -0.0022842197 -0.10237699 -0.10082981
00000000: f444 e73d a315 d1bd 7aab 1f3d 16c3 d93d
00000010: 45db e4bb 4cf0 89bd 38e3 17bc 9018 c6bc
00000020: f361 6b3d 206c 65bd 7e44 04be fb36 c3bd
00000030: f453 bcbd 8382 0cbc d733 543d 9335 9f3c
00000040: 223f 08bc 0cfa 7d3d e247 783d 8467 9ebc
00000050: bf72 ff3d 3635 133d 41f0 433d 9a34 d43d
00000060: 09a9 f93c ddb0 a1bd d4ac 9c3d 924e c5bd
00000070: 5603 1ebe d973 b33c 47c1 1cbe 88bc cabd
00000080: 8491 ce3d 5c9e ecbd 8101 4b3d e5d0 7bbd
00000090: dcb4 ccbd caa2 f0bd 77ca 91bd 3d99 393c
000000a0: f647 e6bc 75c5 57bd 6a5d cf3d 3824 8b3d
000000b0: 781e dd3d 4c63 a8bd 1d87 2f3b 82c7 a8bd
000000c0: c277 22bd 3396 b33d 3b87 d73d 5b74 d6bd
000000d0: 9f57 05be 8d1c d7bd d9d7 953d 526e 90bd
000000e0: 7c01 f33d 4bab 7b3d bb66 213d d99f d8bc
000000f0: d74d 4bbd d570 a13d a7c5 8bbd 4d55 933d
00000100: df6f a6bd 01a1 a43d 95a8 9abd d067 063e
00000110: dcde 843d a513 593d c551 3cbd c5ab 2fbd
00000120: 9b28 ca3d 4719 59bd 65d7 4e3d 8608 e4bb
00000130: e2c6 92be f851 273e ba41 813d 684a febc
00000140: 8299 ce3b 3743 ccbd 40c5 9e3d 9f58 a83d
00000150: 12f2 debd 8061 ae3d 262e 06be 7291 35bd
00000160: 398f 353d ee2e 0cbe a6ba 323d 4723 f0bd
00000170: 211e 55bd 1cd1 a0bd 92ee 683e bee1 453d
00000180: b7b0 4bbd c0a4 7f3d 6562 01be 5bb6 ef3d
00000190: 3ee6 573d a93f 0abe 68ce 98bd aac1 2cbd
000001a0: 3a7a e6bd a47a ecbd 9e82 ff3c 8185 173d
000001b0: 28d6 a8bd 3f58 20bd ae24 bbbd 0893 a53d
000001c0: 5d7e 6f3d a2ad 24be 1b56 ccbd d71a 543c
000001d0: 4019 adbd 6250 a93b a7a0 b0bd ca4f 8ebd
000001e0: 491e 013d 6989 58bc b9f3 333d d1a8 a6bd
000001f0: 694c a83c 5fda 1d3d 1140 85bd 5b31 a5bc
00000200: ecd8 2ebe 51f5 36bd edfe 9a3d 41d8 453e
00000210: 6a6b 1a3d 6ba2 493d b729 d83c 2d38 c2bd
00000220: 58d8 0e3d 6bf8 0fbe 7145 c13d e6d8 18bd
00000230: e1db 36bd d6c6 90bd 7af5 be3d 81bd 983d
00000240: 799e e53c 3c17 66bd 84df 1ebd 658e b63d
00000250: d457 9fbc 284c 1bbe 4400 a83d 7b21 e3bd
00000260: 2ac9 15be b3c3 dbbd f044 a7bd 8235 b7bd
00000270: 85cd b3bd e075 d6bc 03d6 75bd 945d cfbd
00000280: b9e1 663d ce44 28bd 9fcf 113e e2ae 5fbd
00000290: f57b d93d 5712 2cbc 2d12 82bd 42c9 863d
000002a0: e3e9 bd3d a00b 7dbd 8aee 03be 2424 c13d
000002b0: abc2 a53d 959d 94bd 4ed0 0abe 816c 04bc
000002c0: f4f8 01be 144b 5a3d a62c 2e3e 604c 4cbd
000002d0: ad9a e03c 216e 10bd cb73 dabd 76de 51bd
000002e0: 71cd ce3d 1c80 633d dd23 273e 6fba d0bb
000002f0: 8a2f 92bd 6add e3bd 2106 da3c 14df 10be
00000300: 4aeb f73d c0c9 25bd 84a8 07bd 7b1c 063b
00000310: a601 1bbd 1527 ba3d a367 1a3d cf59 b7bd
00000320: 9617 8a3d 58f8 e8bd 80ab 88bd 485b b0bd
00000330: e50f 99bc 5291 e43c 2c55 2b3c 9294 0abe
00000340: c6a9 babc 2ff3 8cbd ac50 d53d 84de 003e
00000350: fce4 8ebd 03e0 b1bd f362 19bd 9dda a43b
00000360: 97c4 d1bd e7e4 72bd 7291 42bd bcd3 86bd
00000370: 12fd 9abc aef1 c0bd 79b5 61bd f0e5 e0bc
00000380: e208 8dbd 6e01 be3d 303b 9fbd 4e3e 0c3c
00000390: 8ff4 16be 1295 a7bd 2025 e63c c096 f63d
000003a0: f2c3 fabc f2a5 8c3c d3fb f2bd 50a5 a3bd
000003b0: 9903 e5bc f7ab e5bc 2335 d0bc ef9f 0cbe
000003c0: a5c9 dabb cf94 bdbd 5f50 03be 9810 f13c
000003d0: 66ad cbbd b632 253c f581 a13d f317 edbd
000003e0: dfa3 80bd 6fb2 edbd 0f32 573d d873 a33d
000003f0: 9374 253c d9b2 15bb 07ab d1bd dc7f cebd

fc2.bias f4 [10]
0.05709322 -0.016724711 0.025072893 0.03156301 0.05785234 0.036254838 -0.04937144 -0.07541601
0.012595708 -0.057730857
00000000: 95da 693d 4302 89bc ab65 cd3c 3748 013d
00000010: 93f6 6c3d f47f 143d b539 4abd b673 9abd
00000020: 3a5e 4e3c 3177 6cbd

exp_avg f4 [200, 256]
0.00014451069 9.768832e-05 6.271181e-05 1.918628e-05 6.0915776e-05 0.00013764772 0.00014718689 0.00012659153
5.540601e-05 -0.00010702889 -0.00016113513 -2.9838444e-05 0.00010817647 0.00017566442 0.00022182547 0.00026204297
9.853544e-05 7.836031e-06 -5.9823502e-05 -7.701597e-05 3.1997117e-06 5.0987783e-05 1.118475e-05 -2.3096021e-05
-0.0001042418 -0.0002901113 -0.00035893283 -0.00020194639 -4.8993756e-05 5.0477105e-05 0.0001222629 0.0002141553
0.0001612997 7.872114e-05 -3.503762e-05 -0.000111660804 -6.8463574e-05 5.761691e-07 6.2087944e-05 0.0001061688
5.2809726e-05 -0.00015956412 -0.0002938298 -0.00020694803 -7.8587334e-05 2.5272826e-05 7.120675e-05 0.00016415416
0.00030012784 0.0002713582 0.00015130143 -1.3464127e-05 -9.281307e-05 -4.2683998e-05 0.00011222659 0.00025927808
0.00026774703 5.689052e-05 -0.0001471384 -0.0001329582 2.3488761e-05 0.00014915406 0.0001682753 0.0001989461
0.00034966142 0.00035838594 0.00029060338 0.00010710075 -0.00014388603 -0.00028905764 -0.00017849727 4.049462e-05
9.445235e-05 -4.4878958e-05 -0.0001628591 -4.571698e-05 0.00019934867 0.0002920061 0.00025120217 0.00022929271
0.00031938116 0.00033644543 0.00033113296 0.00018944006 -7.785117e-05 -0.00031783123 -0.00034497792 -0.0002801297
-0.000332656 -0.00042619504 -0.00037171773 -3.6614918e-05 0.00033812766 0.0004116604 0.00027044307 0.0002006832
0.00026166695 0.0002699243 0.00029160394 0.00018204 9.632447e-06 -0.00016837589 -0.00025464268 -0.0003339884
-0.0004966833 -0.0005749448 -0.0004278229 -1.4124312e-05 0.00039273524 0.00053087267 0.0003844368 0.000243886
0.00025076544 0.00026598392 0.0002809944 0.00016905853 1.2172046e-05 -0.00012225648 -0.00013996408 -0.00014020083
-0.00023332113 -0.0002789055 -0.00021698512 4.3067394e-05 0.0003667525 0.0005522936 0.0004884751 0.00034667752
0.00032463233 0.00036634275 0.00033141804 0.00015185076 -7.392344e-05 -0.00019250491 -0.000138543 -1.1024763e-05
3.3437223e-05 1.5705746e-06 -8.001606e-05 3.440802e-05 0.00029459962 0.00048171968 0.00048556557 0.00041122187
0.0003622939 0.00042710587 0.00037108271 0.00012678507 -0.0001399333 -0.00026118103 -0.00019201565 -4.8723286e-05
1.6319796e-05 2.9321247e-05 -3.29786e-05 7.6157754e-05 0.00035312594 0.000521175 0.0005017653 0.0004466851
0.00033629758 0.00036640954 0.00028150168 1.11461495e-05 -0.00021310289 -0.00023326174 -6.46657e-05 3.395839e-05
5.860014e-05 8.093102e-05 6.512648e-05 0.00018442121 0.00042884238 0.0005788986 0.0005346295 0.0004366879
0.0003557985 0.00037713174 0.00022959254 -0.00012161621 -0.00038407193 -0.00031662016 -1.375612e-05 9.3434246e-05
0.0001058126 0.00010664198 9.513651e-05 0.00020865098 0.00036787405 0.00053158734 0.00052106625 0.00038877164
0.00034769755 0.0003909152 0.00033026727 4.2490094e-05 -0.0002956523 -0.00035802287 -0.0001529354 -7.916875e-05
-7.950016e-05 -2.2368513e-05 8.67604e-05 0.00023106158 0.00031068764 0.0004152918 0.0004191134 0.00033476783
0.00029286928 0.00028566975 0.0003044118 0.00023242788 2.3356693e-05 -0.00015890061 -0.00017753795 -0.00020870939
-0.0002767287 -0.00019021078 3.546203e-05 0.00022674257 0.00027673354 0.0003219432 0.00033065683 0.00029874037
0.0002580844 0.00020793067 0.00018902429 0.00021230952 0.00018321456 5.729014e-05 -8.9804074e-05 -0.00022371259
-0.00032516845 -0.00022381869 2.2799009e-06 0.00020686304 0.0002946361 0.0003213714 0.00031025324 0.00028776686
0.00026462658 0.00022554924 0.00016735583 0.00014040158 0.00015145048 0.00011768978 2.5669893e-05 -8.401019e-05
-0.000121575125 -4.5141363e-07 0.00013807135 0.00023740595 0.0003026264 0.00031705384 0.00029799854 0.00028293807
00000000: cb87 1739 04de cc38 2684 8338 39f2 a037
00000010: d17f 7f38 8755 1039 2e56 1a39 a8bd 0439
00000020: c063 6838 b374 e0b8 62f6 28b9 924d fab7
00000030: cddc e238 8f32 3839 d299 6839 d062 8939
00000040: d0a4 ce38 7f77 0337 ffea 7ab8 a283 a1b8
00000050: a1ba 5636 b7db 5538 23a6 3b37 54be c1b7
00000060: 649c dab8 141a 98b9 262f bcb9 92c1 53b9
00000070: a57e 4db8 61b7 5338 b333 0039 e08e 6039
00000080: 8f22 2939 1717 a538 5cf5 12b8 702b eab8
00000090: 1a94 8fb8 0aaa 1a35 3635 8238 f1a6 de38
000000a0: 0380 5d38 ab50 27b9 2b0d 9ab9 3000 59b9
000000b0: 41cf a4b8 fb00 d437 d554 9538 cc20 2c39
000000c0: 7a5a 9d39 1545 8e39 aba6 1e39 fce3 61b7
000000d0: a3a4 c2b8 9807 33b8 315b eb38 b7ef 8739
000000e0: 6660 8c39 bb9d 6e38 2a49 1ab9 b26a 0bb9
000000f0: bb09 c537 3d66 1c39 0f73 3039 309c 5039
00000100: c352 b739 bfe5 bb39 205c 9839 479b e038
00000110: 1de0 16b9 a98c 97b9 ff2a 3bb9 c4d8 2938
00000120: b814 c638 6a3c 3cb8 28c5 2ab9 3cc0 3fb8
00000130: 4008 5139 6518 9939 c9b3 8339 4b6e 7039
00000140: 9d72 a739 f164 b039 ea9b ad39 6ea4 4639
00000150: 0744 a3b8 96a2 a6b9 27de b4b9 5fde 92b9
00000160: 5568 aeb9 ee72 dfb9 1ce3 c2b9 f892 19b8
00000170: ba46 b139 20d4 d739 41ca 8d39 7c6e 5239
00000180: 5830 8939 a084 8d39 6be2 9839 fee1 3e39
00000190: 0b9b 2137 0f8e 30b9 9081 85b9 2a1b afb9
000001a0: da33 02ba e4b7 16ba 6b4d e0b9 75f7 6cb7
000001b0: 08e8 cd39 432a 0b3a 3c8e c939 a6bb 7f39
000001c0: 2b79 8339 c273 8b39 6e52 9339 4e45 3139
000001d0: 8a36 4c37 f931 00b9 52c3 12b9 e002 13b9
000001e0: aaa7 74b9 103a 92b9 8086 63b9 43a3 3438
000001f0: b048 c039 ccc7 103a 020d 003a 45c2 b539
00000200: 6a33 aa39 b111 c039 2dc2 ad39 213a 1f39
00000210: 5807 9bb8 25db 49b9 da45 11b9 fff6 38b7
00000220: f23e 0c38 88cc d235 4cce a7b8 5551 1038
00000230: 7e74 9a39 528f fc39 8293 fe39 4499 d739
00000240: 44f2 bd39 2eed df39 e18d c239 9cf1 0439
00000250: 0fbb 12b9 20ef 88b9 cf57 49b9 3b5c 4cb8
00000260: 7fe6 8837 e6f6 f537 8152 0ab8 e2b6 9f38
00000270: c323 b939 769f 083a e688 033a 0f31 ea39
00000280: 1951 b039 a81a c039 8496 9339 5900 3b37
00000290: 5f74 5fb9 b997 74b9 229d 87b8 8b6e 0e38
000002a0: 6cc9 7538 83b9 a938 8394 8838 3161 4139
000002b0: 40d6 e039 3ac1 173a 6126 0c3a 42f3 e439
000002c0: 778a ba39 c4b9 c539 c7be 7039 350c ffb8
000002d0: 435d c9b9 0a00 a6b9 16ca 66b7 21f2 c338
000002e0: b5e7 dd38 faa4 df38 0684 c738 52c9 5a39
000002f0: 38df c039 395a 0b3a 2a98 083a 0cd4 cb39
00000300: 2d4b b639 c0f3 cc39 b927 ad39 6437 3238
00000310: c801 9bb9 04b5 bbb9 495d 20b9 6607 a6b8
00000320: 53b9 a6b8 04a4 bbb7 23f3 b538 1f49 7239
00000330: cae3 a239 86bb d939 73bc db39 c783 af39
00000340: 408c 9939 f2c5 9539 7699 9f39 e2b7 7339
00000350: 1eee c337 8f9e 26b9 7b29 3ab9 00d9 5ab9
00000360: e615 91b9 5173 47b9 11bd 1438 bfc1 6d39
00000370: 8c16 9139 7cca a839 025c ad39 41a0 9c39
00000380: 804f 8739 f707 5a39 d234 4639 679f 5e39
00000390: 491d 4039 d24a 7038 3255 bcb8 6494 6ab9
000003a0: 5f7b aab9 dfb0 6ab9 6600 1936 60e9 5839
000003b0: 6379 9a39 bd7d a839 7ca9 a239 6adf 9639
000003c0: 94bd 8a39 6a81 6c39 3d7c 2f39 c338 1339
000003d0: aece 1e39 38d0 f638 ad55 d737 a12e b0b8
000003e0: 26f6 feb8 d159 f2b4 3fc7 1039 2df0 7839
000003f0: d4a9 9e39 3f3a a639 b03c 9c39 4e57 9439

exp_avg_sq f4 [200, 256]
3.1279149e-06 3.0528813e-06 2.903653e-06 2.6353227e-06 2.2800261e-06 1.8487731e-06 1.4344106e-06 1.1924868e-06
1.162077e-06 1.3358456e-06 1.4637225e-06 1.6850265e-06 2.1126016e-06 2.5980848e-06 2.9443356e-06 3.1442676e-06
3.0455576e-06 2.8817967e-06 2.6112768e-06 2.2063143e-06 1.7242088e-06 1.251405e-06 9.136897e-07 8.232614e-07
9.0967114e-07 1.1720583e-06 1.3558821e-06 1.3827295e-06 1.6876552e-06 2.2097126e-06 2.6741857e-06 3.0102144e-06
2.967437e-06 2.7298179e-06 2.3741607e-06 1.8587643e-06 1.3352673e-06 9.18438e-07 7.770445e-07 9.1820624e-07
1.0159022e-06 8.991383e-07 8.486705e-07 9.892676e-07 1.4261627e-06 2.0338287e-06 2.554197e-06 2.9125063e-06
2.9178216e-06 2.663395e-06 2.2341233e-06 1.5930997e-06 1.0111079e-06 7.068281e-07 8.942507e-07 1.2809616e-06
1.2054087e-06 7.688698e-07 6.4407465e-07 8.515477e-07 1.4225251e-06 2.104264e-06 2.636814e-06 2.9387495e-06
2.9251696e-06 2.671662e-06 2.1356402e-06 1.3792962e-06 8.5512175e-07 7.689801e-07 1.1329236e-06 1.4363904e-06
1.2249787e-06 8.608194e-07 7.8839554e-07 9.2011e-07 1.4634145e-06 2.1347655e-06 2.6635093e-06 2.959758e-06
2.9469527e-06 2.639942e-06 2.0151583e-06 1.23978e-06 8.65076e-07 8.897643e-07 1.2065746e-06 1.3161449e-06
1.1618961e-06 9.4307364e-07 9.2247365e-07 1.132593e-06 1.5960431e-06 2.15825e-06 2.652572e-06 2.9640917e-06
2.9474947e-06 2.5975178e-06 2.0000834e-06 1.3296013e-06 9.76001e-07 9.3513984e-07 1.009046e-06 1.0722646e-06
1.1084469e-06 1.0007644e-06 9.638269e-07 1.2573382e-06 1.8439138e-06 2.4065814e-06 2.7672716e-06 2.9745215e-06
2.9569308e-06 2.6545813e-06 2.166909e-06 1.6356709e-06 1.202968e-06 1.0287927e-06 9.7851e-07 1.0406364e-06
1.152383e-06 1.0914468e-06 8.9027236e-07 1.1091923e-06 1.8739864e-06 2.5784911e-06 2.9048977e-06 2.968721e-06
2.9885975e-06 2.7944961e-06 2.3773448e-06 1.9725173e-06 1.6031923e-06 1.2535951e-06 1.0428217e-06 1.0094327e-06
1.1549953e-06 1.1084087e-06 8.5802304e-07 1.1361027e-06 1.8507407e-06 2.5655274e-06 2.9542455e-06 2.9951561e-06
3.0336907e-06 2.9052542e-06 2.539273e-06 2.1279377e-06 1.8370109e-06 1.4717936e-06 1.1113333e-06 9.771597e-07
1.0446252e-06 9.418361e-07 8.6650556e-07 1.3216936e-06 1.8790278e-06 2.5068837e-06 2.9572684e-06 3.024289e-06
3.078099e-06 2.9482446e-06 2.624788e-06 2.3093805e-06 2.0752825e-06 1.7277769e-06 1.3773853e-06 1.1431073e-06
9.5211635e-07 7.2232234e-07 8.733902e-07 1.4788601e-06 2.0023951e-06 2.5532775e-06 2.9362495e-06 3.0378803e-06
3.0914289e-06 2.9316532e-06 2.614852e-06 2.3425448e-06 2.2171535e-06 1.9569281e-06 1.5987453e-06 1.2275141e-06
9.608368e-07 7.489384e-07 1.1036822e-06 1.6636363e-06 2.09654e-06 2.5869783e-06 2.93399e-06 3.07935e-06
3.1446148e-06 2.961146e-06 2.6703958e-06 2.3516984e-06 2.1170024e-06 1.8585673e-06 1.4367339e-06 9.722121e-07
7.635333e-07 8.5567876e-07 1.5085242e-06 1.9302768e-06 2.1679796e-06 2.6014905e-06 2.9480443e-06 3.115042e-06
3.2092044e-06 3.0848953e-06 2.8259155e-06 2.438045e-06 2.0588361e-06 1.7634343e-06 1.2325792e-06 6.9838217e-07
6.339672e-07 9.931681e-07 1.6963877e-06 2.0021616e-06 2.265992e-06 2.6791238e-06 2.9686673e-06 3.1258123e-06
3.233311e-06 3.1862248e-06 3.01035e-06 2.6036746e-06 2.0890393e-06 1.7230249e-06 1.3008679e-06 9.028936e-07
9.1810006e-07 1.2666025e-06 1.7268693e-06 1.982468e-06 2.391924e-06 2.8069114e-06 3.0337214e-06 3.1575228e-06
3.2358157e-06 3.2160347e-06 3.133905e-06 2.8836562e-06 2.403636e-06 1.8448893e-06 1.3140425e-06 8.971074e-07
9.191829e-07 1.3091516e-06 1.8072251e-06 2.2774248e-06 2.7194487e-06 3.0061215e-06 3.1373822e-06 3.2044327e-06
00000000: 2be9 5136 1ae0 4c36 61dc 4236 80da 3036
00000010: 8d02 1936 5c23 f835 f985 c035 890d a035
00000020: a9f8 9b35 4e4b b335 1f75 c435 1229 e235
00000030: 38c6 0d36 c25a 2e36 4d97 4536 1b02 5336
00000040: 4862 4c36 e464 4136 653d 2f36 3110 1436
00000050: 5d6b e735 f3f5 a735 4744 7535 18fe 5c35
00000060: 2030 7435 9e4f 9d35 c1fb b535 3996 b935
00000070: 6483 e235 934a 1436 2976 3336 1703 4a36
00000080: 2e24 4736 ea31 3736 c553 1f36 a87a f935
00000090: 6f37 b335 948a 7635 1796 5035 a77a 7635
000000a0: 225a 8835 505c 7135 31d0 6335 fac6 8435
000000b0: 946a bf35 e97c 0836 c568 2b36 7a74 4336
000000c0: cbcf 4336 c7bc 3236 f2ed 1536 7dd2 d535
000000d0: 67b5 8735 dbbc 3d35 710c 7035 81ed ab35
000000e0: 87c9 a135 5564 4e35 79e4 2c35 ea95 6435
000000f0: 97ed be35 fb36 0d36 1ff4 3036 5537 4536
00000100: 084e 4436 ce4a 3336 0552 0f36 4220 b935
00000110: 858b 6535 e96b 4e35 f50e 9835 00ca c035
00000120: f369 a435 0f13 6735 21a2 5335 7afd 7635
00000130: 8a6a c435 fe42 0f36 bebe 3236 41a0 4636
00000140: 43c4 4536 dc29 3136 283c 0736 8466 a635
00000150: 9237 6835 23d8 6e35 96f1 a135 65a6 b035
00000160: 72f2 9b35 8727 7d35 e89f 7735 9903 9835
00000170: a037 d635 74d6 1036 d702 3236 b5ea 4636
00000180: 93cd 4536 0451 2e36 2c39 0636 c174 b235
00000190: 24ff 8235 5206 7b35 8e6e 8735 bbea 8f35
000001a0: f2c5 9435 0152 8635 d75c 8135 d0c1 a835
000001b0: 657c f735 c180 2136 5db5 3936 e49d 4736
000001c0: af6f 4636 5c25 3236 376b 1136 3989 db35
000001d0: aa75 a135 0c15 8a35 5955 8335 ffab 8b35
000001e0: 94ab 9a35 d47d 9235 0dfb 6e35 8fdf 9435
000001f0: af85 fb35 240a 2d36 c3f1 4236 3d3a 4736
00000200: b78f 4836 1489 3b36 798a 1f36 975f 0436
00000210: 452d d735 3341 a835 15f7 8b35 d87b 8735
00000220: 5605 9b35 a2c4 9435 e552 6635 317c 9835
00000230: f766 f835 6d2b 2c36 8d41 4636 6400 4936
00000240: 6996 4b36 e3f7 4236 6168 2a36 b1cd 0e36
00000250: 378f f635 718a c535 1f29 9535 f426 8335
00000260: 0c35 8c35 7cd2 7c35 cf99 6835 0c65 b135
00000270: e732 fc35 ef3b 2836 7c75 4636 e4f4 4a36
00000280: 5791 4e36 75da 4536 8425 3036 dbfa 1a36
00000290: 1545 0b36 f6e5 e735 99de b835 de6c 9935
000002a0: f094 7f35 9de5 4135 eb72 6a35 3f7d c635
000002b0: e360 0636 f958 2b36 620c 4536 63de 4b36
000002c0: 5876 4f36 6bbd 4436 d17a 2f36 9d34 1d36
000002d0: 68ca 1436 c553 0336 7894 d635 10c1 a435
000002e0: 1af6 8035 a80a 4935 3b22 9435 1c4a df35
000002f0: 48b2 0c36 f39b 2d36 90e5 4436 d5a6 4e36
00000300: 1208 5336 1ab8 4636 0d35 3336 dfd1 1d36
00000310: d311 0e36 e373 f935 cdd5 c035 f47c 8235
00000320: 9cf5 4c35 ccb1 6535 7f78 ca35 e789 0136
00000330: 9b7d 1136 4495 2e36 04d7 4536 040c 5136
00000340: b65d 5736 1906 4f36 dca4 3d36 4b9d 2336
00000350: 892a 0a36 24af ec35 196f a535 7578 3b35
00000360: e52d 2a35 ff4c 8535 70af e335 e05c 0636
00000370: 7211 1836 ffca 3336 5139 4736 0cc5 5136
00000380: dcfb 5836 edd2 5536 6b05 4a36 caba 2e36
00000390: 6c31 0c36 af42 e735 7b99 ae35 605e 7235
000003a0: 5b73 7635 2100 aa35 c7c6 e735 8a0a 0536
000003b0: f184 2036 5f5e 3c36 f096 4b36 d4e5 5336
000003c0: e426 5936 0ed3 5736 1450 5236 d684 4136
000003d0: 274e 2136 ea9d f735 285e b035 c0d0 7035
000003e0: c5bd 7635 1bb6 af35 c88f f235 dcd5 1836
000003f0: c67f 3636 c6bc 4936 d18b 5236 bc0b 5736

exp_avg f4 [200]
-0.00027875407 -0.00050917984 -0.00014530492 0.00036178806 3.5029886e-30 0.00058569375 -0.00025739823 -0.00032504197
-1.023314e-05 -3.7021062e-05 0.0004814266 0.00034361795 -0.0003340977 -0.00023941767 7.6255374e-10 -0.0004817264
0.0004357265 -0.0003786517 0.00037373902 0.00017983704 -0.00021916024 0.00060736615 -0.000100503436 -0.00023928226
2.29769e-05 -3.867206e-05 -0.00051987485 -4.274489e-05 0.0010744294 0.00036031054 0.00034385797 6.428562e-05
-0.00015435104 7.495514e-05 -0.00018106731 3.767656e-05 0.0005763184 -0.00043233877 -0.00023348893 -0.0003131257
1.5727762e-08 0.00018807662 5.6044005e-06 -0.0003459504 -0.00054614304 0.00013382432 -0.0002696965 0.001182407
-0.0001924724 -0.00034677357 -0.00030747437 0.00042145432 -8.5098756e-05 1.4278822e-05 -0.00014374717 -0.00013163204
7.0539616e-05 0.000407856 7.6141594e-05 6.953678e-30 -0.0003602773 0.00017463708 -4.151893e-05 -0.0007158342
0.00012774339 2.7978563e-06 -0.00010293694 -0.00022618844 -0.00013789212 0.00030055759 0.000569546 0.00017760748
-0.00085503474 -0.00044706446 -0.00025638627 0.00029305517 0.0002409305 -0.00046098663 -0.00027669145 -0.00024035877
0.00027359178 7.748858e-05 0.0004662293 -5.2717554e-05 -0.00040463143 9.741437e-05 -0.00041737471 -0.00014145016
4.7737853e-05 0.00024536785 -0.0005129023 0.00027198 0.00068485 9.521365e-05 -0.0007721369 0.00019436945
0.00039135688 -0.00022650391 -0.00020796027 0.00022604212 0.00012611525 -8.6174594e-05 0.00064950256 0.00010980503
7.659984e-05 0.00025521163 9.624212e-06 2.9457236e-05 1.4006477e-05 1.0453692e-10 2.229058e-05 0.00033162461
0.00046452688 0.00015589595 1.0870199e-06 -0.000203344 0.0007347281 -9.2869384e-05 0.00027733413 -6.655563e-05
-0.00026022503 2.401482e-10 -0.00021249287 -0.00036683405 0.00016540187 0.00018308854 -1.9754575e-06 0.00033408162
-0.00022867917 6.90127e-05 0.00027180486 -0.00053574814 0.0002760743 -0.00032970088 0.00025212072 0.00033744253
0.0005420542 0.0008479582 -0.00040670822 -5.2363157e-07 0.0004651576 6.5881315e-05 0.00013971409 -0.00029754793
2.0305898e-30 0.00044777172 -0.000114007344 0.0001744966 0.00053206895 -0.0006688036 -0.00010018087 -0.00010264622
0.00038764274 0.00026196873 0.0008671068 -0.0001741616 0.00030968367 0.0001083791 -0.00049821415 -0.00049954327
0.00021421307 0.0005963807 -0.0005106966 0.00021756416 -0.00021340158 0.0005463146 0.0005724445 -0.00033047755
-0.00041923055 8.444889e-05 0.00023162001 -0.00017252544 0.00018331615 0.00014602381 0.00023578962 0.00021070917
-3.5452766e-05 0.00045937765 -0.00017719889 0.0006342072 0.00014518906 1.9069112e-29 0.00031600147 0.00071309926
-9.814244e-05 1.049055e-05 -0.0005785056 0.00021886005 1.1131661e-05 -0.00036484541 -0.00018398331 -5.2910706e-05
-0.00040781815 0.00034934396 0.00035422415 -0.0004063902 0.00038295164 0.000307246 0.00017440294 0.00019478504
00000000: bd25 92b9 7b7a 05ba fe5c 18b9 5fae bd39
00000010: 1d19 8e0e 3e89 193a 68f3 86b9 656a aab9
00000020: 00af 2bb7 1047 1bb8 fc67 fc39 9f27 b439
00000030: d629 afb9 310c 7bb9 f39b 5130 3990 fcb9
00000040: 3972 e439 c585 c6b9 67f2 c339 a392 3c39
00000050: 61ce 65b9 a737 1f3a 5fc5 d2b8 d8e7 7ab9
00000060: 84be c037 cf33 22b8 3648 08ba fa48 33b8
00000070: ded3 8c3a 10e8 bc39 d647 b439 14d1 8638
00000080: 4bd9 21b9 3c31 9d38 e3dc 3db9 e606 1e38
00000090: 1314 173a 87ab e2b9 b5d4 74b9 052b a4b9
000000a0: b719 8732 6f36 4539 6f0d bc36 ad60 b5b9
000000b0: 0a2b 0fba 3153 0c39 0d66 8db9 fffa 9a3a
000000c0: 6bd2 49b9 29cf b5b9 8334 a1b9 a4f6 dc39
000000d0: 0c77 b2b8 138f 6f37 d6ba 16b9 b506 0ab9
000000e0: abee 9338 81d5 d539 35ae 9f38 8f09 0d0f
000000f0: 9ae3 bcb9 c91e 3739 9d24 2eb8 d2a6 3bba
00000100: dbf2 0539 cec2 3b36 d9df d7b8 ff2c 6db9
00000110: 2297 10b9 2894 9d39 964d 153a 253c 3a39
00000120: 6924 60ba fa63 eab9 956b 86b9 33a5 9939
00000130: 4aa2 7c39 94b0 f1b9 e610 91b9 d108 7cb9
00000140: de70 8f39 5d81 a238 3d70 f439 0b1d 5db8
00000150: b624 d4b9 f14a cc38 16d3 dab9 3d52 14b9
00000160: 213a 4838 b7a4 8039 4a74 06ba 8a98 8e39
00000170: 8187 333a 70ad c738 3b69 4aba a7cf 4b39
00000180: 082f cd39 ae81 6db9 e90f 5ab9 b805 6d39
00000190: ce3d 0439 a2b8 b4b8 6143 2a3a 2047 e638
000001a0: 3aa4 a038 edcd 8539 ad77 2137 ef1a f737
000001b0: 5cfd 6a37 0ee1 e52e a8fc ba37 e7dd ad39
000001c0: be8b f339 0078 2339 b8e5 9135 bd38 55b9
000001d0: c59a 403a dfc2 c2b8 2867 9139 c893 8bb8
000001e0: d06e 88b9 db05 842f 9fd0 5eb9 a253 c0b9
000001f0: ba6f 2d39 75fb 3f39 1a92 04b6 ad27 af39
00000200: 99c9 6fb9 e9ba 9038 0881 8e39 7371 0cba
00000210: 11be 9039 b4db acb9 122f 8439 c5ea b039
00000220: a418 0e3a 8349 5e3a 743b d5b9 b08f 0cb5
00000230: 65e0 f339 c329 8a38 3780 1239 3500 9cb9
00000240: b3bd 240e e7c2 ea39 3a17 efb8 13f9 3639
00000250: 8b7a 0b3a a652 2fba 3218 d2b8 c543 d7b8
00000260: 873c cb39 d958 8939 8d4e 633a 269f 36b9
00000270: 0a5d a239 9649 e338 969a 02ba c8f3 02ba
00000280: 629e 6039 6e56 1c3a 45e0 05ba ef21 6439
00000290: 8dc4 5fb9 8d36 0f3a 1a10 163a f243 adb9
000002a0: 2ccc dbb9 271a b138 06df 7239 f2e7 34b9
000002b0: 8e38 4039 f81d 1939 4b3e 7739 d0f1 5c39
000002c0: 1eb3 14b8 a0d8 f039 77ce 39b9 ed40 263a
000002d0: e43d 1839 3f62 c10f 00ad a539 48ef 3a3a
000002e0: d2d1 cdb8 9200 3037 dba6 17ba cc7d 6539
000002f0: 1fc2 3a37 b948 bfb9 a5eb 40b9 70ec 5db8
00000300: 6dd0 d5b9 2728 b739 29b7 b939 c510 d5b9
00000310: e6c6 c839 dc15 a139 efdf 3639 363f 4c39

exp_avg_sq f4 [200]
3.2415035e-06 1.2999814e-06 3.5602043e-06 5.2451014e-06 2.7798563e-10 2.4542437e-06 9.471822e-07 3.5878581e-06
3.6157594e-06 2.4879826e-06 6.4902047e-06 4.5821303e-06 2.866641e-06 5.4479474e-06 3.1771032e-09 5.384469e-06
6.2139643e-06 2.9405676e-06 3.8286807e-06 4.326437e-06 2.0451878e-06 3.7331927e-06 8.419861e-06 3.8703756e-06
5.558819e-06 5.3254525e-06 4.9807973e-06 1.9407638e-07 5.4960774e-06 6.1618557e-06 4.2790975e-06 1.4521577e-06
1.9912898e-06 3.4985565e-06 3.2290009e-06 2.8910215e-06 2.1036997e-06 5.340545e-06 2.0665511e-06 3.7748769e-06
3.451599e-08 3.7661732e-07 4.5102074e-06 2.5992783e-06 5.429138e-06 3.864661e-06 1.9553227e-06 6.4740543e-06
2.90271e-06 4.3195346e-06 2.6899795e-06 4.8105785e-06 4.132664e-06 7.449623e-06 6.5889785e-06 2.0958576e-06
1.3286607e-06 1.8401602e-06 2.7614165e-06 4.616027e-09 2.8897664e-06 5.014103e-06 5.9677154e-06 4.4406397e-06
6.3251664e-06 4.457666e-06 4.406386e-06 3.1314562e-06 3.436102e-06 2.967298e-06 3.650862e-06 5.1639604e-06
4.2700863e-06 4.8111046e-06 3.4949683e-06 6.5713543e-06 1.9397003e-06 1.3362381e-06 2.5110726e-06 5.6859553e-06
2.5596116e-06 3.0361718e-06 5.262914e-06 2.775822e-06 4.162793e-06 3.343179e-06 2.7321903e-06 3.1991171e-06
2.431456e-06 2.973879e-06 2.5455365e-06 5.997553e-06 9.796368e-06 2.547624e-06 3.4770749e-06 1.9786448e-06
2.012104e-06 2.6484784e-06 2.7337092e-06 3.2552796e-06 1.3197224e-06 3.6781582e-06 5.727741e-06 5.5206383e-06
7.079975e-06 3.1846996e-06 5.387321e-06 1.9207464e-06 3.4051118e-06 1.15358624e-07 3.2795208e-06 2.5251443e-06
2.4682915e-06 1.6631708e-06 4.536596e-06 2.9670307e-06 4.223439e-06 4.7862177e-06 2.6735038e-06 3.6325441e-06
5.159738e-06 9.3472e-08 4.185719e-06 2.4292892e-06 3.7046188e-06 4.3173736e-06 1.8118233e-06 8.85264e-06
1.5401525e-06 1.6554766e-06 6.028071e-06 2.5091074e-06 6.4903716e-06 3.2616965e-06 5.1131424e-06 4.1922053e-06
5.8146393e-06 4.705977e-06 3.9652828e-06 1.3245867e-07 4.7639764e-06 2.131047e-06 3.5609935e-06 3.9817633e-06
7.9488416e-10 4.0321265e-06 1.4940608e-07 5.9626677e-06 4.622468e-06 1.5748811e-06 2.1026399e-06 4.322018e-06
3.3244346e-06 3.347862e-06 5.322665e-06 5.1121356e-06 3.39758e-06 3.4442132e-06 6.8477657e-06 1.8151514e-06
2.803657e-06 1.9804454e-06 1.0784846e-06 5.785426e-06 3.0646004e-06 4.966358e-06 3.7933166e-06 5.5111095e-06
5.5601367e-06 6.109755e-06 2.6366856e-06 1.2149296e-06 3.9173074e-06 1.9681656e-06 5.4946286e-06 4.6266387e-06
3.1817779e-06 3.6809406e-06 1.3422706e-06 4.1650287e-06 3.403351e-06 2.79827e-08 2.6022917e-06 3.2683624e-06
1.4437596e-06 2.9750097e-06 1.1244784e-06 3.0744882e-06 2.349534e-06 5.9345502e-06 2.384923e-06 4.1873477e-06
2.5543584e-06 3.9040024e-06 3.8793476e-07 4.4558906e-06 9.240271e-06 4.4121207e-06 3.1350523e-06 2.9517023e-06
00000000: 9b88 5936 057b ae35 d8eb 6e36 14ff af36
00000010: 00d3 982f 96b3 2436 dd41 7e35 efc6 7036
00000020: 46a6 7236 37f7 2636 6fc6 d936 33c0 9936
00000030: 8460 4036 83cd b636 3154 5a31 3dac b436
00000040: 8c81 d036 9156 4536 1e78 8036 d02b 9136
00000050: 0f40 0936 c387 7a36 0743 0d37 46de 8136
00000060: e485 ba36 4ab1 b236 b920 a736 4f63 5034
00000070: f26a b836 f0c1 ce36 2b95 8f36 c2e7 c235
00000080: 19a2 0536 bec8 6a36 d0b1 5836 5f03 4236
00000090: 492d 0d36 ef32 b336 14af 0a36 e453 7d36
000000a0: bb3e 1433 e431 ca34 6356 9736 436f 2e36
000000b0: f12b b636 2fad 8136 3038 0336 b43b d936
000000c0: 2ecc 4236 85f0 9036 7f85 3436 8e6a a136
000000d0: 50ab 8a36 c6f7 f936 e516 dd36 8fa6 0c36
000000e0: 6f54 b235 6cfb f635 c650 3936 019b 9e31
000000f0: cfed 4136 d13e a836 493e c836 ce00 9536
00000100: c43c d436 0f93 9536 91da 9336 0226 5236
00000110: c897 6636 cb21 4736 5501 7536 1546 ad36
00000120: c347 8f36 136f a136 198b 6a36 817f dc36
00000130: cc2b 0236 cb58 b335 e683 2836 fcc9 be36
00000140: cbc5 2b36 09c1 4b36 1698 b036 4248 3a36
00000150: 1fae 8b36 615b 6036 ac5a 3736 6ab0 5636
00000160: 192c 2336 da92 4736 fcd3 2a36 973e c936
00000170: 155b 2437 d9f7 2a36 b157 6936 dcc8 0436
00000180: af07 0736 83bc 3136 c474 3736 4775 5a36
00000190: 5121 b135 47d6 7636 ec30 c036 ec3d b936
000001a0: 8690 ed36 b9b8 5536 bcc4 b436 2ce6 0036
000001b0: 6083 6436 13bb f733 bd15 5c36 a675 2936
000001c0: eda4 2536 1d3a df35 1039 9836 331d 4736
000001d0: 11b7 8d36 4c99 a036 726a 3336 a2c6 7336
000001e0: d021 ad36 c7ba c833 0d73 8c36 df06 2336
000001f0: de9c 7836 f5dd 9036 c62d f335 cd85 1437
00000200: 3db7 ce35 be31 de35 bc44 ca36 2362 2836
00000210: dec7 d936 85e3 5a36 8f91 ab36 c5aa 8c36
00000220: 5f1b c336 09e8 9d36 850d 8536 f639 0e34
00000230: 3fda 9f36 1c03 0f36 67f9 6e36 169b 8536
00000240: 007f 5a30 b44b 8736 6e6c 2034 ed12 c836
00000250: b31a 9b36 8160 d335 141b 0d36 da05 9136
00000260: 5a19 5f36 d5ab 6036 5899 b236 e988 ab36
00000270: fb01 6436 2223 6736 dcc5 e536 21a0 f335
00000280: 7626 3c36 cbe7 0436 73c0 9035 6e20 c236
00000290: 6fa9 4d36 b1a4 a636 af90 7e36 12ec b836
000002a0: 3691 ba36 6502 cd36 eaf1 3036 aa10 a335
000002b0: 6a71 8336 d414 0436 805e b836 863e 9b36
000002c0: 8786 5536 1406 7736 1128 b435 53c1 8b36
000002d0: 2065 6436 9c5e f032 08a3 2e36 0a56 5b36
000002e0: 34c7 c135 47a6 4736 c9ec 9635 4e53 4e36
000002f0: b0ac 1d36 6621 c736 aa0c 2036 0b81 8c36
00000300: 8b6b 2b36 20ff 8236 5945 d034 cf83 9536
00000310: a906 1b37 d40b 9436 ca63 5236 dc15 4636

exp_avg f4 [10, 200]
-0.0023095056 -0.0026290005 -0.006102951 -0.0042558373 6.7322833e-31 -0.0028876236 -6.560841e-05 -0.0028714591
-0.0012180448 -0.00012814597 0.00038720708 -0.0008089558 -0.0018336843 -0.0033742348 2.3381061e-11 -0.0029946563
-0.0042079864 -0.002171826 -0.004453105 -0.0018614043 -0.0029503251 -0.0076908963 -0.0010622308 -0.0015322543
-0.0025365676 -0.0008545712 -0.0021892046 -0.00068430847 -0.0015637514 -0.005124225 -0.000106962616 -0.00045251122
-0.0036133726 -0.002289564 -0.0009251382 -0.0007159333 -0.005082319 2.8285376e-05 0.00032538763 -0.0017449108
6.0319146e-12 -0.0004108751 -0.002543255 -0.0023805103 -0.0018596668 -0.00038574147 5.025785e-05 -0.0020630914
-0.00072311517 -0.0010993271 -0.0009798649 0.0004427358 0.00018771249 2.8513421e-05 -0.002377356 -0.000568098
-0.0021432803 -0.0035795032 -0.00043272396 -1.5708637e-29 -0.00061080675 -0.0023135555 -0.0004407181 -0.001949375
-0.00030737455 -0.003983052 -0.0010735629 -0.0030691295 -0.00035748657 -0.0005578104 -0.00728264 -0.0006704305
-0.001537299 -0.0008081197 -0.001762482 -0.0022911974 0.00082228484 -0.00234615 -0.00069249904 -0.0012469541
-0.00129345 -0.0008207207 -0.0019254959 -0.0050080987 0.0005699958 -0.004021287 -0.00058929715 -0.0022692785
-0.004808352 3.5258876e-05 -0.0019431682 -0.00048711366 -0.0038459552 -5.2811014e-05 -0.004053711 -0.0029451929
-0.001201607 -0.0023403675 -0.00059001206 -0.0040134834 -0.0021021347 -0.00048683162 -0.0017416601 -7.0131144e-05
-0.00036830184 -0.0012620842 -0.0042836387 -0.0018010348 0.00015001076 2.5874697e-10 -0.001132542 -0.004266254
-0.0024817598 -0.0002668463 -0.0019049735 -0.001622387 -0.0034658902 -0.0013190659 -0.0014205853 -0.0009847402
-0.00021482402 1.8367466e-13 -0.0024356225 0.00028914688 -0.00026798103 -0.0034927744 -0.00031762788 -0.0024300278
-0.00030607375 -0.00088891515 -0.0035318013 -0.004686874 -0.0022747135 -0.0012554541 -0.0024339785 -0.0005182492
-0.0021061045 -0.0007080062 -0.0016072228 5.8781995e-07 -0.0005797367 0.00019158612 -0.0031055715 -0.0042779795
1.7878226e-31 -0.0020400556 -0.0007443384 -0.0025745113 -0.004911544 -0.00044304787 -0.0017022293 -0.00050134683
0.00011184509 -0.00029753902 -0.0038139077 -0.001873913 -0.0022847042 -0.0037767135 -0.0015503775 -2.8641167e-05
-0.00076622056 -0.0022676052 -0.0037650184 -0.0045323516 -0.0020306786 -0.0011645096 -0.0009979944 -0.0025363541
-0.0036526122 -0.00073837 0.00052200735 -0.0021254497 -0.0040191393 -0.00074868836 -0.0009126091 -0.0029227275
0.00028349514 -0.0051223096 -0.004048505 -0.001437265 -0.0021927885 -6.603067e-29 -0.0003082862 -0.007080907
-0.0014650531 -0.002443526 -0.0047617094 -0.0027043363 -0.00030932686 -0.0014410843 -0.0028600183 -0.00011497822
-0.0005237849 -0.0069336775 -0.0008387131 -0.0007134658 -0.001974635 -0.004460703 -0.0017552165 -0.0006721229
-0.003516513 5.077721e-06 0.0020925985 -0.00069366617 6.407616e-31 -0.00018304927 0.0006917794 0.0036267892
-0.00020762294 0.0008915484 0.0007108164 -0.0005032474 0.003966565 0.001302232 3.2008669e-12 0.0026103181
-0.00032074825 0.00010987397 0.0011456738 0.0007332084 -0.00081505295 0.0018782637 -0.0015182282 -0.000365882
0.0006920452 0.0020424367 0.00084404834 5.224098e-07 0.00066368317 -0.0009776255 -0.0007309058 -0.001260082
-0.0005484422 0.0016121496 -0.000842995 0.0005040473 0.00017076936 0.0009919696 0.0013404568 0.00097158767
4.0438876e-12 1.32235555e-05 -0.00056003797 0.0020075247 -0.00024802794 0.0021364063 -0.00077329855 0.0006728644
0.0006444326 0.00043236982 -0.00016027041 0.00043476242 0.0019636757 -0.00011677767 -0.0012365854 0.0012705197
00000000: 135b 17bb 4f4b 2cbb 43fb c7bb 8d74 8bbb
00000010: 9f79 5a0d 493e 3dbb 3f97 89b8 172f 3cbb
00000020: cda6 9fba ec5e 06b9 0e02 cb39 1b10 54ba
00000030: 3c58 f0ba 4422 5dbb 78a9 cd2d ff41 44bb
00000040: 26e3 89bb 3255 0ebb 5aeb 91bb 5dfa f3ba
00000050: 3e5a 41bb ea03 fcbb 8d3a 8bba ecd5 c8ba
00000060: 8b3c 26bb 4d05 60ba c278 0fbb 2a63 33ba
00000070: caf6 ccba 1de9 a7bb 1e51 e0b8 073f edb9
00000080: 55ce 6cbb 830c 16bb f984 72ba 78ad 3bba
00000090: 9589 a6bb 6246 ed37 ca98 aa39 7eb5 e4ba
000000a0: a83a d42c b96a d7b9 bdac 26bb 5602 1cbb
000000b0: 10c0 f3ba 583d cab9 f5cb 5238 ee34 07bb
000000c0: 708f 3dba 4c17 90ba cf6e 80ba fe1e e839
000000d0: b0d4 4439 1b30 ef37 6acd 1bbb 69ec 14ba
000000e0: 4776 0cbb 1996 6abb 3adf e2b9 f44d 9f8f
000000f0: 8c1e 20ba 059f 17bb 2f10 e7b9 2c82 ffba
00000100: 1d27 a1b9 4384 82bb cbb6 8cba 7323 49bb
00000110: 096d bbb9 063a 12ba 36a3 eebb d4bf 2fba
00000120: 327f c9ba ffd7 53ba 1503 e7ba ea27 16bb
00000130: 9a8e 573a dec1 19bb d388 35ba d670 a3ba
00000140: fb88 a9ba a225 57ba ec60 fcba fa1a a4bb
00000150: c56b 153a 00c5 83bb 107b 1aba 2db8 14bb
00000160: 618f 9dbb eee2 1338 e8b1 feba 4a63 ffb9
00000170: 6c0c 7cbb 6581 5db8 fed4 84bb 2304 41bb
00000180: 3e7f 9dba da60 19bb 0aab 1aba 8a83 83bb
00000190: f8c3 09bb 6f3d ffb9 6a48 e4ba 5f13 93b8
000001a0: a318 c1b9 856c a5ba c45d 8cbb b310 ecba
000001b0: 354c 1d39 663f 8e2f ce71 94ba efcb 8bbb
000001c0: 05a5 22bb 81e7 8bb9 4eb0 f9ba 46a6 d4ba
000001d0: fd23 63bb 82e4 acba ef32 baba 6612 81ba
000001e0: 6242 61b9 9ecc 4e2a f79e 1fbb a398 9739
000001f0: ce7f 8cb9 08e7 64bb 4b87 a6b9 1a41 1fbb
00000200: 8678 a0b9 1606 69ba cb75 67bb 5994 99bb
00000210: 5c13 15bb 0d8e a4ba 6283 1fbb 1ddb 07ba
00000220: 9206 0abb 7e99 39ba 73a9 d2ba aeca 1d35
00000230: 79f9 17ba 82e4 4839 d886 4bbb 4b2e 8cbb
00000240: 9912 680c 74b2 05bb b41f 43ba 22b9 28bb
00000250: 04f1 a0bb e148 e8b9 561d dfba d16c 03ba
00000260: 608e ea38 03ff 9bb9 c1f2 79bb 169e f5ba
00000270: faba 15bb bd82 77bb 0936 cbba 7042 f0b7
00000280: 31dc 48ba 1a9c 14bb 87be 76bb 1f84 94bb
00000290: 2215 05bb 75a2 98ba 23cf 82ba f638 26bb
000002a0: aa60 6fbb 2c8f 41ba 52d7 083a 214b 0bbb
000002b0: fcb2 83bb a043 44ba 293c 6fba 3b8b 3fbb
000002c0: 13a2 9439 0cd9 a7bb 52a9 84bb 9c62 bcba
000002d0: e3b4 0fbb 5b68 a790 79a1 a1b9 f406 e8bb
000002e0: 0607 c0ba 9023 20bb 1d08 9cbb 3c3b 31bb
000002f0: 262d a2b9 c4e2 bcba 256f 3bbb 7620 f1b8
00000300: 9c4e 09ba e733 e3bb 15dd 5bba e107 3bba
00000310: e168 01bb 172b 92bb 4b0f e6ba 6731 30ba
00000320: 4c75 66bb 4b61 aa36 fa23 093b 26d7 35ba
00000330: 64f0 4f0d eaf0 3fb9 8858 353a 6daf 6d3b
00000340: 5cb5 59b9 cdb6 693a 1556 3a3a 5cec 03ba
00000350: f5f9 813b a8af aa3a b13d 612c df11 2b3b
00000360: 1a2a a8b9 236c e638 6f2a 963a c834 403a
00000370: 47a9 55ba 1230 f63a 49ff c6ba dad3 bfb9
00000380: 5e6a 353a 67da 053b 2043 5d3a ba3b 0c35
00000390: 06fb 2d3a ab23 80ba 429a 3fba 5629 a5ba
000003a0: 55c5 0fba c44e d33a 70fc 5cba 0b22 043a
000003b0: 8d10 3339 fa04 823a 44b2 af3a 25b2 7e3a
000003c0: 1a48 8e2c bdda 5d37 83cf 12ba ad90 033b
000003d0: bf09 82b9 f302 0c3b 30b7 4aba 2a63 303a
000003e0: 24ef 283a b2af e239 430e 28b9 d3f0 e339
000003f0: 03b1 003b 89e6 f4b8 ec14 a2ba 9187 a63a
