1/0662b679debb4bea8ee7fb4180f0e203/checkpoints/epoch=4-step=570.ckpt (torch, 327856 bytes, 12 tensors)

fc1.weight f4 [100, 256]
0	0xbd164528	-0.036687046
1	0xbceb18bf	-0.028698323
2	0x3c97f606	0.01854993
3	0xbdd21334	-0.10257569
4	0xbd9aa658	-0.07551259
5	0xbd05740c	-0.032581374
6	0xbba02615	-0.004887352
7	0xbd4dc0d1	-0.050232712
8	0xbdb2d6ae	-0.08732353
9	0xbd81f6c1	-0.06345893
10	0x3c6e6b22	0.01455191
11	0xbcd4ae1e	-0.025961932
12	0xbdabf61c	-0.08396551
13	0xbd320d34	-0.043469623
14	0xbc4340c7	-0.0119173
15	0xbca7c39a	-0.020479012
16	0x3cf9b847	0.030483378
17	0x3c274ddb	0.010211433
18	0xbd494812	-0.049140997
19	0xbc87c1d5	-0.016571919
20	0xbd8f2328	-0.069891274
21	0xbdb53aab	-0.08849081
22	0xbd480607	-0.048833873
23	0xbdea7a66	-0.11449127
24	0xbd79ad24	-0.060956135
25	0x3d2233ab	0.039600056
26	0x3b449839	0.0029997958
27	0xb9addaac	-0.00033160055
28	0xbcee4b98	-0.02908878
29	0x3c63289b	0.013864662
30	0xbdb3f9fb	-0.08787914
31	0xbd32f012	-0.04368598
32	0xbd600623	-0.054693352
33	0xbcd6fdbc	-0.026244037
34	0xbdc94f14	-0.09829536
35	0xbdc5241c	-0.09626028
36	0xbdad9ffd	-0.08477781
37	0xbcd78b5b	-0.026311567
38	0x3cbd54f8	0.023111805
39	0xbd49203b	-0.049103003
40	0xbca0b280	-0.019616365
41	0xbcdb6051	-0.026779326
42	0xbca58e2b	-0.020209393
43	0x3c858821	0.016300263
44	0xbdc02573	-0.09382143
45	0xbd148f29	-0.03626934
46	0xbd57ab60	-0.05265367
47	0xbc860412	-0.016359363
48	0x3c939ea3	0.01801998
49	0xbd8559a1	-0.06511236
50	0xbc38fa2b	-0.011290113
51	0xbd35ea6d	-0.04441302
52	0xbc8e6248	-0.017380849
53	0xbd000984	-0.031259075
54	0x3c27ae93	0.010234493
55	0x3d35425f	0.04425275
56	0xbd99a368	-0.075018704
57	0xbdb89b9c	-0.09014055
58	0xbd98fc53	-0.07470002
59	0xbdee4ddb	-0.116359435
60	0xbd6a9030	-0.057266414
61	0xbd4e3a7f	-0.050348755
62	0x3c7c6903	0.015405896
63	0x3cb3bd90	0.021940976
64	0xbcf5bde9	-0.029997783
65	0xbcb5856f	-0.022158353
66	0xbc630e80	-0.013858438
67	0xbd73efc7	-0.05955484
68	0xbd5ca2c8	-0.053866178
69	0x3dc52975	0.09627048
70	0x3c700f21	0.0146520445
71	0x3d00a664	0.031408682
72	0xbd4e6038	-0.05038473
73	0xbe0631cf	-0.13104938
74	0xbe013221	-0.12616779
75	0xbd9cc2ef	-0.07654368
76	0xbd865a49	-0.06560189
77	0xbdd59f66	-0.104307935
78	0xbd31e8d6	-0.04343494
79	0xbdb8ade1	-0.0901754
80	0x3c8ee00d	0.01744082
81	0xbd73c592	-0.05951459
82	0xbd8078be	-0.0627303
83	0xbd75655c	-0.059911117
84	0xbd2274db	-0.039662223
85	0x3cf8e007	0.030380262
86	0xbd286d76	-0.041120015
87	0xbd78bce7	-0.060727026
88	0xbe04137a	-0.12898055
89	0xbdc1e0bc	-0.09466693
90	0xbdc86310	-0.0978452
91	0xbda76d0d	-0.08175097
92	0xbe2f4791	-0.17117144
93	0xbdf602eb	-0.12012275
94	0xbd16f5a2	-0.036855347
95	0xbdaa6628	-0.08320266
96	0xbdb4ab17	-0.08821695
97	0xbdafcfef	-0.08584582
98	0xbd8ff951	-0.07029975
99	0xbb280d3a	-0.002564265
100	0xbccb9f27	-0.024856163
101	0xbc797017	-0.015224478
102	0xbdf659ed	-0.12028871
103	0xbe1aa786	-0.15102968
104	0xbdd78864	-0.10524061
105	0xbdbbb98f	-0.09166252
106	0xbdcbdb77	-0.09953969
107	0xbe0d5e21	-0.13805439
108	0xbddf886f	-0.109146945
109	0xbdcd8fc2	-0.10037185
110	0x3c85ba2d	0.016324127
111	0x3cb1adeb	0.021689376
112	0xbd350525	-0.04419436
113	0x3b1f3d41	0.0024297985
114	0xbd73dbf8	-0.05953595
115	0xbcc949a9	-0.024571257
116	0x3ce2ca4b	0.027684351
117	0x3d66fcd7	0.05639347
118	0xbd9f7b9b	-0.07787248
119	0xbdd3ef33	-0.10348358
120	0xbdd33093	-0.10311999
121	0xbdf3b16d	-0.11899076
122	0xbe02cb6d	-0.12772913
123	0xbdbc5c25	-0.09197263
124	0xbbe5773f	-0.0070027406
125	0xbb5107e4	-0.0031895572
126	0xba3124bb	-0.00067574874
127	0xbcf85e5d	-0.030318433
128	0xbd53cd1b	-0.051709276
129	0x3ca3d8af	0.020000784
130	0x3d5ab83f	0.053398367
131	0xbc0e08c5	-0.008669083
132	0x3dc58e3b	0.09646269
133	0x3da3ce00	0.07998276
134	0xbd9fb31d	-0.07797835
135	0xbd4638b6	-0.048393928
136	0xbd275e39	-0.040861342
137	0xbd8e3daf	-0.06945359
138	0xbc654352	-0.013993101
139	0xbd2c566a	-0.0420746
140	0x3c97cad1	0.018529328
141	0xbd7e0a87	-0.06202176
142	0xbca7da4d	-0.020489836
143	0xbcbb7dd8	-0.022887155
144	0xbb74a154	-0.0037327604
145	0x3d0fb03f	0.03508019
146	0x3d4406d3	0.04785807
147	0x3da5ed5c	0.08101913
148	0xbb2cb554	-0.0026353197
149	0x3dcc1870	0.099655986
150	0xbd678d88	-0.05653146
151	0xbdecf8a5	-0.11570863
152	0xbdc896f9	-0.09794421
153	0xbd463134	-0.048386768
154	0x3da6bd41	0.08141566
155	0x3d333aee	0.04375737
156	0xbba2fed6	-0.0049742265
157	0x3c7f3b18	0.015578054
158	0xbcab078a	-0.020877618
159	0xbc04a8a7	-0.0080968505
160	0xbce8e99a	-0.028431702
161	0x3d978987	0.07399278
162	0x3d5fcaa1	0.0546366
163	0x3d09a6c4	0.033606306
164	0x3d5e0e0e	0.054212622
165	0x3d50867c	0.050909504
166	0xbb9d88ed	-0.0048075826
167	0xbd3f16c6	-0.046652578
168	0xbcd56ea1	-0.026053729
169	0x3c72fed0	0.01483126
170	0x3d6d65db	0.057958465
171	0x3df9abb0	0.1219095
172	0xbc27e696	-0.010247847
173	0x3c8eeb93	0.017446315
174	0x3c261e4c	0.010139059
175	0xbd250ee4	-0.040297404
176	0x3bf64708	0.007515792
177	0x3c55808b	0.013031135
178	0x3dbf8b03	0.09352686
179	0x3d8fc56c	0.07020077
180	0x3db40655	0.0879027
181	0x3df76665	0.12080077
182	0x3aa38895	0.0012476618
183	0xbc73ce98	-0.014880799
184	0xbd7a14dc	-0.06105505
185	0x3ca43c04	0.020048149
186	0x3e070885	0.13186844
187	0x3d7b73d3	0.061389755
188	0x3c2c411d	0.010513571
189	0x3d4513c6	0.04811456
190	0x3c0cf697	0.0086037135
191	0xbda5a64f	-0.080883615
192	0x3d624500	0.055241585
193	0x3d1a1004	0.03761293
194	0x3dcc6542	0.09980251
195	0x3e01e579	0.12685193
196	0x3da0d6b1	0.07853449
197	0x3e1b2dd7	0.15154205
198	0x3e08bfe9	0.13354458
199	0xbc76244a	-0.0150233
200	0xbce74863	-0.028232759
201	0x3dbb9890	0.09159958
202	0x3d6017fd	0.054710377
203	0x3cbd8d95	0.0231388
204	0x3dc4e379	0.096136995
205	0xbc115b90	-0.008871928
206	0x3d40131f	0.046893235
207	0xbc2366cd	-0.00997324
208	0x3cd6d0dc	0.026222639
209	0xbbf99f69	-0.00761788
210	0x3da8025e	0.082035765
211	0x3d7d2434	0.061802104
212	0x3e1e8727	0.15481244
213	0x3e1d5d16	0.1536754
214	0x3def7cd9	0.11693735
215	0x3e22883f	0.15872286
216	0x3d870824	0.065933496
217	0x3da7fc99	0.08202476
218	0x3e052aa3	0.13004546
219	0x3e06f838	0.13180625
220	0x3d49fa90	0.04931122
221	0x3d5fc510	0.054631293
222	0x3d2b6791	0.041846815
223	0x3a8c709d	0.0010714714
224	0x3b76afeb	0.0037641476
225	0xbd2e24a3	-0.04251541
226	0x3b440fe0	0.0029916689
227	0x3e0fa782	0.14028743
228	0x3e3b1c29	0.18272461
229	0x3e036977	0.128332
230	0x3e1fb69c	0.15597004
231	0x3de20964	0.11036947
232	0x3d7f7cd0	0.06237489
233	0x3e267278	0.16254604
234	0x3df70228	0.12060958
235	0x3d848624	0.06470898
236	0x3d6fa852	0.058510132
237	0x3d9f77c5	0.07786516
238	0x3c4aedde	0.0123858135
239	0x3b5a3c6b	0.0033300172
240	0x3c557ffc	0.013031002
241	0x3cf6d4be	0.03013074
242	0x3ca1856a	0.019716937
243	0x3d655d55	0.05599721
244	0x3dcc24fe	0.09967993
245	0x3e18c923	0.14920478
246	0x3d891ed7	0.06695335
247	0x3c465a62	0.01210651
248	0xbcdf0429	-0.027223663
249	0xbd0d17f7	-0.034446683
250	0xbd2f7ad4	-0.042841747
251	0x3d6a3546	0.05717971
252	0x3d262449	0.040561948
253	0x3d5e7aa1	0.054316167
254	0xbd9e2f2e	-0.077238426
255	0x3d06b14c	0.032883927

fc1.bias f4 [100]
0	0x3d04f967	0.03246441
1	0x3d767c63	0.06017722
2	0x3d4fb6bb	0.050711375
3	0x3c059b6b	0.00815473
4	0x3cf4b157	0.029869718
5	0xbd2f30e2	-0.042771228
6	0x3d026bee	0.03184121
7	0x3d05a94d	0.03263216
8	0x3c6a3148	0.014293976
9	0x3d9d9973	0.07695284
10	0xbd0e2d53	-0.034711193
11	0x3d85d340	0.06534433
12	0x3d830490	0.063973546
13	0x3b8d1a26	0.0043060957
14	0xbcf303f7	-0.029664977
15	0x3d132d8d	0.035932112
16	0x3d8ba665	0.068188466
17	0x3bfd4e5e	0.0077302894
18	0x3c49f7bd	0.012327132
19	0xbd3b8350	-0.045779526
20	0x3d03182b	0.03200547
21	0xbcdec77c	-0.027194731
22	0x3db52b28	0.08846122
23	0x3d36ac4f	0.04459792
24	0xbcd6c97d	-0.026219124
25	0xbc8bfbe9	-0.017087894
26	0xbd1acc85	-0.0377927
27	0xbae346d8	-0.0017339839
28	0x3d92b4c4	0.071633846
29	0x3cdc82c8	0.02691783
30	0xbcf3b14c	-0.029747628
31	0xbcb96fb3	-0.02263627
32	0x3da86b9c	0.0822365
33	0x3c302629	0.010751286
34	0xbd6430f9	-0.055710766
35	0x3d885236	0.066563055
36	0xbc4d2231	-0.012520359
37	0x3d8a6bc0	0.06758833
38	0x3d67d4df	0.056599494
39	0x3c5b51ff	0.013386249
40	0x3bf6b3a2	0.007528738
41	0xbd00ddaa	-0.031461395
42	0x3d9ce8ef	0.07661616
43	0x3ac23fab	0.001482
44	0x3d44492d	0.04792135
45	0xbc5764ef	-0.013146623
46	0xbb3047de	-0.0026898305
47	0x3d098ac3	0.0335796
48	0x3d2643a1	0.04059184
49	0xbc9ecb27	-0.01938398
50	0xbd4145e0	-0.04718578
51	0xbbfe5e41	-0.007762701
52	0xbc0242fc	-0.007950541
53	0x3d57fa94	0.052729204
54	0xbc8ac425	-0.016939232
55	0xbd69ddad	-0.057096172
56	0xbd53436f	-0.05157798
57	0x3cbca9a5	0.023030112
58	0x3d40dfae	0.047088318
59	0xbcb91b25	-0.022595951
60	0x3c6305ab	0.013856332
61	0xbc81020a	-0.015748043
62	0x3d60ccb3	0.054882716
63	0x3d3d74c1	0.046253923
64	0x3be52baa	0.0069937306
65	0xbccf2baf	-0.025289385
66	0x3cecb8fb	0.0288968
67	0xbb7ede90	-0.0038889982
68	0xb8616800	-5.3741038e-05
69	0x3d0302d1	0.031985108
70	0x3bc7c449	0.006096397
71	0xbbacc43b	-0.005272416
72	0x3cd8a5a6	0.026446175
73	0x3bb52625	0.005528229
74	0xbc90a6db	-0.017657688
75	0x3c936d90	0.01799658
76	0x3d1e6db6	0.038678847
77	0x3c847218	0.016167685
78	0xba1bd97b	-0.0005945188
79	0x3d462b01	0.048380855
80	0xbbc48fe1	-0.005998597
81	0xbcec8217	-0.028870625
82	0x3c39058c	0.011292826
83	0xbb630a0f	-0.0034643447
84	0x3d96578a	0.073409155
85	0x3d136874	0.035988286
86	0x3c0bb553	0.008527118
87	0xbc082d99	-0.008311653
88	0x3d4d9220	0.050188184
89	0x3a6ae82b	0.00089609873
90	0x3d2674dd	0.040638793
91	0xbc804151	-0.015656145
92	0x3c9600a0	0.018310845
93	0x39ad66b6	0.00033073657
94	0x3c85169f	0.016246138
95	0xbcde2a3d	-0.02711975
96	0xbc38ea80	-0.011286378
97	0x3d13a7e8	0.0360488
98	0x3c931ef0	0.017959088
99	0xbd256806	-0.040382408

fc2.weight f4 [10, 100]
0	0x3d8d66c7	0.06904369
1	0xbe02d73e	-0.12777421
2	0x3e030cd7	0.12797867
3	0xbe054f0c	-0.13018435
4	0xbdbc228c	-0.09186277
5	0xbe3914dd	-0.18074365
6	0xbe320ce2	-0.17387727
7	0xbe070c1e	-0.13188216
8	0x3dfe7157	0.124239616
9	0x3e0349b6	0.12821087
10	0xbe13e792	-0.14443806
11	0xbe33dab0	-0.17563891
12	0x3d6b64f3	0.05746932
13	0xbc707aaa	-0.014677683
14	0x3d901a24	0.07036236
15	0xbe205dbc	-0.15660757
16	0xbcd1ff18	-0.025634333
17	0x3d99be73	0.075070284
18	0x3d1a7ff9	0.0377197
19	0xbd00fd6e	-0.03149169
20	0xbdc5dabb	-0.0966086
21	0xbdfb5158	-0.122713745
22	0xbd1c4129	-0.03814808
23	0xbcd5c1dc	-0.026093416
24	0xbe430f04	-0.19048697
25	0x3dbf6913	0.09346213
26	0xbe15c572	-0.146261
27	0xbdc92bd6	-0.09822814
28	0xbe4a30c8	-0.19745171
29	0xbdf42f4c	-0.11923084
30	0x3d9e1535	0.07718889
31	0x3e04d7a7	0.1297289
32	0xbc8d56d2	-0.017253313
33	0xbe108c9a	-0.14116135
34	0xbdfee28b	-0.124455534
35	0xbde05b98	-0.1095497
36	0x3cc6c2d3	0.024262821
37	0x3e4a3d50	0.19749951
38	0xbdb5ba60	-0.08873439
39	0xbe0b401e	-0.13598678
40	0x3e057409	0.13032545
41	0xbd9ee62e	-0.07758747
42	0x3e06f838	0.13180625
43	0x3cb3980c	0.021923088
44	0xbd4db60e	-0.05022245
45	0x3d80ef08	0.062955916
46	0xbe0bd8fa	-0.13656989
47	0x3df6e8d9	0.12056131
48	0xbd5ac3a7	-0.053409245
49	0xbdec4a26	-0.1153758
50	0xbdad0896	-0.08448903
51	0x3df72d30	0.12069166
52	0x3d64182c	0.055687115
53	0x3e1ec53a	0.15504923
54	0x3da0b6ea	0.07847388
55	0xbcb070b3	-0.021538114
56	0xbd89af44	-0.067228824
57	0xbe2c9bf3	-0.16856365
58	0xbe1d5d3c	-0.15367597
59	0xbd32e6e4	-0.043677226
60	0x3cf407e6	0.029788923
61	0x3d03d1c0	0.032182455
62	0x3e0393c0	0.12849331
63	0xbe3e2d07	-0.18571864
64	0x3e10672f	0.14101861
65	0x3dd0aec1	0.10189582
66	0xbd1b82eb	-0.03796665
67	0x3d870231	0.06592215
68	0x3cf9fb3a	0.030515302
69	0x3e057543	0.13033013
70	0xbd3248cd	-0.04352646
71	0xbdd848a9	-0.10560734
72	0xbd40245d	-0.04690968
73	0x3e0d065e	0.1377196
74	0xbdcf766e	-0.101300105
75	0xbe087b10	-0.13328195
76	0x3e28e2d2	0.16492775
77	0xbd7886df	-0.060675498
78	0x3cbbc81b	0.022922566
79	0x3d8ded17	0.06929987
80	0xbd3a7007	-0.045516994
81	0xbe05118b	-0.12994973
82	0xbdedb410	-0.1160661
83	0xbe2a01ec	-0.16602296
84	0xbe97c1da	-0.29640085
85	0x3dba2690	0.090893865
86	0xbcecfcaf	-0.028929083
87	0xbe18d952	-0.14926651
88	0xbdb63935	-0.0889763
89	0x3e25c6ba	0.1618909
90	0x3dae7a18	0.08519381
91	0xbd86529c	-0.06558725
92	0x3dae8837	0.08522075
93	0x3cb104f5	0.021608809
94	0x3e1939e1	0.14963485
95	0x3d5bb3e7	0.053638365
96	0x3d6ec447	0.058292653
97	0xbd090807	-0.03345492
98	0xbd893f62	-0.067015424
99	0x3da6910a	0.08133133
100	0xbd8e1c69	-0.069390126
101	0xbcaf91ec	-0.021431886
102	0xbe0bb7a9	-0.1364428
103	0x3e3c5d67	0.18395005
104	0xbe495afb	-0.19663613
105	0x3db28549	0.087168284
106	0x3d629df4	0.055326417
107	0xbe1dd53e	-0.15413377
108	0xbe45b355	-0.19306691
109	0x3b033e99	0.0020026325
110	0xbd407dd9	-0.046995018
111	0xbcac60b9	-0.021042215
112	0x3d460f91	0.04835469
113	0x3c95ed5e	0.018301662
114	0xbd8a7f6e	-0.067625865
115	0xbd5e91f0	-0.054338396
116	0x3de30640	0.110851765
117	0xbc0c7ef7	-0.008575193
118	0xbe44a59e	-0.19203803
119	0xbe188ef8	-0.14898288
120	0xbd06d792	-0.032920428
121	0x3e0044e1	0.12526275
122	0x3d0f82b0	0.035036743
123	0xbe4fb93b	-0.20285504
124	0xbc7bed25	-0.015376364
125	0x3daf8f5a	0.08572264
126	0x3d36fad3	0.0446728
127	0x3e0f60fc	0.1400184
128	0xbd18fe18	-0.037351698
129	0x3dceacf1	0.1009158
130	0xbd1006b7	-0.035162654
131	0x3d52ade8	0.05143538
132	0xbbb614d8	-0.005556684
133	0xbe497cef	-0.19676565
134	0x3cc7b792	0.024379525
135	0xbd9715e7	-0.073772244
136	0xbe1fbcc7	-0.15599357
137	0xbcef32d4	-0.029199041
138	0x3b4bcc6a	0.0031097182
139	0x3c2ca9e3	0.010538551
140	0x3d5aef16	0.053450666
141	0x3db084ef	0.08619105
142	0xbe50ac29	-0.20378174
143	0xbd81648e	-0.063180074
144	0x3da01746	0.07816939
145	0x3dedb719	0.11607189
146	0xbe52fbbc	-0.20603842
147	0xbdd19e49	-0.102352686
148	0xbdbfed96	-0.09371488
149	0xbde0cb19	-0.10976238
150	0x3cb50548	0.022097245
151	0x3db8b18e	0.09018241
152	0x3da35c07	0.07976537
153	0xbe56fc6e	-0.20994732
154	0xbdec78ba	-0.11546464
155	0x3ce2eb76	0.027700167
156	0xbe044fa0	-0.12921
157	0x3c8966f8	0.016772732
158	0x3e01ff65	0.12695082
159	0xbe71e899	-0.23623885
160	0x3ba8086b	0.0051279566
161	0x3e14182e	0.14462349
162	0xbd5193c5	-0.051166315
163	0x3da6b556	0.08140056
164	0xbe6c8d0f	-0.23100685
165	0x3dc8df16	0.09808175
166	0xbe475828	-0.19467223
167	0xbd5a202c	-0.053253338
168	0x3dfdfbbf	0.124015324
169	0xbe387b68	-0.18015826
170	0x3d2e73aa	0.042590775
171	0x3e11ce2c	0.14238805
172	0xbe003ec0	-0.12523937
173	0xbdea14e1	-0.114297636
174	0x3da8a46a	0.082344845
175	0x3e07dd5d	0.13268037
176	0x3dbeeab0	0.09322107
177	0xbc657730	-0.014005467
178	0x3c9bb235	0.019005874
179	0xbe4e607e	-0.20153996
180	0x3d97d51d	0.07413695
181	0x3d625eb7	0.05526611
182	0x3dbba81c	0.09162924
183	0x3e03339f	0.1281266
184	0x3cb5d4d7	0.022196217
185	0xbdb77adc	-0.089589804
186	0x3d820d70	0.06350219
187	0x3ceb54c3	0.028726941
188	0xbd9a962a	-0.07548173
189	0xbd03cd7c	-0.032178387
190	0xbe1a7bc8	-0.15086281
191	0x3d8d6f5b	0.06906005
192	0xbdd94205	-0.10608295
193	0xbe051b1f	-0.12998627
194	0xbd1e8832	-0.038704105
195	0xbe4abf2d	-0.1979949
196	0xbe493fa6	-0.19653186
197	0x3d136019	0.035980318
198	0xbcd4d24b	-0.025979182
199	0x3e02da6d	0.12778635
200	0x3dcaecd9	0.09908456
201	0xbd7be958	-0.06150183
202	0x3a6617a1	0.00087773247
203	0xbcd35cde	-0.025801118
204	0xbc00c6e5	-0.00785992
205	0xbe2105ac	-0.1572482
206	0xbc016115	-0.007896681
207	0x3d4b7b7c	0.04967831
208	0x3d11e7ae	0.035621338
209	0x3db0f6e0	0.08640838
210	0x3ccf7391	0.025323661
211	0x3dbae422	0.09125544
212	0xbda43f90	-0.08019936
213	0x3d9e4be2	0.07729317
214	0xbb1b064a	-0.0023654872
215	0x3d2ca4eb	0.042149466
216	0x3e17b530	0.14815211
217	0xbe385a57	-0.18003212
218	0x3e22ba41	0.15891363
219	0x3de8fdee	0.11376558
220	0x3db00fbd	0.08596752
221	0x3dec61e2	0.11542107
222	0x3cacc845	0.02109159
223	0x3e2a3629	0.16622223
224	0x3e6828c0	0.22671795
225	0x3d725b1d	0.059168924
226	0xbdd1e2c7	-0.102483325
227	0xbdde103d	-0.10842941
228	0x3e8088b4	0.25104296
229	0xbcc6296f	-0.024189679
230	0x3d97127a	0.07376571
231	0x3daafac3	0.0834861
232	0x3e11285c	0.14175552
233	0x3dc0a4f1	0.0940646
234	0xbdff6059	-0.12469549
235	0xbe330b39	-0.1748475
236	0xbd830384	-0.06397155
237	0x3cfc683b	0.03081142
238	0xbdb4435e	-0.08801912
239	0xbd98c102	-0.07458688
240	0xbdc621d5	-0.09674422
241	0xbd20f624	-0.039297238
242	0x3d9a4e7d	0.07534502
243	0xbd09e684	-0.033667102
244	0xbe1ae272	-0.15125445
245	0x3cdf5f5a	0.027267147
246	0x3cb14457	0.021639032
247	0xbe5f98ba	-0.21835604
248	0xbced9607	-0.029002203
249	0x3d4de129	0.050263558
250	0x3ac054d5	0.0014673719
251	0xbce2dec4	-0.027694114
252	0x3e0f5f6d	0.14001246
253	0x3e0cb1e0	0.13739729
254	0x3dcae300	0.09906578
255	0xbdadee40	-0.08492708

fc2.bias f4 [10]
0	0x3d3ba3a4	0.045810357
1	0xbe011c19	-0.12608375
2	0x3df19de7	0.117976956
3	0xbd760582	-0.060063846
4	0xbd24ca17	-0.04023179
5	0x3d463031	0.048385803
6	0xbce2edc5	-0.027701268
7	0xbda08b41	-0.078390606
8	0x3d82adf8	0.06380838
9	0xbd0f491c	-0.034981832

exp_avg f4 [100, 256]
0	0xba03cfc7	-0.00050282147
1	0xb9f7ded9	-0.00047277546
2	0xb9da5e30	-0.00041650375
3	0xb9c97792	-0.00038426794
4	0xb9c9fd5d	-0.00038526478
5	0xb9be8eb5	-0.0003634595
6	0xb9bd16de	-0.00036065927
7	0xb9c73f59	-0.00038003435
8	0xb9a74c38	-0.0003190951
9	0xb961ba56	-0.00021527088
10	0xb94b96b0	-0.00019415724
11	0xb9b08ed4	-0.0003367575
12	0xb9d60031	-0.00040817403
13	0xb9d2323f	-0.00040091758
14	0xb9e31525	-0.00043312568
15	0xb9ec9104	-0.00045121473
16	0xba070d42	-0.0005151817
17	0xb9f0af5b	-0.00045907017
18	0xb9b82ba8	-0.0003512774
19	0xb99f3e3d	-0.00030373214
20	0xb99b8235	-0.00029660916
21	0xb96ef361	-0.00022788114
22	0xb94fbf35	-0.00019812289
23	0xb9823f09	-0.00024842497
24	0xb98849a2	-0.00025994802
25	0xb910e7fc	-0.00013819331
26	0xb8c69758	-9.469566e-05
27	0xb9a96502	-0.0003230945
28	0xb9ef032f	-0.00045588004
29	0xb9e62ac9	-0.00043900896
30	0xb9eb699b	-0.00044901375
31	0xb9f035e0	-0.00045816507
32	0xba027afb	-0.0004977432
33	0xb9da745f	-0.00041666903
34	0xb982b657	-0.00024931386
35	0xb94c896c	-0.0001950615
36	0xb95935bc	-0.0002071475
37	0xb90f8caa	-0.00013689944
38	0xb91cd2b8	-0.00014955818
39	0xb98d3ff9	-0.0002694128
40	0xb98546f3	-0.00025420598
41	0xb83f51fe	-4.561431e-05
42	0x37a6977a	1.9859279e-05
43	0xb9857c63	-0.00025460412
44	0xb9fc2040	-0.00048089214
45	0xba05ab3d	-0.0005099064
46	0xba031dfe	-0.00050017226
47	0xba00b25c	-0.000490939
48	0xb9ebff36	-0.0004501284
49	0xb9b26b2a	-0.0003403065
50	0xb918cd8b	-0.0001457242
51	0xb8c0f93b	-9.201696e-05
52	0xb90d0dd8	-0.00013451965
53	0xb91a23f7	-0.00014699982
54	0xb9921d8e	-0.0002786931
55	0xb9ef1b8d	-0.0004560616
56	0xb9b65e67	-0.0003478408
57	0xb7968852	-1.7944873e-05
58	0x3914cc80	0.00014190562
59	0xb8ff7c10	-0.00012182456
60	0xb9dbf526	-0.00041953585
61	0xba04023c	-0.00050357333
62	0xba03b420	-0.0005024094
63	0xba059eba	-0.00050971995
64	0xb9dc3f4c	-0.0004200883
65	0xb9908405	-0.00027564183
66	0xb8960544	-7.153538e-05
67	0xb8b1bc3a	-8.4750776e-05
68	0xb970e3cd	-0.00022973046
69	0xb99ccacb	-0.0002990573
70	0xb9ccb429	-0.00039044142
71	0xba00c940	-0.0004912801
72	0xb9d7d05d	-0.00041163238
73	0xb8be6dc7	-9.0803536e-05
74	0x391d1ee0	0.00014984189
75	0xb71b07ff	-9.240582e-06
76	0xb97eeca3	-0.00024311482
77	0xb9bad5ad	-0.00035635885
78	0xb9d6af7c	-0.00040948007
79	0xb9f96d23	-0.00047574294
80	0xb9d27723	-0.00040143085
81	0xb95ffb2a	-0.00021360503
82	0x3755c39e	1.2741335e-05
83	0xb8c710b1	-9.4921685e-05
84	0xb9a413b6	-0.00031295203
85	0xb990ae60	-0.0002759574
86	0xb97d64ae	-0.00024165466
87	0xb9babf4b	-0.0003561921
88	0xb9ce014b	-0.00039292345
89	0xb8fabe48	-0.000119563716
90	0x3902020d	0.0001239853
91	0x388f70fd	6.839817e-05
92	0xb8626cfb	-5.3984095e-05
93	0xb93e9bc2	-0.00018177836
94	0xb9a84cc3	-0.0003210065
95	0xb9e5c4de	-0.0004382496
96	0xb9c37e09	-0.00037287202
97	0xb925ab3c	-0.00015799416
98	0x38cef411	9.8683064e-05
99	0x3859121d	5.17537e-05
100	0xb923b6d1	-0.00015612996
101	0xb8b6c487	-8.715042e-05
102	0xb837c3e8	-4.3813052e-05
103	0xb949a7ef	-0.00019231414
104	0xb9237049	-0.00015586721
105	0x38fa47f1	0.00011934329
106	0x393ec215	0.00018192113
107	0x3865b027	5.476191e-05
108	0xb800670e	-3.0613555e-05
109	0xb9201fe9	-0.00015270677
110	0xb9af1012	-0.00033390574
111	0xb9ed38d8	-0.00045246514
112	0xb9c16f46	-0.00036894734
113	0xb9228902	-0.00015500563
114	0x3904cf3c	0.00012665702
115	0x393ee575	0.00018205291
116	0x37793acc	1.4855246e-05
117	0x3744426f	1.1697978e-05
118	0x37f6f7bc	2.9440846e-05
119	0xb880270a	-6.110787e-05
120	0x3908f1a0	0.00013059983
121	0x39d41263	0.0004044949
122	0x398ea968	0.00027210568
123	0x349aa802	2.8806977e-07
124	0xb8f2dfc4	-0.00011581139
125	0xb95aa787	-0.00020852509
126	0xb9caaa5c	-0.0003865537
127	0xba011799	-0.0004924476
128	0xb9dafc1e	-0.00041768042
129	0xb98221d5	-0.0002482074
130	0x3824b42b	3.926844e-05
131	0x38e70438	0.00011015724
132	0xb8127505	-3.4918095e-05
133	0xb878e049	-5.933669e-05
134	0xb85cfdae	-5.2688345e-05
135	0xb8a47fba	-7.84392e-05
136	0x391ce33d	0.00014961972
137	0x39bc25fd	0.00035886458
138	0x39495404	0.00019200152
139	0xb893d26f	-7.0487025e-05
140	0xb94f3b12	-0.00019763064
141	0xb99306f4	-0.00028043205
142	0xb9d6cceb	-0.00040969937
143	0xba02cefd	-0.000498995
144	0xb9f3fcd9	-0.00046536958
145	0xb9c232ab	-0.00037040314
146	0xb91648fb	-0.00014332302
147	0xb8da0531	-0.00010396017
148	0xb96964c6	-0.00022258153
149	0xb93dd694	-0.00018104381
150	0xb912e1c7	-0.00014007754
151	0xb8f52aeb	-0.000116905045
152	0x38352690	4.3189677e-05
153	0x39133dac	0.00014041987
154	0x386b856e	5.6152632e-05
155	0xb8aee91f	-8.340389e-05
156	0xb9631eaf	-0.00021659838
157	0xb9ac76ac	-0.00032894814
158	0xb9c33384	-0.0003723168
159	0xb9de2e64	-0.00042377703
160	0xb9df6ecf	-0.00042616433
161	0xb9c5b2a3	-0.00037707863
162	0xb98baf73	-0.00026642866
163	0xb9a2c790	-0.00031047734
164	0xb9d27577	-0.0004014184
165	0xb9949618	-0.00028340588
166	0xb9293467	-0.00016136617
167	0xb8a2d4af	-7.7643774e-05
168	0x382d25fe	4.1281797e-05
169	0x38c7aa83	9.52082e-05
170	0x38a18ea2	7.703646e-05
171	0x37872285	1.6109328e-05
172	0xb90a0b59	-0.00013164933
173	0xb98fec92	-0.00027451344
174	0xb98f6b22	-0.00027354906
175	0xb9ab708b	-0.00032699513
176	0xb9a68dad	-0.00031767544
177	0xb96da38b	-0.00022663006
178	0xb95cf8b4	-0.00021073484
179	0xb9ac6776	-0.0003288348
180	0xb9f63c5f	-0.00046965756
181	0xb9cf18b4	-0.00039500522
182	0xb96bf938	-0.00022504188
183	0xb8ead9f9	-0.0001119859
184	0x35702d4d	8.947289e-07
185	0x38b18c12	8.466108e-05
186	0x38e6f4b7	0.00011012836
187	0x3894b5f1	7.091079e-05
188	0xb8baf9bc	-8.915688e-05
189	0xb95da1ac	-0.0002113643
190	0xb9577edf	-0.00020551261
191	0xb99c97d8	-0.0002986777
192	0xb99edf56	-0.00030302507
193	0xb93394db	-0.00017126223
194	0xb912145a	-0.00013931227
195	0xb95fa19c	-0.00021327141
196	0xb9bbed94	-0.0003584443
197	0xb9c6082b	-0.00037771589
198	0xb9816a26	-0.00024683884
199	0xb937e232	-0.00017536504
200	0xb8dd6a9a	-0.00010557957
201	0x380ffbb0	3.432826e-05
202	0x38f37dad	0.00011610552
203	0x3868ad1e	5.547434e-05
204	0xb90e0966	-0.00013545676
205	0xb96f73dd	-0.00022835979
206	0xb98127f7	-0.00024634573
207	0xb9b568e7	-0.0003460117
208	0xb9b6f5ae	-0.0003489679
209	0xb95fc45f	-0.00021340091
210	0xb91ad61b	-0.00014766345
211	0xb93fea03	-0.00018302356
212	0xb98192bc	-0.00024714123
213	0xb986500d	-0.00025618114
214	0xb93e3881	-0.00018140861
215	0xb92fa3e9	-0.00016750362
216	0xb92c0625	-0.00016405487
217	0xb874174c	-5.819583e-05
218	0xb69aa2a4	-4.6084915e-06
219	0xb8bb388f	-8.92739e-05
220	0xb98cca4e	-0.0002685361
221	0xb9a70f5e	-0.00031864172
222	0xb9bb7399	-0.00035753546
223	0xb9da212b	-0.00041604912
224	0xb9d633b1	-0.00040855774
225	0xb9a44cd6	-0.00031337765
226	0xb9860f4a	-0.00025569863
227	0xb99a153b	-0.00029388987
228	0xb9a9652c	-0.0003230957
229	0xb99d5375	-0.00030007554
230	0xb97fe0f7	-0.00024402501
231	0xb963c3a3	-0.00021721287
232	0xb949eb92	-0.0001925661
233	0xb9320f90	-0.000169812
234	0xb9697a8b	-0.00022266262
235	0xb9b587a2	-0.00034624065
236	0xb9f56aff	-0.0004680976
237	0xb9f12029	-0.00045991063
238	0xb9f4d799	-0.0004669994
239	0xb9f4486e	-0.0004659327
240	0xb9e91bfe	-0.0004446208
241	0xb9d6500c	-0.000408769
242	0xb9c3ef68	-0.0003737167
243	0xb9cde518	-0.00039271335
244	0xb9d8a9c5	-0.0004132522
245	0xb9ceb082	-0.0003942289
246	0xb9bb1f1e	-0.00035690604
247	0xb9a26e96	-0.0003098144
248	0xb97c79c1	-0.0002407795
249	0xb980d36a	-0.00024571578
250	0xb9a6ea29	-0.0003183645
251	0xb9e164d1	-0.00042990458
252	0xba06d4a4	-0.000514338
253	0xba02b703	-0.00049863773
254	0xb9fd2138	-0.0004828067
255	0xb9f47020	-0.00046622846

exp_avg_sq f4 [100, 256]
0	0x3643f067	2.9197197e-06
1	0x36408bfe	2.8691716e-06
2	0x3637c3fe	2.7383207e-06
3	0x36259881	2.4675685e-06
4	0x360b7774	2.0782145e-06
5	0x35d653de	1.5968651e-06
6	0x35940cc3	1.1030573e-06
7	0x35574073	8.018753e-07
8	0x354e08c4	7.6753736e-07
9	0x35898c34	1.02481e-06
10	0x35ce81cc	1.5385972e-06
11	0x360a6d9d	2.0627406e-06
12	0x3620211c	2.386113e-06
13	0x362e699e	2.5989498e-06
14	0x363b4d14	2.7910037e-06
15	0x3642b64f	2.901437e-06
16	0x36413300	2.8788927e-06
17	0x36391b7f	2.7583153e-06
18	0x36280fbc	2.504311e-06
19	0x360d3e42	2.1046876e-06
20	0x35e2f2b9	1.6908954e-06
21	0x35b45754	1.3436461e-06
22	0x35873362	1.0073238e-06
23	0x355fc2fc	8.3357713e-07
24	0x354cbe9a	7.6273284e-07
25	0x356d0cd1	8.830803e-07
26	0x35afe867	1.3106154e-06
27	0x35f88b92	1.851806e-06
28	0x3613daef	2.2032143e-06
29	0x36234ab9	2.4332387e-06
30	0x363512a0	2.6981943e-06
31	0x3640c65e	2.8725694e-06
32	0x364024e4	2.8631703e-06
33	0x3632583f	2.6575433e-06
34	0x361a9494	2.3034272e-06
35	0x36057905	1.9888987e-06
36	0x35d9e146	1.6233323e-06
37	0x35a2f3af	1.2140862e-06
38	0x3573837f	9.0715906e-07
39	0x356908fa	8.6812327e-07
40	0x356569a5	8.546288e-07
41	0x3587b343	1.0110456e-06
42	0x35b56f90	1.351802e-06
43	0x35eba6a9	1.7557369e-06
44	0x360b509b	2.0759533e-06
45	0x361e8ed2	2.3626967e-06
46	0x3631d851	2.6500968e-06
47	0x363e8893	2.8391703e-06
48	0x363d2849	2.8186644e-06
49	0x362a8146	2.540722e-06
50	0x3611fe2b	2.175463e-06
51	0x36004c51	1.9117908e-06
52	0x35ca387a	1.506661e-06
53	0x35974451	1.1270259e-06
54	0x35820c42	9.689322e-07
55	0x357bbfbb	9.378379e-07
56	0x358072c9	9.57015e-07
57	0x35a5cf12	1.2353723e-06
58	0x35cfa246	1.546993e-06
59	0x35e46ec1	1.7019557e-06
60	0x36033a55	1.9554475e-06
61	0x361c32e0	2.3275425e-06
62	0x362fc01f	2.6188861e-06
63	0x363c1b1e	2.8029967e-06
64	0x36382b2a	2.7443261e-06
65	0x362628de	2.4759715e-06
66	0x360e1315	2.1170756e-06
67	0x35ea4eec	1.7457328e-06
68	0x35b205f4	1.3263766e-06
69	0x35924693	1.0898387e-06
70	0x35894207	1.0226512e-06
71	0x35814571	9.631459e-07
72	0x358ff162	1.0724582e-06
73	0x35b60e7d	1.3564273e-06
74	0x35d3dcec	1.5785022e-06
75	0x35d3cc6a	1.5780217e-06
76	0x35f33414	1.8120068e-06
77	0x36165f78	2.2407312e-06
78	0x362bb3ef	2.558572e-06
79	0x363a1dac	2.773343e-06
80	0x3634ef16	2.6961256e-06
81	0x36250e71	2.4595322e-06
82	0x360d4a9d	2.1054068e-06
83	0x35dba31b	1.6364241e-06
84	0x35a87e2f	1.25537e-06
85	0x359190ba	1.0845463e-06
86	0x358263b8	9.714777e-07
87	0x358f77ff	1.0689254e-06
88	0x35be3ab4	1.4173188e-06
89	0x35d819ff	1.610082e-06
90	0x35d09584	1.5540722e-06
91	0x35c962c0	1.5004407e-06
92	0x35effd62	1.7880632e-06
93	0x3613abc7	2.2004695e-06
94	0x3628893e	2.5113836e-06
95	0x363891b1	2.750294e-06
96	0x3633a6a2	2.6770072e-06
97	0x3621af96	2.4093074e-06
98	0x360883c7	2.0342284e-06
99	0x35d46882	1.5825647e-06
100	0x35abae36	1.2791195e-06
101	0x3598ee22	1.1394188e-06
102	0x35937cdb	1.0988691e-06
103	0x35bdd9b6	1.414496e-06
104	0x35fa5d1c	1.865355e-06
105	0x35f487cc	1.8218939e-06
106	0x35bb9195	1.3974956e-06
107	0x35c34ab5	1.4550375e-06
108	0x35fff4e5	1.9070254e-06
109	0x361751ec	2.2548438e-06
110	0x36271440	2.4896726e-06
111	0x3635d2d4	2.709382e-06
112	0x36321603	2.653688e-06
113	0x361cc4a1	2.3360265e-06
114	0x36036bc1	1.9583242e-06
115	0x35d43861	1.5811639e-06
116	0x35b8d01b	1.3769635e-06
117	0x35abae8b	1.2791292e-06
118	0x35b0b927	1.3166908e-06
119	0x35e7bfe2	1.7266686e-06
120	0x3605d3ae	1.9941758e-06
121	0x35d5cade	1.5928779e-06
122	0x3591a452	1.0851165e-06
123	0x35b87ea7	1.3745929e-06
124	0x3603338d	1.9550528e-06
125	0x36186545	2.2708712e-06
126	0x36259cc1	2.4678159e-06
127	0x3632d671	2.6648888e-06
128	0x362e4f84	2.5974305e-06
129	0x361687ef	2.2430866e-06
130	0x36054d00	1.9863364e-06
131	0x35ec674b	1.7613432e-06
132	0x35d1777d	1.5606489e-06
133	0x35b3661e	1.3366259e-06
134	0x35aef243	1.3034518e-06
135	0x35d5bacf	1.5924105e-06
136	0x35d11016	1.5576395e-06
137	0x35930535	1.0953869e-06
138	0x356b0417	8.7550274e-07
139	0x35b1e892	1.3255215e-06
140	0x35ff45bd	1.9019277e-06
141	0x3617da1a	2.2627705e-06
142	0x3624c368	2.4551646e-06
143	0x36321cac	2.6540756e-06
144	0x36272704	2.490765e-06
145	0x360f2817	2.1331996e-06
146	0x360a246f	2.058481e-06
147	0x360a5b39	2.06167e-06
148	0x35e12692	1.6775032e-06
149	0x35989031	1.1366848e-06
150	0x3582f826	9.757975e-07
151	0x358b3442	1.0371516e-06
152	0x357d9ff6	9.448262e-07
153	0x355290cd	7.844181e-07
154	0x35804756	9.557505e-07
155	0x35b8f1af	1.3779407e-06
156	0x35f19182	1.7998248e-06
157	0x3613d389	2.2027837e-06
158	0x362319c3	2.4303888e-06
159	0x363259a4	2.6576245e-06
160	0x36212711	2.401361e-06
161	0x360b3083	2.0740852e-06
162	0x360b7af9	2.0784194e-06
163	0x36109a03	2.1547319e-06
164	0x35dfba06	1.6668935e-06
165	0x35908869	1.0768537e-06
166	0x356792f1	8.6268034e-07
167	0x3554ee2e	7.932275e-07
168	0x354429c4	7.3076467e-07
169	0x3551ecbc	7.820306e-07
170	0x359e91ae	1.1814316e-06
171	0x35caa771	1.5098905e-06
172	0x35ef690c	1.783746e-06
173	0x360b865e	2.0790826e-06
174	0x361cd791	2.3371288e-06
175	0x362ff595	2.621998e-06
176	0x36242789	2.4460917e-06
177	0x36115c27	2.1660323e-06
178	0x36109bf1	2.1548442e-06
179	0x360c46a9	2.0902755e-06
180	0x35dd2227	1.6475723e-06
181	0x35a27fd8	1.2107148e-06
182	0x358034ab	9.552072e-07
183	0x35765271	9.176211e-07
184	0x3577c5d6	9.230256e-07
185	0x3572baff	9.042414e-07
186	0x35a7d90f	1.2505642e-06
187	0x35d9e5c9	1.6234636e-06
188	0x35fa28ca	1.8638323e-06
189	0x360484fe	1.9746944e-06
190	0x3614fe57	2.2201764e-06
191	0x362d9b5e	2.5869444e-06
192	0x362cbc33	2.5739544e-06
193	0x361c1538	2.3258162e-06
194	0x3617df8c	2.2630875e-06
195	0x3607ada8	2.0217649e-06
196	0x35d66796	1.597439e-06
197	0x35a20e1f	1.207405e-06
198	0x35648e8a	8.514404e-07
199	0x3544737a	7.318373e-07
200	0x354f6cc1	7.7271767e-07
201	0x35684422	8.652588e-07
202	0x35a40aa7	1.2222052e-06
203	0x35dcc9bf	1.6449993e-06
204	0x35f3ddb9	1.8169441e-06
205	0x35ff3cf1	1.9016717e-06
206	0x3613f030	2.2044514e-06
207	0x362ec79c	2.6044208e-06
208	0x36340e3a	2.683037e-06
209	0x362242b5	2.417871e-06
210	0x3612daba	2.188301e-06
211	0x3604c465	1.978385e-06
212	0x35f2033e	1.8031349e-06
213	0x35c7001d	1.4826688e-06
214	0x358fb15f	1.0705952e-06
215	0x35484adf	7.461476e-07
216	0x353201d3	6.631282e-07
217	0x3561ae6a	8.407284e-07
218	0x35a0511d	1.1944536e-06
219	0x35cacb42	1.5109329e-06
220	0x35e6e2d7	1.7202354e-06
221	0x36065dfb	2.002226e-06
222	0x361f7b73	2.3764703e-06
223	0x3634bd64	2.693233e-06
224	0x363a79f8	2.7787155e-06
225	0x362a0695	2.5335805e-06
226	0x3612533d	2.1804146e-06
227	0x35f57160	1.8286919e-06
228	0x35e02179	1.6699042e-06
229	0x35d0755f	1.5531367e-06
230	0x35ba2344	1.3868344e-06
231	0x35991aef	1.1407227e-06
232	0x3579e13d	9.3087493e-07
233	0x357bde85	9.3828595e-07
234	0x35a27924	1.2105197e-06
235	0x35d76986	1.604946e-06
236	0x3606c261	2.00807e-06
237	0x361c968d	2.3333444e-06
238	0x362f7959	2.6147666e-06
239	0x363ca9ff	2.8113134e-06
240	0x3640f492	2.8752588e-06
241	0x3637ead9	2.7405824e-06
242	0x36266547	2.4794879e-06
243	0x360a636b	2.0621471e-06
244	0x35d7eb95	1.6087312e-06
245	0x35a3a418	1.2192204e-06
246	0x35811eb9	9.62019e-07
247	0x3564bde6	8.521296e-07
248	0x35592e56	8.0906227e-07
249	0x35843313	9.849631e-07
250	0x35ca4c69	1.5072411e-06
251	0x360a6864	2.0624366e-06
252	0x3622b9f4	2.424812e-06
253	0x36305aea	2.6278963e-06
254	0x363b36b3	2.789701e-06
255	0x36421f01	2.89263e-06

exp_avg f4 [100]
0	0x39ed7767	0.00045293124
1	0xb99dd7b7	-0.00030106094
2	0xb499ebe9	-2.8670118e-07
3	0x3999d1cf	0.00029338754
4	0x3964ccd0	0.00021820073
5	0x38b60980	8.680206e-05
6	0xb9c51eae	-0.00037597626
7	0xb9159410	-0.00014264905
8	0xb98f90e4	-0.00027383037
9	0x390c57bd	0.00013384125
10	0xba2e7041	-0.00066543004
11	0x38aaa80e	8.137534e-05
12	0xba0fa9b9	-0.0005480308
13	0x399bc81b	0.00029712994
14	0x37d3b1f5	2.5236028e-05
15	0xb8d0e570	-9.960949e-05
16	0x38c77a9a	9.511896e-05
17	0xba2d3b7f	-0.0006608292
18	0x3a1cda57	0.0005983463
19	0x39f57a67	0.00046821238
20	0x0f0ffc89	7.099081e-30
21	0x39d44afa	0.00040491653
22	0x3a54223e	0.00080922607
23	0x38e40aec	0.000108739216
24	0x3aac1a31	0.0013130364
25	0x39e870b3	0.00044334456
26	0xb906ca63	-0.00012854631
27	0x3a2e2d00	0.0006644279
28	0x3a23dcb0	0.00062508415
29	0xb9a409c1	-0.00031287785
30	0xba8e7331	-0.001086807
31	0x3a3e3189	0.0007255306
32	0x39a41d75	0.00031302465
33	0xba148b08	-0.0005666469
34	0xb8c60f83	-9.444265e-05
35	0xba2b941e	-0.00065452035
36	0xb9f508b5	-0.0004673653
37	0xba022799	-0.0004965007
38	0xba8acace	-0.0010589005
39	0xba05e2f4	-0.0005107366
40	0xba50bf84	-0.00079631084
41	0x329bbe36	1.8130873e-08
42	0x39df12f4	0.00042547996
43	0xb8824f86	-6.2136955e-05
44	0x3a4f1733	0.00078998803
45	0xba3d4c04	-0.0007221105
46	0xb9ae7223	-0.00033272905
47	0xba90f77f	-0.0011060088
48	0x3a0c5906	0.00053538417
49	0x39384b20	0.00017575594
50	0x39686f65	0.00022166742
51	0xb9da3d6b	-0.0004162596
52	0x399fe79f	0.00030499414
53	0x3907ce5d	0.0001295148
54	0x3a0c782a	0.0005358482
55	0x0ecf00a0	5.103004e-30
56	0xb9f4e980	-0.00046713278
57	0x3a914ccc	0.0011085509
58	0x39ce1c74	0.0003931258
59	0xb9b101cd	-0.00033761412
60	0xb9d8a3bf	-0.0004132073
61	0x38a5e7d5	7.910995e-05
62	0xb99d88bb	-0.00030047246
63	0xb9fba963	-0.00048000654
64	0xb915a9b6	-0.0001427297
65	0x399532bf	0.00028457303
66	0x39f63280	0.00046958402
67	0xb8e49007	-0.000108987144
68	0x3aac8710	0.001316281
69	0xb99243a1	-0.00027897678
70	0xb96d541c	-0.00022633414
71	0x3a8390f8	0.0010037711
72	0xb863ac1f	-5.4281318e-05
73	0xb6ddb86d	-6.6077832e-06
74	0xb94f14db	-0.00019748828
75	0x38c8f835	9.582975e-05
76	0xb9febdc1	-0.00048588033
77	0xb2abb165	-1.998769e-08
78	0xb9ee30f5	-0.00045431373
79	0xba21686d	-0.0006157223
80	0xb9f0da28	-0.00045938906
81	0x3974dc22	0.00023351659
82	0x37bf291c	2.2788117e-05
83	0x3a9be7db	0.001189466
84	0x3a898ad7	0.0010493648
85	0xb92cd0c6	-0.00016480972
86	0x3a84ba62	0.0010126347
87	0xba3ae564	-0.0007129519
88	0xba8256dd	-0.00099441
89	0xb95d8704	-0.000211265
90	0x3ab70a0d	0.0013964787
91	0x399d1e75	0.00029968066
92	0x3989cfa0	0.0002628537
93	0x3a737ab6	0.0009288
94	0xba4fee77	-0.00079319574
95	0x39c28cbd	0.00037107422
96	0xb908deb0	-0.00013052928
97	0x32f1b2ee	2.813746e-08
98	0x3a071b6d	0.0005153928
99	0xb9f3405e	-0.0004639653

exp_avg_sq f4 [100]
0	0x3645447a	2.9395146e-06
1	0x370044e5	7.645435e-06
2	0x36d0bc7c	6.2208255e-06
3	0x371a691f	9.203591e-06
4	0x374ded3b	1.2274187e-05
5	0x376125f8	1.3419885e-05
6	0x36ff61dc	7.6109845e-06
7	0x37a14e76	1.9229232e-05
8	0x37976db4	1.8051687e-05
9	0x3731a416	1.0588226e-05
10	0x375f7f8b	1.3321532e-05
11	0x36e0d5a8	6.700593e-06
12	0x375b7fbf	1.308316e-05
13	0x367942a7	3.7142688e-06
14	0x3783f32d	1.5729654e-05
15	0x372a4694	1.0149222e-05
16	0x36aac310	5.089103e-06
17	0x36c8aadf	5.9803565e-06
18	0x374cb23a	1.2200844e-05
19	0x3702df78	7.800634e-06
20	0x30c71cdc	1.4487358e-09
21	0x371c88d0	9.330179e-06
22	0x371799ea	9.036137e-06
23	0x378efd43	1.7045653e-05
24	0x36fd4fe3	7.5492876e-06
25	0x3738da26	1.1018046e-05
26	0x36f381cf	7.257076e-06
27	0x374cd860	1.2209726e-05
28	0x36d4fb3b	6.3473394e-06
29	0x36b411c7	5.3664876e-06
30	0x373d907d	1.1298919e-05
31	0x3731ed6e	1.0605303e-05
32	0x373ed3d2	1.1374201e-05
33	0x373bd10e	1.1194743e-05
34	0x375e9337	1.3266507e-05
35	0x37095f1a	8.187979e-06
36	0x37bf87cf	2.2832215e-05
37	0x36ee318c	7.0987207e-06
38	0x3771338b	1.437672e-05
39	0x374e3245	1.2290261e-05
40	0x375d7fac	1.3202352e-05
41	0x3518921d	5.6837035e-07
42	0x37ac92c9	2.057235e-05
43	0x34000a0f	1.1924588e-07
44	0x3718b267	9.1014435e-06
45	0x36e8e1f2	6.9404423e-06
46	0x367982b4	3.717997e-06
47	0x37755899	1.4623766e-05
48	0x36f095ef	7.170012e-06
49	0x3682c08c	3.8967173e-06
50	0x372932b4	1.008499e-05
51	0x375b017e	1.3053765e-05
52	0x3763a952	1.3569677e-05
53	0x37257fe6	9.864545e-06
54	0x37274900	9.970972e-06
55	0x314ebbc8	3.0083687e-09
56	0x375d510b	1.3191496e-05
57	0x370a53dd	8.244967e-06
58	0x372150f2	9.615194e-06
59	0x368e590d	4.2422967e-06
60	0x36c82e00	5.9658196e-06
61	0x3698c081	4.5523634e-06
62	0x37021f67	7.755915e-06
63	0x36bc4d8c	5.6118643e-06
64	0x37007e49	7.658798e-06
65	0x37d90481	2.5870513e-05
66	0x3722930b	9.690189e-06
67	0x350b6209	5.1924195e-07
68	0x372e02a1	1.037182e-05
69	0x3710f7e2	8.640784e-06
70	0x35ce2cf1	1.5361276e-06
71	0x36f0936e	7.1697204e-06
72	0x378cde17	1.679272e-05
73	0x3779973f	1.4876771e-05
74	0x37897ff3	1.6391254e-05
75	0x37159ae2	8.9171535e-06
76	0x373be6a2	1.1199767e-05
77	0x33a3f696	7.635133e-08
78	0x37309e37	1.0527255e-05
79	0x36e3d905	6.7903916e-06
80	0x371014a0	8.587871e-06
81	0x37432335	1.1631103e-05
82	0x36faf838	7.479477e-06
83	0x371c85bd	9.329463e-06
84	0x36e623ff	6.8587246e-06
85	0x370fb98b	8.566664e-06
86	0x36a6ab37	4.9671175e-06
87	0x375470ad	1.2662419e-05
88	0x36cb4fef	6.059177e-06
89	0x37087789	8.134063e-06
90	0x3774c11d	1.4588496e-05
91	0x371a3527	9.191491e-06
92	0x36f97bf9	7.4352106e-06
93	0x36d99fa6	6.4856895e-06
94	0x36ce6764	6.1513147e-06
95	0x374330ab	1.1634237e-05
96	0x3762e4bd	1.3523907e-05
97	0x32175e03	8.810733e-09
98	0x371bdd9e	9.290319e-06
99	0x366b8521	3.509522e-06

exp_avg f4 [10, 100]
0	0xbba751a9	-0.00510617
1	0x3a3d1ba8	0.0007213899
2	0xbb120cd3	-0.0022285476
3	0x398c2b46	0.00026735122
4	0xbae9b320	-0.0017829873
5	0x3960fc46	0.00021456284
6	0x39c6b3b6	0.00037899398
7	0x3a07d7ca	0.00051819964
8	0xbad9ce5c	-0.0016617286
9	0xbb544508	-0.0032389779
10	0x3ac39c17	0.0014923838
11	0xba9d6f33	-0.0012011289
12	0xbb3e7a43	-0.0029064573
13	0xbad59b4e	-0.0016296895
14	0xbb9a6733	-0.0047120093
15	0xba94fdc2	-0.001136713
16	0x3a20b3b5	0.0006130294
17	0xba24331f	-0.0006263721
18	0xbb960efd	-0.0045794235
19	0xbb183001	-0.0023221972
20	0x0e49efbc	2.489059e-30
21	0x3aedef32	0.0018152951
22	0x39750bfa	0.00023369482
23	0xbb18b71b	-0.0023302499
24	0xba5aa218	-0.0008340194
25	0xbafdd715	-0.0019366468
26	0xbaba9739	-0.0014235742
27	0xba2ab214	-0.0006511521
28	0xbb8e539a	-0.004343462
29	0x3a704c0d	0.0009166606
30	0x37d8b5d1	2.5833871e-05
31	0xbb376fe0	-0.0027990267
32	0xba9a83ce	-0.0011788548
33	0xbaba1db3	-0.0014199525
34	0x391de06b	0.00015056289
35	0xb9388baf	-0.00017599644
36	0xbb8d64ba	-0.004314986
37	0xbb829571	-0.0039851
38	0x388c7c12	6.69883e-05
39	0x3a40e317	0.0007358058
40	0xbb1c484e	-0.0023846808
41	0x29dc98e7	9.796487e-14
42	0xbba939d9	-0.0051643667
43	0xb9f0d3f1	-0.00045934276
44	0xbab90388	-0.0014115432
45	0xbabb9d27	-0.0014313803
46	0xba01bce8	-0.00049491087
47	0xbb1a5f8b	-0.0023555483
48	0xbb0ace17	-0.0021179968
49	0xbbca0330	-0.0061649308
50	0xbb0c97fe	-0.00214529
51	0xba12d8b1	-0.00056017475
52	0xbbb80fef	-0.005617134
53	0xbb34ba6f	-0.0027576943
54	0xbb705c72	-0.0036676195
55	0x8efc53c9	-6.220348e-30
56	0x39bf69e6	0.0003650926
57	0xbb94d7d7	-0.0045423317
58	0xba93c64c	-0.0011274307
59	0xba9a16f6	-0.001175611
60	0xbac9a17f	-0.0015383213
61	0xbb2c1443	-0.0026257194
62	0xbb256944	-0.0025239745
63	0x3aee1b68	0.0018166127
64	0xbbcee1c8	-0.0063135363
65	0xbb64cf0d	-0.003491345
66	0xbbe41984	-0.0069610495
67	0xba15b67e	-0.00057110924
68	0xbbcab4b9	-0.0061860946
69	0xbbd59f33	-0.006519222
70	0xbace756e	-0.001575155
71	0xbaec7a99	-0.0018041908
72	0xbb197886	-0.0023417785
73	0xbba23af3	-0.004950875
74	0x3ac76053	0.0015211202
75	0xb9c3bc19	-0.00037333442
76	0xbb466728	-0.0030273888
77	0x31e724a1	6.727149e-09
78	0xba3ff898	-0.0007323115
79	0xbb5bb6ea	-0.0033525773
80	0x3a7064dc	0.00091703027
81	0xbab6a538	-0.0013934737
82	0xb9dcc47f	-0.0004210807
83	0xba846ea3	-0.0010103773
84	0x39a67ca4	0.00031754852
85	0xbb889b2f	-0.00416889
86	0xbafdba7c	-0.0019357945
87	0x3b054474	0.002033499
88	0xba028842	-0.00049794104
89	0xbb812a4b	-0.0039418093
90	0xbb736ed5	-0.0037144918
91	0xbac3aba1	-0.0014928469
92	0xbbf6d828	-0.007533092
93	0xbbf3518f	-0.007425494
94	0xbb4ec058	-0.0031547751
95	0xbbf0f233	-0.007353091
96	0xbb319a36	-0.0027099974
97	0x31ffd7ae	7.4459967e-09
98	0xba58bc66	-0.00082678196
99	0xba593c46	-0.00082868745
100	0xb894b97d	-7.09174e-05
101	0x3b4c8834	0.0031209113
102	0xb9db805d	-0.00041866573
103	0x3b067939	0.0020519032
104	0xba13fc48	-0.0005645198
105	0x39e9ab76	0.00044568971
106	0x3b3e77a5	0.0029063013
107	0x3aaec9a3	0.0013335239
108	0x39ee4c4c	0.00045451743
109	0x39c394de	0.00037304213
110	0x3a3e861e	0.000726791
111	0x3bc8d1dc	0.006128533
112	0xbb0b012c	-0.0021210415
113	0xbab0f874	-0.0013501779
114	0x3b0ddfa0	0.0021648183
115	0x3ab0044b	0.0013429014
116	0xb791daba	-1.73872e-05
117	0x3a3056f8	0.00067268265
118	0x3af491d1	0.0018659179
119	0x3b2837c4	0.0025668005
120	0x0ec045b2	4.739877e-30
121	0x3b12b6ab	0.002238671
122	0xba80d8fb	-0.000983029
123	0x3b6e739f	0.0036384834
124	0x3a60af69	0.000857106
125	0xbb2884fc	-0.002571403
126	0x3b6b293a	0.0035882727
127	0x390f7c48	0.00013683841
128	0x3a868950	0.0010264311
129	0x3ac8e37a	0.0015326582
130	0x3b3cbf60	0.0028800592
131	0x39babd3c	0.00035617675
132	0x39546c29	0.00020258188
133	0x3adc1b28	0.0016792761
134	0xba9dfdd9	-0.0012053802
135	0x3b6bea1d	0.0035997697
136	0xba8d293f	-0.0010769739
137	0x39301fed	0.00016796561
138	0xb97f2514	-0.00024332508
139	0x3b979c2c	0.0046267714
140	0x3ae0afc6	0.0017142228
141	0x29caca6d	9.005717e-14
142	0xb61388d5	-2.1984354e-06
143	0x32b86425	2.146596e-08
144	0xbb1a1a3a	-0.0023514167
145	0xb98994da	-0.0002624158
146	0x3b76168e	0.0037550065
147	0xba795eb6	-0.0009512709
148	0x3b352472	0.0027640131
149	0x3b00ecf0	0.0019672476
150	0xba9e06a8	-0.0012056427
151	0xba878668	-0.0010339739
152	0x3b1cac90	0.0023906566
153	0x3abe03a5	0.0014496936
154	0xba8e8194	-0.0010872358
155	0x0df1f58d	1.4911886e-30
156	0x3a9e8172	0.0012093021
157	0xba00094b	-0.0004884197
158	0xb9a597cf	-0.0003158436
159	0x3ac8dfe9	0.001532552
160	0xbb0b64f8	-0.00212699
161	0xbac8245f	-0.0015269628
162	0x3a09e6c0	0.00052605197
163	0x3bb3f911	0.0054923375
164	0x3a153250	0.0005691396
165	0x3b453ed3	0.003009726
166	0x3b8ec1cd	0.004356599
167	0x34d08590	3.88402e-07
168	0xba26fb0a	-0.0006369805
169	0xba70f49e	-0.0009191724
170	0x37722ab5	1.44342675e-05
171	0xb912d8af	-0.00014004366
172	0xb9824794	-0.00024848862
173	0xb9adf22b	-0.0003317756
174	0x3a58f9cb	0.0008276968
175	0x3a8cfc65	0.0010756372
176	0x3b0750b9	0.002064748
177	0x2cd8cf68	6.162116e-12
178	0x3ba19562	0.004931138
179	0x3ad87f17	0.0016517368
180	0x3b37ec89	0.002806457
181	0x3b095a99	0.0020958541
182	0x3b313a29	0.0027042723
183	0xba3590a4	-0.0006926155
184	0x3a914718	0.001108381
185	0xba3c6aa2	-0.00071875204
186	0x3717ef5b	9.056031e-06
187	0x3b1a201f	0.002351768
188	0x3b18d5f6	0.002332089
189	0xb9d6fee8	-0.0004100718
190	0x3a75e5b6	0.0009380238
191	0x39e6694a	0.00043947465
192	0x3a8f0273	0.0010910764
193	0xba9e8210	-0.0012093205
194	0xb927e285	-0.00016010746
195	0x3b06f3a3	0.0020591996
196	0xb9ba1a44	-0.00035496254
197	0x2efe16fe	1.1554667e-10
198	0x3b384011	0.0028114358
199	0xbaa10a11	-0.0012286325
200	0x3bca23f7	0.006168838
201	0x3b3fe894	0.0029282914
202	0x3b88b7b6	0.0041722907
203	0x3b14cab4	0.0022703828
204	0x3b9ece3d	0.004846363
205	0x3b8e0be4	0.0043349136
206	0x3bb7dc89	0.0056110066
207	0x3b971b8f	0.0046114395
208	0x3b5da0e1	0.0033817815
209	0x3ba842e0	0.0051349252
210	0x3b972c07	0.0046134028
211	0x3c51ffa8	0.012817301
212	0x3b97379c	0.0046147835
213	0x3bae3de3	0.005317436
214	0x3c17f9c2	0.0092758555
215	0x3bb778ed	0.0055991323
216	0xba03f425	-0.0005033634
217	0x3b355956	0.0027671657
218	0x3c3e9c2c	0.011633914
219	0x3bb3c6f7	0.005486365
220	0x0e19441c	1.88915e-30
221	0x3baa6fd8	0.005201321
222	0x3b3ad8dc	0.0028510606
223	0x3c0ce95c	0.008600559
224	0x3b4a12a0	0.0030833855
225	0x3b11ede1	0.002226703
226	0x3bc0a72b	0.005879303
227	0x3b161c82	0.0022905176
228	0x3a940bb4	0.0011294992
229	0x3b2f1951	0.002671797
230	0x3baa18c5	0.005190941
231	0x3c06e0ca	0.008232305
232	0x3ba1a3d5	0.0049328604
233	0x39922d5e	0.0002788109
234	0x3b874938	0.0041286014
235	0x3c03777f	0.008024096
236	0x3c0e5143	0.0086863665
237	0x3b055ee9	0.002035076
238	0x3b8824d3	0.0041547804
239	0x3bbcf457	0.0057664323
240	0x3bba37a8	0.0056829043
241	0x2b702820	8.5320813e-13
242	0x3bb06a3c	0.005383758
243	0x35c382b6	1.4566674e-06
244	0x3b89c50e	0.004204399
245	0x3aa0dfc6	0.0012273721
246	0x3be838b3	0.007086837
247	0x3bdede69	0.0068014157
248	0x3b61a644	0.0034431377
249	0x3be70483	0.0070500984
250	0x3bb3a104	0.005481841
251	0x3a6f37a3	0.0009125417
252	0x3b573fec	0.0032844497
253	0x3c04665a	0.008081043
254	0x3bf7caca	0.007562016
255	0x8edf706e	-5.508201e-30
