mlruns/0/models/m-071a9a7d34274a96a62977f426833854/artifacts/data/model.pth (torch, 116553 bytes, 4 tensors)

weight f4 [100, 256]
00000000: 377e 23bd 0d4c 1abc ab33 6a3d e4dd 2d3d
00000010: e94e b33d d163 f53c af23 173d d7f5 96bd
00000020: 35ae 363d 11c1 3e3d 2a5c bf3d 5ba4 c13d
00000030: 78b4 ab3b cbf4 633d 20ad 163d 8616 853d
00000040: ef7f dbbc c2fc 35bd cbb6 a53d e15f bd3d
00000050: b0bd c83d d835 323c b460 1fbd 6ed7 8cbb
00000060: 035c 0abd 74dc 423d 8d5a 153e 912d 013e
00000070: 0621 c13d f700 fe3c 7e83 183d 3d32 f43c
00000080: 5dc6 643d 0803 363d c5b4 9abb e99a 903d
00000090: a838 f93d bf59 f93c a280 103c 960a f2bc
000000a0: 3935 a2b9 6c80 d53c 4f21 b53d cadc ae3d
000000b0: faea ffbb 4320 563d d2ba 1ebd 06f1 ff3c
000000c0: efa6 c6bc bde9 40bd 0109 773d 889f 9f3d
000000d0: 9b82 e03d 3ee4 de3d e469 8bbd fcbc 4cbd
000000e0: fbfa 53bb 07c9 453d 2800 073e 8d96 fa3d
000000f0: 0405 b23c 7d7e 373b b1fb 49bc 598f cbbc
00000100: d27b 9abc b2bc 5fbc 9c54 5c3c 4e49 653d
00000110: 6da7 323e 94fa c53d 3567 5bbd ca2f e6bb
00000120: b189 be3c 9338 813d 1857 3a3e 364b 003e
00000130: 2be1 9dbc 1a10 8b3c 424a 98bc 2445 963c
00000140: 35c3 d53c d9ff f93b 16fb 853d 7559 0c3e
00000150: f870 f23d 39b3 993d 2d34 7f3d 91a5 f03d
00000160: 1d9e ad3d e260 423e ceac 2b3e f0f6 da3c
00000170: e1a1 4b3d 7371 82bd 228b bd3b f635 20bd
00000180: 03a9 b83b 8033 193d fd08 2d3e bc9d 043e
00000190: 7428 403e bec5 e83d 87b9 1f3d 43cb ce3d
000001a0: 8c26 d73d ecb1 733e 5054 2b3e f3e1 d73d
000001b0: e7bd b33d 86f2 5c3d 89cf 06bc 43a6 b2bc
000001c0: 6e0d 61bd 6cb9 9c3c eae5 8a3d 97c3 ab3d
000001d0: 07d8 d9ba 8428 61bd db67 f0bc 6e9f 1cbc
000001e0: b5c2 0f3e f8e6 463e 445d 1a3e 094d a93d
000001f0: 8e31 053d cdc1 c0bc c8f6 073d 22ba 0f3b
00000200: 210d e9bb 4589 b13c 2fd4 d13d 61d2 b03d
00000210: a9b6 333d 7c77 efbd 3d8c 9cbd ee53 69bd
00000220: 80bb af3d 9499 593e e734 cf3d 4783 2b3d
00000230: 0627 693d 1b20 033d 3752 b2bd f7d8 4cbd
00000240: 7d9a 11bd 2e31 38bd e4b2 dd3d 41cb c13d
00000250: 93e2 63bd 1fb9 023a 8f25 283d df62 b13d
00000260: c443 3b3e bed3 2a3e a9e9 fb3d 618f 95bc
00000270: eb16 3c3d ccfb 9bbb 719e 61bd 3bf1 a8bc
00000280: 9fea 4ebc 376f 3abd 2b81 ff3c dc17 66bc
00000290: ca89 59bd 0078 7b3c 5d24 c93d e432 df3d
000002a0: f1dc 4f3e 8f49 a83d 7c68 babd 2c4a 4bbe
000002b0: cb57 97bd a15e b43a 56dc 1cbd 8e3f 403c
000002c0: 7c30 6abd 2fc8 adbd 7353 2cbc 6948 80bd
000002d0: db7c 69bd 5015 58bc ccdf 733c 1cf8 283e
000002e0: 37bc 353e c660 90bc ecf6 8bbe 252c 80be
000002f0: adb2 d5bd 554a f8bd 1c73 7bbc 1fee cd3c
00000300: a84c 9abd b433 9f3c 05b9 eabc 189b 03be
00000310: 5f77 11be 8af2 b5bd 714a e4bc 64ee db3c
00000320: 21b0 a1bd c722 3abe f171 75be 2862 23be
00000330: a78c 23be 8ad2 16be dbac b83a ced1 a6bd
00000340: 48fb 783b bcc4 963c 5896 d7bd 2368 cdbd
00000350: a1d8 5cbd 8e05 d4bd 0fd6 69bd 6e47 0bbe
00000360: c86a fbbd f186 64be 1ad2 52be 6584 2ebe
00000370: 551a 99bd 495a ddbd df99 98bd 31dd eb3b
00000380: b79f 2bbd aad9 20bc 9600 27bd 0840 05bd
00000390: 6e32 f2bd 316d 16be 4b6e dcbd 649d c8bd
000003a0: f489 95bd 316d 18be af95 03be 7e1e d0bd
000003b0: 42f7 bfbd 98b2 c2bd b0e5 9cbd 6ea5 6fbd
000003c0: 01e1 923c ae1e 68bd 32e8 55bd c110 babd
000003d0: f9ff febd ff0f 02be a04a 55bd 3b9d 87bd
000003e0: 8bc5 c0bd eaaf a6bc 5b2e 0dbd be64 c8bd
000003f0: b76d a6bd 048e 7a3c 8771 263d e329 cfbc
-0.03991529 -0.009417546 0.05717818 0.04244794 0.08755285 0.029954823 0.036899265 -0.07371109
0.04459973 0.04657084 0.09343751 0.094551764 0.0052400194 0.055653375 0.0367862 0.06498437
-0.026794402 -0.0444305 0.080915056 0.09246803 0.09801805 0.010877095 -0.038910583 -0.004298142
-0.033779155 0.04757352 0.14585324 0.12615038 0.09430127 0.03100632 0.037234776 0.029809112
0.055853236 0.044436485 -0.0047212564 0.07060797 0.121690094 0.030438302 0.008819731 -0.029546063
-0.00030938702 0.026062213 0.08844244 0.08538206 -0.007809994 0.05227686 -0.038752384 0.031242859
-0.024249522 -0.04709791 0.06031132 0.077941 0.10962411 0.108833775 -0.068073064 -0.049984917
-0.003234564 0.048287418 0.13183653 0.122357465 0.021730907 0.0027998977 -0.012328074 -0.024848627
-0.01885787 -0.013655828 0.013447907 0.055978112 0.1744668 0.096669346 -0.053565223 -0.00702474
0.023259016 0.06309619 0.18197286 0.1252869 -0.019272408 0.016975451 -0.018590096 0.018343516
0.026094059 0.0076293764 0.065420315 0.13706 0.11837953 0.07504887 0.062305618 0.11750329
0.08477423 0.1898227 0.16765139 0.026729077 0.049714927 -0.06369295 0.005784408 -0.03911396
0.005635382 0.03740263 0.1689796 0.12950796 0.18765432 0.11365841 0.038995292 0.10097363
0.10505399 0.2379834 0.16731381 0.10541143 0.087764554 0.053942226 -0.008228191 -0.021807795
-0.05494445 0.019131385 0.06782134 0.08386915 -0.0016620167 -0.05497028 -0.029346397 -0.009559495
0.14039119 0.19424045 0.1507464 0.082666464 0.032517962 -0.023529911 0.033194333 0.0021931012
-0.007112161 0.0216719 0.10245549 0.086338766 0.04387537 -0.11692712 -0.07643936 -0.056964807
0.08580685 0.21249992 0.10117512 0.041873243 0.05692198 0.03201304 -0.087070875 -0.0500116
-0.035547722 -0.044968776 0.10825136 0.09462596 -0.055636 0.00049866916 0.041051444 0.08661436
0.1828757 0.16682336 0.123004265 -0.018256845 0.045920294 -0.004760241 -0.055082742 -0.02062284
-0.01262918 -0.04551622 0.031189522 -0.014043774 -0.05310992 0.015348434 0.09821389 0.108983785
0.20299126 0.08217155 -0.0910196 -0.19852513 -0.07389792 0.0013761112 -0.038296066 0.011733903
-0.057175145 -0.084854476 -0.010517943 -0.06263811 -0.057003837 -0.013188675 0.0148849 0.16500896
0.1774758 -0.01762427 -0.27336824 -0.2503368 -0.1043447 -0.12123553 -0.015347268 0.025137959
-0.07534152 0.019433834 -0.028652677 -0.12852132 -0.14205693 -0.08884151 -0.027867528 0.026847072
-0.07894922 -0.18177329 -0.23969246 -0.15955412 -0.15971623 -0.14728752 0.0014089601 -0.08145486
0.0037991572 0.018404357 -0.10526723 -0.10029628 -0.05391753 -0.10352622 -0.057088908 -0.13601467
-0.12276226 -0.22317101 -0.2058796 -0.17042692 -0.074757256 -0.10808236 -0.074512236 0.007197999
-0.041900363 -0.00981752 -0.040772043 -0.032531768 -0.11826025 -0.1469009 -0.10763224 -0.09795645
-0.07301703 -0.14885403 -0.12850069 -0.10162066 -0.093733326 -0.0950672 -0.07660997 -0.058507375
0.017929556 -0.056669883 -0.05222339 -0.09085227 -0.12451167 -0.12701415 -0.05207312 -0.06621786
-0.09412678 -0.020347554 -0.034468036 -0.0978484 -0.08126395 0.015292648 0.04063561 -0.025288528

bias f4 [100]
00000000: 0e9d 393d 5ab1 51bc e3e7 8abd 6833 dc3d
00000010: 1da8 af3c f158 283c c6e4 cb3b a231 17bd
00000020: 798f 94bb 3a00 04bd cb20 293c 78d3 563d
00000030: f58a 613d bd04 c53a d26e a23c 4d32 ce3d
00000040: d305 083d e46e 67bc 70d3 a43b d339 1d3d
00000050: e7ae 03bc c1dd 313c 8fc2 543d 2f49 153d
00000060: 239f 063e 8fc3 a73c 7088 8dbc 8460 783d
00000070: 1ab3 7dba d95f 8fbd 93d0 abbc 7e86 cd3d
00000080: 2cfc 57bd 4004 33bd c230 cc3b 7bee 99bd
00000090: 8c31 9d3d 9ae4 d23c d175 993c 5a35 643d
000000a0: c125 b33c 847a a03a 8522 8f3c 5a41 3c3d
000000b0: 3dc0 f83c 4d6c ea3c e5d3 343d 5547 393a
000000c0: b356 6a3d 73ab efbb bc8e 6b3c 5670 133d
000000d0: 5f42 f43c 4a26 54bd 9c86 1c3d 1e73 5cbb
000000e0: e626 f63c 5023 38bb 28db 813d eada 7c3d
000000f0: 7da2 af3c 7f3a 4b3d da12 353c 0a84 8a3c
00000100: 718a 89bb acfd 5a3b 9bb9 0fbd 8ea4 67ba
00000110: 0a05 ccbc f154 42bd d6ee 34bc 543a 6fbd
00000120: b730 843c 7b9b 3abd 1a82 fa3c 2f1a 88bd
00000130: 500b 0e3d b37a 1dbd e269 fabb c216 66bd
00000140: f000 b6bc debe dc3b ae25 07bd f878 d03c
00000150: bd9c ffbc 94f6 0cbd 4ae0 46bd 4ce2 f8ba
00000160: 4929 983d f37a a63c 5c8a 41bd 77d8 4b3c
00000170: b7d1 92bb f84d 85bd c8b1 2e3c 11b9 903d
00000180: 6790 c0bc 474a 95bc 313f 563d 06c3 da3b
0.045315795 -0.012798632 -0.0678251 0.107519925 0.021442467 0.0102751115 0.0062223403 -0.036912568
-0.004533705 -0.03222678 0.01032276 0.052447766 0.05506416 0.0015031319 0.019828234 0.10068188
0.03320868 -0.0141255595 0.005030088 0.038385224 -0.008037305 0.010856093 0.051943358 0.036446746
0.13146643 0.020478992 -0.017276973 0.06063892 -0.00096778723 -0.07000703 -0.02097348 0.10035418
-0.052730724 -0.043705225 0.0062313983 -0.0751619 0.07675466 0.025743771 0.018732937 0.055714943
0.021868588 0.0012243544 0.017472515 0.04596076 0.030365104 0.028616095 0.04414739 0.0007067819
0.05721159 -0.0073141395 0.014377292 0.035995804 0.029816804 -0.051794328 0.03821431 -0.003363795
0.030047845 -0.002809722 0.06340629 0.06173221 0.021439785 0.049616333 0.011051858 0.016908664
-0.0041974117 0.003341536 -0.035089117 -0.0008836471 -0.024904747 -0.047444288 -0.011043271 -0.058405235
0.01613651 -0.045558434 0.030579615 -0.06645619 0.034678757 -0.038447093 -0.0076420167 -0.056174047
-0.022217244 0.0067366203 -0.03299492 0.025448307 -0.031202668 -0.034414843 -0.048553742 -0.001898834
0.074297495 0.020322299 -0.04725109 0.012441746 -0.0044805664 -0.06509012 0.010662504 0.070665486
-0.023506356 -0.018223895 0.052306358 0.0066760806

weight f4 [10, 100]
00000000: 1cd2 afbd cd52 afbd 99e3 813b 9888 263e
00000010: f34f 3e3d 4076 083e ca6f 91be 36d6 56be
00000020: 19b9 493b b46a c8bd 856a 19be be0b 32be
00000030: 2f96 62be 7da9 a3be 890d 49be fab3 3d3e
00000040: 6241 42be 0dc4 30bd 4904 cebd 08a2 a33d
00000050: 7488 b0be 55d5 533d 727c 0b3e 703f 133e
00000060: ade3 2e3d b52d aabc 774c 793c a229 c9bb
00000070: df3f bc3d e8c6 98be 3275 313e 768f 7e3d
00000080: c5c3 b4bd 3b37 c03d 0613 003e a67e 4ebd
00000090: b8b0 73bc 7a6b 0abd 239b 07be 27ef 27be
000000a0: 04b8 e3bd 94f1 b83d 5270 243d 703d 173e
000000b0: d1bd 753d a446 bdbe 9108 81bd e04b 283c
000000c0: ef44 b83d bb7d 81be decb 493e ef7a b4bc
000000d0: 7033 e33c 6079 1dbc 0975 243e d3b8 5c3e
000000e0: 08c9 bfbd 43ac 2abd 1d88 973d a0d9 cd3d
000000f0: cb14 81be a27f 8a3e 4dbb afbc 2467 863d
00000100: 19bc 163e 44e8 82bd 4077 4bbe 87ed 3c3d
00000110: b482 0b3e 1d0c 5dbe 7a4b 543d 4cf6 17be
00000120: 2fb7 c5bd d45b ebbd e79d 973d c098 51be
00000130: 1d65 e83d 8dad 3cbe 8424 8fbe 840c 393d
00000140: deee 4cbe 8bf5 ef3d 2b42 1f3d 3820 a6bc
00000150: 8a16 2bbe 62c7 623d d0dd 5cbe 8e95 2cbe
00000160: 30c7 db3d d778 c2bc 4d9e 253e 4cf1 283d
00000170: b655 a53d 8e9b 45be 3093 3fbe 8524 8a3d
00000180: 222c 2e3e 58a2 11be 483c c7bd 1f21 153c
00000190: f660 75bd 0468 75bd 3f2c c7bd 8d27 a4bd
000001a0: 9898 12bd 3764 023e 7e08 083e a8f1 07bc
000001b0: b558 073d 3934 c2bd 9346 1f3e 8876 49be
000001c0: 6bc3 ea3d 1280 0c3e 31d2 2b3e b46a 92bd
000001d0: 7006 1b3d 5599 f83d cb85 03be 66dd 82bd
000001e0: c77a ffbd fe72 993d 07e9 33be 3279 28be
000001f0: 8137 d5bd 7710 4c3e 769a 243e aaad 50be
00000200: ac73 0abe 00fd 423d d7eb 32be 6489 5dbe
00000210: eb1b 65bd 3acc 71be 4fa5 5abe 73a1 ea3d
00000220: eca8 f5bd df9c 763c 9707 003d 4abd f7bb
00000230: 44a4 b4be bfb2 9d3b ea40 72be 8c4b fabd
00000240: 54a8 563e 8a8b 6cbe f428 80be ad08 d9bd
00000250: fc0a 18be 6bb2 0b3e d320 d3bd 8e32 47be
00000260: 5fd8 bebd ad44 d3bd 183a 85bd 5385 a8bc
00000270: a14e e3bd 3cb1 8abd 1a28 05be 3259 79be
00000280: 3676 eabc 0bd1 113c 908a b63d a4d5 1f3e
00000290: 0129 02be 6c5c d73c caa4 b13d 10d4 323d
000002a0: 238f 43be 46d5 c73d 5dc9 53be b026 523c
000002b0: 4d0c c2bd 728e 77bd efb2 c8bd 8d9a 2b3e
000002c0: d9e4 05bd 6aa9 d2bd c886 693d bb81 783d
000002d0: 3747 7fbc a6d4 a5be 8276 0b3d 42c2 163c
000002e0: 204c b8bd 3ae2 8d3d 0ccc 1d3e 2e88 8d3d
000002f0: 0380 94bd 2325 91ba c93b 27be d6a3 9dbd
00000300: e8e9 3abe 70e2 ba3d c0f0 0cbd e189 ed3c
00000310: f58d 4cbe 60fc 8abd dbf5 f83a 05fd 483e
00000320: ac96 35bd 9dae 0d3e c980 883c 69dc bd3c
00000330: 18f6 e9bc 4132 0ebe 8375 03be 3454 d8bd
00000340: 0a96 d9be d27d 06be 0b1a e33d 721c 0c3d
00000350: 481a 18bd 80fa 2cbd 265c e43d d0b8 52bc
00000360: 489c d1bc fe56 a93d ca7f 503d a3a3 083e
00000370: aef9 13be 7ca1 f9bb 081a bc3c 6de9 983d
00000380: ee23 9cbd b0d2 d6bd cf2b 41be b240 4d3e
00000390: 9949 cb3e e84d 39be 98ce cb3d 8c42 003d
000003a0: 3577 2a3d 5ba3 d9bd 1caf dbbd f64a d9bd
000003b0: d924 423e 28a8 04bd 213e 3d3e ecb8 63be
000003c0: 6d1f 6fbd 3d18 7b3d 2846 0f3e c672 ddbc
000003d0: 9faa b0bd 3c2c f93d ef51 743d a69a 963c
000003e0: 900c 22be a641 d73d 86db 32be d028 efbd
000003f0: 2bb5 5b3e 330a 1b3e 9c46 acbd 818a 09be
-0.08584997 -0.08560715 0.0039638993 0.16263044 0.046462964 0.13326359 -0.284056 -0.20980152
0.0030780493 -0.09785977 -0.1498204 -0.17387292 -0.22127603 -0.31965247 -0.1963407 0.18525687
-0.18970254 -0.04315572 -0.10059411 0.079898894 -0.34479105 0.05171712 0.13621691 0.14379668
0.042697597 -0.020773748 0.015215985 -0.006138996 0.0919187 -0.29839253 0.17329863 0.062148534
-0.088264026 0.093855344 0.12507257 -0.05041375 -0.014873676 -0.033793904 -0.13242774 -0.16399823
-0.111190826 0.09030452 0.04014618 0.1476953 0.059995476 -0.36967957 -0.06300462 0.010271996
0.08997523 -0.25291237 0.19706675 -0.022031276 0.027734488 -0.009611458 0.1606027 0.2155488
-0.093645155 -0.041668188 0.073990084 0.10051274 -0.25211176 0.270505 -0.021451617 0.06562641
0.14720191 -0.063919574 -0.19869709 0.04612496 0.13624078 -0.21586652 0.051829793 -0.14840049
-0.0965408 -0.11492124 0.07403164 -0.20468426 0.11347411 -0.1842558 -0.27957547 0.04517795
-0.20012996 0.117167555 0.038881462 -0.020279035 -0.16707817 0.055365928 -0.2156899 -0.16853926
0.107313514 -0.023739262 0.16173668 0.041245744 0.08072989 -0.1929762 -0.18708491 0.06745247
0.17009023 -0.14222085 -0.097282946 0.009102135 -0.059906922 -0.05991365 -0.09725236 -0.08015356
-0.035790056 0.12733541 0.1328449 -0.008297361 0.033043582 -0.09482617 0.15554266 -0.19674122
0.11463054 0.1372073 0.167794 -0.07149258 0.037847936 0.12138621 -0.12844007 -0.06389885
-0.1247459 0.07492636 -0.17569362 -0.16452482 -0.10410977 0.19928156 0.16074547 -0.20378748
-0.13520688 0.04760456 -0.17472778 -0.21634442 -0.055934828 -0.23613063 -0.21352123 0.11456575
-0.1199511 0.015052049 0.03125724 -0.007560407 -0.35281575 0.004812568 -0.23657575 -0.12221441
0.2096265 -0.23100105 -0.25031245 -0.10597358 -0.1484794 0.1364228 -0.10308995 -0.19452879
-0.09318613 -0.10315833 -0.06505221 -0.020571386 -0.11098982 -0.06772086 -0.13003579 -0.24350432
-0.02862082 0.008899937 0.089131474 0.15608841 -0.12710954 0.026289187 0.08674009 0.04365927
-0.19097571 0.097574756 -0.20682283 0.012826607 -0.094750024 -0.06043858 -0.09799754 0.16758175
-0.03268895 -0.102862194 0.057013303 0.060670596 -0.015580944 -0.323888 0.034048565 0.009201588
-0.08998895 0.06927915 0.15409869 0.0691074 -0.07250979 -0.001107369 -0.163314 -0.07697265
-0.1825329 0.09125221 -0.034409285 0.02899641 -0.19976027 -0.06786418 0.0018994169 0.1962777
-0.044333145 0.13836141 0.016662972 0.023176389 -0.02855973 -0.13886358 -0.12837796 -0.105629355
-0.42497283 -0.13133934 0.11088952 0.034206815 -0.03713444 -0.042231083 0.111503884 -0.012861446
-0.025587216 0.082685456 0.05090312 0.13343672 -0.14450714 -0.0076181274 0.022961631 0.074663974
-0.076240405 -0.10489404 -0.18864368 0.2004421 0.39704588 -0.18096125 0.09951514 0.031313464
0.04161759 -0.10626861 -0.10726759 -0.10610001 0.18959369 -0.03238693 0.18480732 -0.22238511
-0.05837958 0.061302412 0.13991606 -0.027032267 -0.086262934 0.1216664 0.05964845 0.018384289
-0.15825105 0.10510568 -0.17466554 -0.11677706 0.21455829 0.1514061 -0.08411905 -0.13431741

bias f4 [10]
00000000: e0ea 103c 0e08 fbbc e7c5 843d 9303 283d
00000010: faf8 c5bc 040e 7dbd aaa0 263d d954 7cbd
00000020: c2de 093d 0a4c 16bd
0.008845061 -0.03064349 0.064830594 0.041019034 -0.024166573 -0.061780944 0.040680565 -0.061604355
0.033659704 -0.03669361
