lightning_logs/version_0/checkpoints/epoch=9-step=1140.ckpt (torch, 327856 bytes, 12 tensors)

fc1.weight f4 [100, 256]
00000000: 0c83 bb3c 5494 8d3d 82bc 853d 3de0 9e3c
00000010: ad26 193d 4baa 853d 2b72 453d cc5e 413d
00000020: 7a1c f8bb 67c8 493d 978d 033d 4a4b 963d
00000030: 0869 2bbd 564b ba3c fbdb 863d f2d6 1cbd
00000040: e577 4f3c 4bef f8bc 9d71 d83c 0054 0abc
00000050: f9a1 6e3d e014 783d d5bb 1fbd 5600 293d
00000060: 6202 70bc ff60 0bbd 3545 a23c 6bdc 79bc
00000070: f78c 393d 8a35 f03c b3e0 20bc c35f 633d
00000080: c95a 4e3d b97e 85bc d945 cdbc ff77 ac3b
00000090: 9c5b abba 4812 393d ff9e 33bd a1ce a83b
000000a0: 99a3 8e3a 1805 e9bb e315 7cbb baa1 4b3d
000000b0: 8969 3d3b 8209 493d 49b5 14bc bdba fe3c
000000c0: a355 9dbc a1d8 943d 5241 0bbd 3732 523d
000000d0: 2fe1 063d 8173 a5bc 4d61 113d 3b7a fe3c
000000e0: 339e 15bd 65a0 1c3d a2ae 62bd 5302 b3bc
000000f0: dfed 393d a9fa 43bc 46c4 03bd 625c af3c
00000100: 3ef6 773d 6120 473d 7781 133d be7f 0abd
00000110: 3820 0a3b 11aa 65bc 96f1 b83c 2019 823d
00000120: d001 97bb f463 953c 5a74 02bd 2035 363c
00000130: 1c43 1abc 82dc 8d3d 7633 08bd a532 11bd
00000140: afe9 dcbc cfa3 aabc c2e1 453d 00de 5cbd
00000150: 5d86 46bd 28cf 04bd 6caf bcb7 c7da 253c
00000160: 303a 66bd 22c9 5d3d 4b8f 973c c39e 3b3c
00000170: ba10 6bbc e770 05bc 3a62 2b3c cf0e 303d
00000180: 6617 863d 0334 4dbd 2b5e e3bc 9884 273b
00000190: b470 ff3b 878a 4b3d b082 05bd 178c ee3b
000001a0: c5c6 273d c6ca 34bd de18 4ebd 3e4d 763d
000001b0: 6eb5 37bc 4e1c 0cbd 221d 793d a5e4 3dbd
000001c0: d3bb 713d ab19 423d 1ed4 92bc 72d1 133d
000001d0: 5831 78bd daa8 f63a b6df 05bc fd06 3d3d
000001e0: 09e2 323c ab2a 443d 6472 4ebd b6b4 423d
000001f0: 48b7 1dbc fd13 6c3d c935 983c f069 38bd
00000200: f423 683d a325 d4bb eb34 363d 9419 fc3c
00000210: f950 933c 288c f7bc 620d 663d 0655 64bc
00000220: d8ef 5ebd 8909 3d3d ebae b93b 3724 3cbd
00000230: 37e3 67bc 58c4 13bd 902f a93a 34a2 e3bc
00000240: 92ec 73ba 017d 1e3d 7b40 6b3c 3600 36bd
00000250: 78b1 5f3d 2bc7 58bc 0742 4fbd a2f3 243d
00000260: 658e af3b a959 c5bc 532c f0bb 90ef e7bc
00000270: 8a8a 4cbd 79b6 e0bc a51d 133d 43bc 19bd
00000280: a989 6b3c de6f 663d 8ad0 d43c 479b d5bc
00000290: 8529 083d 9b57 2d3d d4de c8bc 8723 dd3c
000002a0: 4c46 ad3c 4f7e 71bc 5e64 2f3d 8ab0 e6bc
000002b0: 8702 2a3d f33f 5ebb ee70 283d 9e37 6b3c
000002c0: 47a0 8a3d 1a65 803d dbe9 3d3d 1fd8 02bd
000002d0: 5cde dfbc d9c9 2cbd f547 483d 0aaf 393b
000002e0: 3aec 26bd f1f3 ea3c feff 70bc 9751 533d
000002f0: 258e 9a3b 4b19 1d3d 5846 77bd c4d3 3d3d
00000300: 5790 983d cb3d 833d 0136 fa3c f1e1 b63c
00000310: 9785 a0bc 042c b53c 6af9 01bd f584 9bbc
00000320: c788 3dbd 41a7 47bc dfb8 31bd 7728 fabb
00000330: cc48 d8bc 19a4 4c3d ce66 203d 51b9 f3bc
00000340: 79bd 08bd a29f 573d dc42 123d 5661 74bd
00000350: 4d08 5fbd 2ec0 7cbd ed2d 06bc d8df ccbc
00000360: e5ba 433d 7d38 113d babf d0bc 417b abbc
00000370: 52ea 9ebc c6c6 14bc 4c97 aebc 8ebc 8a3d
00000380: 6466 08bd e14c 203c c05c 19bd 30e0 313d
00000390: 1e9c 6abd c434 223c d3e9 223d 4e32 94bc
000003a0: d1ee 2cbc 8705 87bd becd 24bd c318 8c3c
000003b0: 6d88 30bd c44f 54bb 6d37 633d 9b8b bd3c
000003c0: 816c 5a3d 191f c2bc 1209 32bd 8297 093c
000003d0: 13b3 393c 8a1e 3bbd 2eb0 18bd 3337 4dbd
000003e0: 2786 4dbc 1daf a43c 3afa c83c 8ce9 5cbd
000003f0: eeb4 25bd 3299 3cbd c7bf 303d e946 4ebc
0.022889636 0.06913057 0.06530096 0.019394035 0.0373904 0.065266214 0.048204582 0.047209546
-0.007571754 0.049263384 0.032117452 0.07338579 -0.041848212 0.022741001 0.06584927 -0.038290925
0.012662862 -0.030387541 0.026421363 -0.008442879 0.058259938 0.060566783 -0.03899749 0.041260086
-0.014649006 -0.03402805 0.019808391 -0.015250306 0.04530045 0.029322404 -0.0098191975 0.055511247
0.05037955 -0.016295778 -0.02505772 0.005263328 -0.0013073566 0.04518345 -0.043852802 0.005151585
0.0010882496 -0.007111203 -0.0038465194 0.04971478 0.0028902015 0.049081333 -0.009076425 0.031094903
-0.019205874 0.07267881 -0.03399784 0.05131742 0.032929596 -0.020196678 0.035493184 0.031064143
-0.036527824 0.0382389 -0.055342324 -0.021851694 0.045392867 -0.0119616175 -0.032169603 0.021406356
0.06053757 0.048614863 0.03601214 -0.03381323 0.0021076333 -0.014017598 0.022576135 0.063524485
-0.0046083704 0.018236138 -0.031849243 0.011121064 -0.009415414 0.06926824 -0.033252202 -0.03544869
-0.026966898 -0.020830063 0.048311003 -0.053922653 -0.048467983 -0.032424122 -2.2493034e-05 0.010122961
-0.056207836 0.054146893 0.018500945 0.011451426 -0.01434725 -0.008144594 0.010460431 0.042982873
0.06547432 -0.05009843 -0.027754864 0.002556121 0.0077954177 0.049692657 -0.032595336 0.0072798836
0.040961046 -0.044138692 -0.050316684 0.060132258 -0.01121269 -0.03420668 0.0608188 -0.04636063
0.059017014 0.04738776 -0.017923411 0.036088414 -0.060593933 0.0018818632 -0.008171013 0.046149243
0.010918149 0.047892254 -0.05040206 0.04753562 -0.009626217 0.05763625 0.018580334 -0.045022905
0.056674913 -0.006474213 0.04448406 0.030773915 0.017982947 -0.030218199 0.056165107 -0.013936287
-0.05442795 0.04615167 0.005666604 -0.045932975 -0.014153293 -0.03607592 0.0012907851 -0.027787305
-0.0009304966 0.03869343 0.014358635 -0.044433795 0.054612607 -0.013231079 -0.050600078 0.04027141
0.005357551 -0.024090605 -0.0073295026 -0.028312474 -0.04993681 -0.02743076 0.035916943 -0.037533056
0.014376082 0.05625903 0.025978345 -0.026075019 0.03324272 0.042319875 -0.024520315 0.02699448
0.021151684 -0.014739587 0.042820327 -0.028160352 0.041506317 -0.0033912628 0.041123323 0.014356522
0.06768852 0.062692836 0.0463656 -0.03194439 -0.027327709 -0.042184684 0.04889675 0.0028333091
-0.040752627 0.028680773 -0.014709471 0.051591482 0.004716652 0.0383542 -0.06036982 0.046344534
0.07449406 0.064082704 0.03054333 0.022324534 -0.01959495 0.022115715 -0.031732 -0.018984297
-0.04627302 -0.0121858725 -0.043389197 -0.0076342183 -0.0264019 0.049961183 0.039160542 -0.029751452
-0.03338382 0.052642472 0.035708293 -0.05966314 -0.054451276 -0.061706714 -0.0081896605 -0.02500908
0.04778566 0.035454262 -0.025482047 -0.020932795 -0.019398842 -0.009080594 -0.021312378 0.06774245
-0.033300772 0.009783954 -0.03744197 0.043426692 -0.05727779 0.009900276 0.039773773 -0.018090393
-0.010554985 -0.06592851 -0.040235274 0.017101651 -0.043098856 -0.0032396177 0.05547278 0.023137858
0.053326134 -0.02369647 -0.04346568 0.008397939 0.0113341985 -0.04568342 -0.037277393 -0.05010147
-0.012544191 0.020103032 0.02453338 -0.053933665 -0.04045575 -0.046044536 0.043151643 -0.0125901485

fc1.bias f4 [100]
00000000: e546 3a3d 04f8 fc3c 087b 82bb 2101 303a
00000010: 6624 04bd 3073 ae3a 653f 803c 83c0 7e3d
00000020: 6725 bd3d e318 31bd dfa8 623d 8a4f 703d
00000030: 0460 773d 741a 253d 950d dd3c f22b 62bd
00000040: 9322 9dbc f427 8a3d 5c22 54bd 3dc0 00bc
00000050: 8d5b fa3c 7da9 b5bc fb4f 733c f2da 59bd
00000060: ff57 2abd 328e 313c 1ff7 8b3d eb29 373d
00000070: 6673 b7bc d53c 17bd eaae e3bc 2dc5 883c
00000080: 1aa2 6b3d 3bc8 8dbd dfac ae3d 1aa7 c3bc
00000090: 0887 7ebb 7d8d 343b 2013 83bd d31b e13c
000000a0: 51a2 d73d ac4c bf3b 1054 3c3d d03c ac3d
000000b0: cb67 173d 06a8 773d c293 253d 34da b33d
000000c0: afad 8b39 10d4 94bd ad95 233c 147e 183d
000000d0: 1758 383d 31a5 163c c165 0e3c 5bb1 a93d
000000e0: b20c c33b 832a 133d d573 fb3b 4629 973d
000000f0: 2678 10bd b38f 04bd 9086 ecbc 6a87 f43c
00000100: e439 973c 0dbe e63d efb3 3fbc 8571 0dbd
00000110: 1b78 843d 4744 7a3d a1aa 53bd 93fa eabc
00000120: 6a28 35ba 11fc b63d 3c40 7cbd ef72 0fbc
00000130: a3af 5f3d 0b29 023d 5486 72bc 7e80 08bd
00000140: bde9 783c e0b2 fc3c a2a9 e73d 088d b63c
00000150: e665 363d 1ec6 3a3a ce34 af3d a242 0b3d
00000160: 5902 ac3d 03f9 5fbd ea61 bebc 2a6e bb3c
00000170: 1423 22bd e277 d03c 0cd3 6a3d 4da6 f13c
00000180: dad5 343d 9ef6 2f3d aa85 4cbd eb95 5e3d
0.045477767 0.030879982 -0.0039819516 0.00067140354 -0.032261275 0.0013309475 0.015655229 0.062195312
0.092356496 -0.043236624 0.05533683 0.058669604 0.060394302 0.04030843 0.026984015 -0.05521769
-0.019181525 0.06745902 -0.05179058 -0.007858333 0.030561233 -0.022175545 0.014850612 -0.05318732
-0.041587826 0.010837125 0.06834244 0.04471771 -0.022393893 -0.03692325 -0.027793366 0.016695583
0.05752764 -0.069229566 0.08529066 -0.023883391 -0.003883781 0.0027550154 -0.06400132 0.027479088
0.10529006 0.0058379974 0.045978606 0.084100366 0.03696422 0.060462974 0.040424116 0.08781853
0.0002664155 -0.0726701 0.009984416 0.037229612 0.045005884 0.009194658 0.008691252 0.08285781
0.005952441 0.035929214 0.0076737204 0.07380919 -0.035270832 -0.032363605 -0.028872758 0.029849727
0.018460222 0.11266718 -0.011700614 -0.03453209 0.06468221 0.06110027 -0.051676396 -0.028683936
-0.0006910624 0.089347966 -0.061584696 -0.00875543 0.05461086 0.031777423 -0.014802534 -0.033325665
0.015192446 0.030847013 0.11311652 0.022284046 0.04453077 0.00071248587 0.085549936 0.033999093
0.08398885 -0.054680835 -0.023240048 0.022879679 -0.039584234 0.02544779 0.057330176 0.029498244
0.044149257 0.0429598 -0.04993216 0.05434219

fc2.weight f4 [10, 100]
00000000: de3c 4d3c 0767 26be 9be1 5fbe 352d bd3d
00000010: de36 fd3d 605f 01be f13c 963d 96fe 133e
00000020: 698f f5bd 0c8d 0e3d 7201 093e 707b 2e3e
00000030: 3c2d 3cbe 623a 233d 1c9e 5dbd fe37 1b3d
00000040: 6dfe 0dbe 3b3e f63d 5f53 abbc 7903 7c3d
00000050: f6f9 25be a853 0f3c e46c 003e d5cd 5bbe
00000060: 78dd e0bd 9820 1e3e 5b05 9e3b 9bf2 58bd
00000070: ac04 edbd 32bc 1b3d b106 03be 9022 61be
00000080: 8fb2 7e3d 6733 873e bdba 8b3d 8b98 a63d
00000090: 82e2 333e c7da 17be 0fea 2bbe 77f7 ffbc
000000a0: 033d ab3e 2f54 0b3e a810 27be 131e cb3d
000000b0: fead 4bbd cdcd 44be 9618 2ebd f2fa 7abe
000000c0: c11f 093e bfcc 0f3d 3ec0 25be d665 dfbd
000000d0: 47f5 2abe 2864 fb3d c3b5 e33d cac8 debd
000000e0: 101e 293d 072c 28be 5e6a 9f3d 8bac 293d
000000f0: df8c 4abd 7d66 00be d2d3 2ebd 59fb a8bc
00000100: 27e1 023e e4d0 703e 803e 7cbd c429 b83d
00000110: 8fcd 82bc 7cbd 3dbd eaaf 15be 5693 103c
00000120: 11c0 98be dad4 913d 3c71 88be f8eb 763c
00000130: 1798 0e3e 82cc 7cba f7c5 21be e013 30be
00000140: 7ef5 62be 8a16 2e3d c894 f6bd c738 4cbe
00000150: dfc8 01be 3427 133e 1260 e33d 5fcc de3d
00000160: 7f3f 113e 0cc7 32bd 4133 5abc c801 45be
00000170: 87a9 ecbd 9215 ea3d d41c 493e 6fef 02be
00000180: adc7 e13d d53b 993d 3843 92bd f2d5 83be
00000190: 04d8 423d b660 023e c077 7dbc aaae 0ebe
000001a0: d616 16be b6d8 f43d c3d0 1ebc b636 dcbb
000001b0: f6cd 0e3d 5e00 233e 1d4d 57bd c70f 1ebe
000001c0: a746 b23d 5b52 c13d e747 65bd 2ed8 a4bd
000001d0: f0b6 0b3d 5fa3 52be a32c 1b3e 535b 5bbe
000001e0: df41 543c 3e07 3c3d 2f2b bb3d a7c7 19be
000001f0: 410c 813c bcd2 23be 389a 19be dda7 fb3d
00000200: 06c1 8fbd ddc4 7f3c b022 ae3d 6c6d 4dbe
00000210: e7ec 18be 899f 25bd d932 43be 95fe 44be
00000220: 73c5 51be 1dab 96bd 3b9a 12bc 1be5 14bd
00000230: dbae 59bd 64b3 bc3c fb4c e53d 8550 d4bb
00000240: 645b ac3b 7ac5 083e da04 0f3e 0b4f 0fbe
00000250: 9776 2fbe 09ab cd3c ec25 2c3e 9481 133d
00000260: f87e 4dbe 5ad5 0d3e e98e 6d3b f802 19be
00000270: a0e8 5c3d caa5 0e3d 0414 4bbe 2d32 0bbd
00000280: 19cc 8e3d 5d60 74bb 623a b4bd e7f0 86bc
00000290: 14ad b8bd f801 bdbd 1de4 233c 6d53 69be
000002a0: 22e8 d33d b8be b0bc 08a6 263e 2718 15be
000002b0: 74cd c8bd ce14 5cbe 01da 13be 0f86 2e3e
000002c0: 2ef5 1ebe 0eda 163e c7c8 33be 1fc0 ec3d
000002d0: cdd7 68be 22aa e5bd 0692 79bd 435f b83d
000002e0: 3e3f 90bd 9875 dfbd 5645 19be 78d0 e33d
000002f0: 1bfd b2bd e2dc d53d 5529 4b3d 93b3 57be
00000300: 3a45 9cbd 5b4d 0dbe 6390 b9bc 31f0 9dbd
00000310: 9712 6bbe d8f7 74be c3a7 c43d 6484 11be
00000320: b620 cc3c 9e1a 06bb 19fb 50bd 1043 d23d
00000330: 1043 e0bd 4c84 ac3a 56d5 d9bd 303c debd
00000340: ff3b 963c a0f8 e3bd a3df 123e 9e09 3cbe
00000350: fda1 e6bd 1b7b 0fbe caac 17be 3590 983d
00000360: 834a 843d d09c a1bd fdfb 58bd 4501 0abe
00000370: 40bc 25be bac7 1ebe ec4b 62bb 0144 483d
00000380: ef05 463e 512c 13be a8f3 89bc 69d5 37be
00000390: 1320 b23b 057f 943e eb1c c03d d43f 39bd
000003a0: 4029 b1bd 22da 02be 6b89 a03a b12a 80bd
000003b0: 448c 0fbe f268 553a b9b9 dc3d 892d b7bd
000003c0: 20d0 7cbe adcf 923d 48c9 b93d e34c c13d
000003d0: 1191 123d 4da5 923e 8621 78be b9f2 e53d
000003e0: a847 743b 93f3 7dbe a553 a5bd 2a91 223e
000003f0: 5c95 163e f962 8dbd ea81 5dbc 77d6 ffbd
0.012526719 -0.1625024 -0.21863405 0.09237138 0.12363981 -0.12634039 0.073358424 0.14452586
-0.11990244 0.03480248 0.13379458 0.17039275 -0.1837663 0.0398506 -0.054105863 0.037895195
-0.13866587 0.12023588 -0.020913778 0.06152675 -0.16208634 0.008747973 0.12541538 -0.21465237
-0.10979742 0.15442121 0.0048224158 -0.05296574 -0.11573157 0.038021274 -0.12795521 -0.21985841
0.062182005 0.26406404 0.06822727 0.08134564 0.17566875 -0.1482955 -0.16788505 -0.03124593
0.33444986 0.13606332 -0.16314948 0.099178456 -0.04972648 -0.19219132 -0.042503916 -0.2450979
0.1339102 0.03510737 -0.16186616 -0.109080955 -0.16695128 0.12274963 0.11118653 -0.10878141
0.041288435 -0.16423045 0.0778396 0.041424315 -0.04945075 -0.12539096 -0.042682476 -0.020627664
0.12781201 0.23517185 -0.061583042 0.08992341 -0.015967159 -0.046323285 -0.14617887 0.00882419
-0.29834035 0.07120676 -0.2664889 0.015070908 0.13925205 -0.0009643511 -0.15798174 -0.17195082
-0.2216396 0.042501964 -0.120400965 -0.19943534 -0.12674282 0.14370424 0.11102308 0.108788244
0.14184378 -0.043646857 -0.013317884 -0.1923896 -0.11555772 0.114298955 0.19639903 -0.12786649
0.11024413 0.07482115 -0.07141727 -0.25749165 0.04756929 0.12732205 -0.015470445 -0.13933817
-0.14657149 0.11955397 -0.009693327 -0.0067203892 0.03486439 0.15918109 -0.052563775 -0.15435706
0.08704882 0.09439536 -0.055976775 -0.080490455 0.03411001 -0.20570134 0.15153746 -0.21421556
0.012955158 0.045905344 0.09139096 -0.15017568 0.015752913 -0.15998358 -0.15000236 0.12287877
-0.07019238 0.015610901 0.0850271 -0.20061272 -0.14934121 -0.040435348 -0.19062366 -0.1923774
-0.20485477 -0.07356856 -0.008947904 -0.036351305 -0.05314527 0.023034759 0.111963235 -0.0064793252
0.005259918 0.13356581 0.13966694 -0.13994996 -0.17135082 0.02510597 0.16811341 0.036012247
-0.20067966 0.13850918 0.0036248511 -0.14942539 0.053932786 0.034826078 -0.19831854 -0.0339834
0.06972522 -0.0037288882 -0.08800198 -0.016472293 -0.09017387 -0.09228891 0.010003117 -0.2278573
0.1034701 -0.021575317 0.16274273 -0.14559995 -0.09804812 -0.21492311 -0.1443863 0.17043327
-0.15523216 0.14731619 -0.17557059 0.11560082 -0.22738571 -0.11214091 -0.060930274 0.09002545
-0.070433125 -0.10911101 -0.14967856 0.11123747 -0.08739682 0.10442521 0.049599964 -0.21064596
-0.076303914 -0.1379904 -0.022651857 -0.077118285 -0.2295631 -0.2392267 0.096023105 -0.1421066
0.024917942 -0.0020462642 -0.051020715 0.102666974 -0.10950291 0.0013161986 -0.10636394 -0.108513236
0.018339155 -0.11131406 0.14343123 -0.18363044 -0.112613656 -0.14011805 -0.14812008 0.0744938
0.064595245 -0.07891238 -0.05297469 -0.13477047 -0.16185093 -0.15505877 -0.0034530116 0.04889298
0.19338201 -0.14372374 -0.016839817 -0.17952503 0.0054359525 0.29003158 0.09380516 -0.045226887
-0.08650446 -0.12778524 0.0012247985 -0.06258143 -0.14018351 0.0008140943 0.10777611 -0.08944232
-0.24688768 0.07168517 0.090715945 0.09438493 0.035782877 0.2864174 -0.24231538 0.11227936
0.0037274156 -0.24799947 -0.080725946 0.15875688 0.14705414 -0.06903643 -0.013519743 -0.12492078

fc2.bias f4 [10]
00000000: b6ae ad3b 1536 a3bd 354c a5bc 3ccd dabc
00000010: 5de6 903d 15c3 883d 4b2a a339 4b35 ce3c
00000020: 100b 55bb 64ad 36bd
0.005300368 -0.079693 -0.02017794 -0.026709192 0.07075188 0.06677834 0.00031121293 0.025171896
-0.0032507814 -0.044598952

exp_avg f4 [100, 256]
00000000: 88b3 1f2b 0034 1f2b 33fd 172b b254 f02a
00000010: 374f 5e2a a876 1ca9 93de 62a9 2ad8 592a
00000020: 4726 f92a f009 1a2b 1267 1f2b 23b5 1f2b
00000030: 20b6 1f2b 20b6 1f2b 20b6 1f2b 20b6 1f2b
00000040: 4592 1f2b fc14 1c2b 99f5 f72a 9b06 f929
00000050: ed00 8baa b9dc f1aa 8878 f3aa 1389 7daa
00000060: 0992 3a2a e76a 042b 3e97 1d2b faa7 1f2b
00000070: 00b6 1f2b 20b6 1f2b 20b6 1f2b 20b6 1f2b
00000080: 6e97 1e2b bc5f 0e2b 7535 842a 55b9 83aa
00000090: cd08 0bab fe88 1aab 198f 17ab 8a7c 02ab
000000a0: b665 40aa 6de6 a42a 16b4 132b 2517 1f2b
000000b0: 60b4 1f2b 20b6 1f2b 20b6 1f2b 20b6 1f2b
000000c0: 6f90 1a2b 00aa da2a 7e28 54a9 d908 f4aa
000000d0: 34c4 1aab cc90 11ab 5f30 f9aa 0d93 02ab
000000e0: 7d4d d0aa 81bc 3e29 2262 f72a bc76 1d2b
000000f0: 33af 1f2b 20b6 1f2b 20b6 1f2b 20b6 1f2b
00000100: 68f6 152b 9472 a52a 6e01 78aa a579 0cab
00000110: 91cd 10ab 5bf6 c3aa 02ba 26aa 4626 aaaa
00000120: 2113 f0aa 15be 20aa f691 cc2a 6ebe 1b2b
00000130: b8a5 1f2b 0cb6 1f2b 20b6 1f2b 20b6 1f2b
00000140: d7f1 192b 7005 d02a bbf5 7fa9 f7a7 afaa
00000150: bae8 96aa 6d09 31a7 6450 222a 4588 61aa
00000160: ebff f6aa 2435 65aa 2ba3 bc2a 6ad1 1a2b
00000170: 589c 1f2b f5b5 1f2b 20b6 1f2b 20b6 1f2b
00000180: a75f 1e2b b5b4 0e2b 25ef b92a d382 3d2a
00000190: 33dd 762a 1d9e c52a 31c1 812a 5210 87aa
000001a0: 96ad f1aa b1b9 13aa 0283 cf2a c2d8 1b2b
000001b0: 0ba6 1f2b 0cb6 1f2b 20b6 1f2b 20b6 1f2b
000001c0: e395 1d2b c96a 102b eadd de2a 204e a82a
000001d0: 5788 b62a f01f b72a 711b 7229 a306 ccaa
000001e0: ae84 deaa 0d87 b728 8ff5 f32a a053 1d2b
000001f0: e7a9 1f2b e8b2 1f2b 04b5 1f2b 00b6 1f2b
00000200: bae9 0e2b c475 ae2a d88f e028 6a91 11aa
00000210: debd eea9 c074 c9a9 a99c a1aa db3e 07ab
00000220: 0606 c2aa 526a 362a 3ffa 072b 0be8 1b2b
00000230: 89fc 1d2b 1d98 1e2b 314b 1f2b 63a3 1f2b
00000240: 5d8e bd2a 7815 81a9 f6f9 bbaa a438 e2aa
00000250: a41c f7aa ec37 ffaa 61fc 0eab 70b8 16ab
00000260: 5a98 d2aa e3f7 6029 bfbd b42a 25a3 e82a
00000270: d9f9 022b c0a4 0b2b b443 162b 009e 1c2b
00000280: f867 ab29 b66c b9aa 1a86 e1aa c73e b4aa
00000290: 2096 03ab 8a4a 1aab cd46 17ab fa8e 10ab
000002a0: 2ad9 03ab 39bf b9aa 2d2c 36aa 6f36 e5a8
000002b0: c525 d929 078a 462a 5d89 a72a 0bc3 f02a
000002c0: 5c54 f8a9 410a f7aa af02 e8aa 34a3 b7aa
000002d0: 55ba 04ab d8f3 0eab 0d41 d3aa 98d2 8faa
000002e0: 381b a1aa f5bb dcaa 76f5 f3aa 6de8 e9aa
000002f0: 756d d1aa 7200 b6aa dcb2 4daa a367 f829
00000300: 133a 39aa b8e0 07ab e6a3 10ab 367e 09ab
00000310: a0cf 0bab 6c7c bfaa 52ec 6528 fce8 8e2a
00000320: 3525 702a 183b 93a8 8b76 75aa 05b9 b7aa
00000330: 25bd c6aa 9d9b b8aa ae34 6eaa 1482 8d29
00000340: 4c29 f6a9 3020 03ab eb18 1bab d1b1 12ab
00000350: 4005 cdaa 1147 7ca8 5ae3 c72a 89ef 102b
00000360: d547 0e2b b866 e92a 1961 ab2a bea5 542a
00000370: a327 232a f3fd 3d2a 6373 932a 1178 db2a
00000380: 73d9 a229 3639 b7aa 0f6d 00ab f8ca c1aa
00000390: a616 eda8 e003 bc2a 9e6f 122b ce69 1e2b
000003a0: d2bf 1e2b 07c6 1c2b dc63 172b 4f10 0d2b
000003b0: ba8e 082b 0be8 0a2b 4862 132b c7f2 1a2b
000003c0: 8f71 c22a ef68 2829 b3cf d5a9 9116 8829
000003d0: de1e bf2a b704 112b ec51 1e2b 71a7 1f2b
000003e0: 34b3 1f2b 68a9 1f2b b85f 1f2b 31b1 1e2b
000003f0: cf62 1e2b 7c8b 1e2b 091c 1f2b 728e 1f2b
5.6737297e-13 5.656031e-13 5.399736e-13 4.2691333e-13 1.9745044e-13 -3.4741876e-14 -5.0375133e-14 1.9348469e-13
4.4257846e-13 5.472558e-13 5.6631186e-13 5.6739525e-13 5.6740897e-13 5.6740897e-13 5.6740897e-13 5.6740897e-13
5.6691137e-13 5.5451455e-13 4.4046432e-13 1.1058967e-13 -2.4692002e-13 -4.2963357e-13 -4.3249107e-13 -2.2518471e-13
1.6570785e-13 4.704418e-13 5.5987495e-13 5.672126e-13 5.6740723e-13 5.6740897e-13 5.6740897e-13 5.6740897e-13
5.6343027e-13 5.058139e-13 2.3485004e-13 -2.3398875e-13 -4.9394934e-13 -5.4901906e-13 -5.3844564e-13 -4.635811e-13
-1.7088314e-13 2.9292142e-13 5.247481e-13 5.6520267e-13 5.673847e-13 5.6740897e-13 5.6740897e-13 5.6740897e-13
5.491223e-13 3.884254e-13 -4.7108578e-14 -4.3349246e-13 -5.4984077e-13 -5.1715294e-13 -4.426485e-13 -4.638935e-13
-3.700199e-13 4.2351976e-14 4.3944107e-13 5.594238e-13 5.6731285e-13 5.6740897e-13 5.6740897e-13 5.6740897e-13
5.327739e-13 2.9389392e-13 -2.2027321e-13 -4.9906807e-13 -5.144436e-13 -3.4809902e-13 -1.4808296e-13 -3.0224624e-13
-4.2645837e-13 -1.4276803e-13 3.633896e-13 5.5331336e-13 5.671813e-13 5.674079e-13 5.6740897e-13 5.6740897e-13
5.469214e-13 3.6951995e-13 -5.683451e-14 -3.1202794e-13 -2.680684e-13 -2.4568794e-15 1.4416382e-13 -2.0031292e-13
-4.3875957e-13 -2.0357723e-13 3.350873e-13 5.500241e-13 5.670512e-13 5.6740664e-13 5.6740897e-13 5.6740897e-13
5.626562e-13 5.0699316e-13 3.3028541e-13 1.6831961e-13 2.1925933e-13 3.5103943e-13 2.3049057e-13 -2.3992142e-13
-4.293065e-13 -1.3120647e-13 3.6861492e-13 5.5367874e-13 5.671858e-13 5.674079e-13 5.6740897e-13 5.6740897e-13
5.5985614e-13 5.130727e-13 3.9589106e-13 2.9897005e-13 3.24243e-13 3.252949e-13 5.3758596e-14 -3.6242285e-13
-3.9527187e-13 2.037565e-14 4.3335862e-13 5.589366e-13 5.6723934e-13 5.673643e-13 5.6739357e-13 5.6740723e-13
5.0772895e-13 3.0990325e-13 2.4931378e-14 -1.2929038e-13 -1.060226e-13 -8.946446e-14 -2.870805e-13 -4.8048864e-13
-3.4465502e-13 1.6201735e-13 4.830892e-13 5.5389086e-13 5.612807e-13 5.6343976e-13 5.6592497e-13 5.671489e-13
3.3671929e-13 -5.732475e-14 -3.3391318e-13 -4.0184967e-13 -4.3895887e-13 -4.5335903e-13 -5.079878e-13 -5.3546664e-13
-3.740921e-13 4.9953e-14 3.2106086e-13 4.1324683e-13 4.653201e-13 4.9611357e-13 5.338466e-13 5.56416e-13
7.611961e-14 -3.2938035e-13 -4.006108e-13 -3.2017984e-13 -4.674889e-13 -5.4815234e-13 -5.374423e-13 -5.1357497e-13
-4.6841925e-13 -3.299529e-13 -1.6180174e-13 -2.5447714e-14 9.643288e-14 1.763382e-13 2.9760474e-13 4.2767902e-13
-1.10280464e-13 -4.388313e-13 -4.121334e-13 -3.2620575e-13 -4.715441e-13 -5.0786935e-13 -3.7526267e-13 -2.5548032e-13
-2.8618232e-13 -3.9210272e-13 -4.3335794e-13 -4.1550392e-13 -3.720181e-13 -3.2330003e-13 -1.8269712e-13 1.10313905e-13
-1.6451449e-13 -4.8273495e-13 -5.138653e-13 -4.884733e-13 -4.967086e-13 -3.401475e-13 1.27632974e-14 2.5385933e-13
2.1329191e-13 -1.6345906e-14 -2.1801499e-13 -3.2635713e-13 -3.530311e-13 -3.2792944e-13 -2.1156923e-13 6.284223e-14
-1.09317584e-13 -4.658522e-13 -5.510164e-13 -5.211639e-13 -3.6418958e-13 -1.400422e-14 3.5507258e-13 5.14915e-13
5.054822e-13 4.146039e-13 3.0443077e-13 1.8886886e-13 1.449106e-13 1.6874678e-13 2.619251e-13 3.8985528e-13
7.2319666e-14 -3.2547028e-13 -4.5626084e-13 -3.4424525e-13 -2.6322108e-14 3.3398197e-13 5.202452e-13 5.627971e-13
5.639908e-13 5.569715e-13 5.378456e-13 5.0115896e-13 4.851498e-13 4.9349473e-13 5.2361284e-13 5.504871e-13
3.454012e-13 3.739451e-14 -9.49513e-14 6.043528e-14 3.3949834e-13 5.152089e-13 5.6246566e-13 5.672052e-13
5.673684e-13 5.6723246e-13 5.6620984e-13 5.637878e-13 5.627e-13 5.632645e-13 5.6527054e-13 5.668583e-13

exp_avg_sq f4 [100, 256]
00000000: 9f93 2c32 eba2 3e32 4033 5a32 0fd3 5932
00000010: a8bc 0632 5d86 6031 1783 4e31 168f 9b31
00000020: 3e4c 6f31 99e0 4531 1d36 be31 a55a 7332
00000030: 7c66 a332 d418 7e32 8966 1b32 9cae 0732
00000040: 1cf8 2432 98fb 3332 8d2c 6632 19f2 8832
00000050: 32ad 4f32 c787 9231 04e0 1b31 a619 3331
00000060: fc85 2031 1f3c 2c31 893e fd30 56af f931
00000070: 545e ab32 fb14 a232 04ca 3132 1157 f631
00000080: 2e66 1732 78e3 1932 bc1c 3a32 c287 7232
00000090: fa78 0e32 3ad3 d530 bdd5 a130 ba13 2c31
000000a0: 3581 8431 1c91 9531 ad6b c831 ab4f 8031
000000b0: c24c 3a32 c091 6132 7c68 0e32 9bea de31
000000c0: e7bb f631 f5df cd31 fb26 f731 51dd 1432
000000d0: f263 6831 e7dd af30 2ef9 2031 c33d 5d31
000000e0: 19fe 8631 da3d f131 648b 4132 3c48 7e31
000000f0: eb65 ff31 d83a 1d32 cb24 e631 bd4f df31
00000100: b4ac c731 6702 8331 2458 b731 865c ab31
00000110: 6f7b 0131 0ded 2f31 8640 8a31 c1ae 9b31
00000120: 0bcb f831 6bc7 6632 6ade 1f32 41ff 1f31
00000130: 6a32 1932 562b 0832 2f02 e831 951c f431
00000140: 1648 bc31 b0dd 8231 dfe1 a431 0171 2431
00000150: 6f21 e730 4fa9 d631 3107 7732 f3d5 b232
00000160: 8eea dd32 8839 c532 2b6e 8631 bc6b d131
00000170: 83be 4e32 d248 0a32 0302 f431 7c72 0032
00000180: 852b c131 8461 9331 ec33 9831 ff5c 0e31
00000190: 78f8 5231 bb4a 2232 ab2d b932 364f 0a33
000001a0: 6012 1933 aece ca32 1789 6531 df48 b331
000001b0: 20db 1532 d8f2 ff31 0860 f531 dd98 0432
000001c0: 83e2 c831 df93 a431 d370 a531 3199 6e31
000001d0: 9a74 5231 fa2e e231 1348 4e32 9b7a 7d32
000001e0: a6e9 6532 0d49 ea31 e166 3131 f928 4131
000001f0: 2e85 5c31 81c1 7331 36dd bf31 3c78 0b32
00000200: 652f c431 f453 9d31 4c5c a731 cc36 9a31
00000210: a565 6331 f735 6631 ae76 8131 2c3d 2f31
00000220: ed59 3831 a9b9 0932 5860 8d31 594e c531
00000230: 9ce0 7e32 d711 9831 1e28 8731 d885 0a32
00000240: cf29 ac31 d43b 7831 fc83 9431 61c6 9931
00000250: 0ead 8a31 efa0 8131 3095 9231 2fca f131
00000260: a0e3 a832 83ee 1c33 1c82 8632 28fc 4d31
00000270: c935 d532 57f3 6532 e6da 5a31 75c4 f431
00000280: 8f72 a631 1fd7 7931 294b 9b31 cc80 9331
00000290: 7b49 8731 55b9 a031 722b 0132 e321 9e32
000002a0: c261 3a33 d94a 5b33 0fec 9332 025c 0d31
000002b0: 3e12 c932 8bd7 b032 b756 9d31 9dd6 ce31
000002c0: 15fe a731 551a 8b31 12f4 e731 cd7f bf31
000002d0: 8279 8031 79cc b931 33ae 3832 075f 0033
000002e0: 02e9 6733 025b 2c33 8038 1e32 4b2a 5831
000002f0: 177d a532 b653 b832 0b30 f631 1e18 bf31
00000300: 4735 b831 4a15 9531 2140 4632 6b85 7d32
00000310: a3ce fc31 34e2 a931 fb44 3932 4dce 0c33
00000320: 8bbb 3233 f4e5 9432 ffa0 1f31 0779 0632
00000330: 1b7c a732 f124 b332 a792 1f32 ff60 cf31
00000340: db20 e631 905c 8f31 7f1d 3e32 b068 d132
00000350: 7338 b432 e247 2832 6ca1 9e31 7b1e 6f32
00000360: 221c 1b32 0d1e bd30 462e 2e32 c521 b432
00000370: 0ab0 d632 32ea 9e32 d298 1632 3190 ef31
00000380: 44a5 1032 3473 bf31 dc27 8c31 177c 7932
00000390: 0ee6 e532 a549 c532 2d44 0232 8414 4c31
000003a0: 31a5 f831 204e d232 a77d 0e33 5dd4 f032
000003b0: 4987 9d32 9a49 2232 62e4 db31 7338 0832
000003c0: 75b0 1d32 ffbf 0a32 07f3 a731 c03e 5331
000003d0: d7c8 bf31 77b1 0432 e114 ae31 cbcb c631
000003e0: b009 5e32 96cc b132 d243 9532 c9c8 2632
000003f0: bf1c aa31 9b0c 9f31 a3d8 ef31 94b4 1732
1.0045283e-08 1.1096499e-08 1.2700923e-08 1.2679052e-08 7.842722e-09 3.2672667e-09 3.0051461e-09 4.5273607e-09
3.4822416e-09 2.8794942e-09 5.5358798e-09 1.4165072e-08 1.9022302e-08 1.4790391e-08 9.045501e-09 7.897736e-09
9.60247e-09 1.0476377e-08 1.3397892e-08 1.5942577e-08 1.2088366e-08 4.2645953e-09 2.2682807e-09 2.6062508e-09
2.3359226e-09 2.506347e-09 1.8425946e-09 7.266787e-09 1.9949915e-08 1.8868823e-08 1.0348689e-08 7.1694406e-09
8.81259e-09 8.9574925e-09 1.0833158e-08 1.4117122e-08 8.292995e-09 1.5557824e-09 1.177504e-09 2.5040507e-09
3.8563948e-09 4.3529678e-09 5.8330074e-09 3.7343475e-09 1.0844078e-08 1.3129863e-08 8.289245e-09 6.487722e-09
7.1809043e-09 5.991746e-09 7.1930777e-09 8.665055e-09 3.3817256e-09 1.2795994e-09 2.3424707e-09 3.219484e-09
3.928801e-09 7.021055e-09 1.1265772e-08 3.7002925e-09 7.4330635e-09 9.151982e-09 6.698064e-09 6.4992194e-09
5.8112963e-09 3.812875e-09 5.3360214e-09 4.9872737e-09 1.8842135e-09 2.56006e-09 4.023664e-09 4.530961e-09
7.2408333e-09 1.3433104e-08 9.305589e-09 2.328264e-09 8.917235e-09 7.926095e-09 6.752337e-09 7.104584e-09
5.4797153e-09 3.808701e-09 4.7987068e-09 2.3929376e-09 1.6816964e-09 6.247468e-09 1.4378927e-08 2.081922e-08
2.583445e-08 2.295998e-08 3.912438e-09 6.0949485e-09 1.20340955e-08 8.049215e-09 7.1015633e-09 7.476611e-09
5.621987e-09 4.2893493e-09 4.429685e-09 2.0716582e-09 3.070026e-09 9.446633e-09 2.1557602e-08 3.220267e-08
3.56398e-08 2.3609882e-08 3.3401812e-09 5.21787e-09 8.722765e-09 7.449085e-09 7.141356e-09 7.718168e-09
5.8465175e-09 4.789839e-09 4.8149587e-09 3.4720637e-09 3.0625302e-09 6.5828063e-09 1.2007166e-08 1.47544155e-08
1.338268e-08 6.8186012e-09 2.581537e-09 2.8108487e-09 3.2089917e-09 3.5471148e-09 5.5839804e-09 8.118203e-09
5.709739e-09 4.5788457e-09 4.8708326e-09 4.4882196e-09 3.3090626e-09 3.350008e-09 3.7678864e-09 2.5500624e-09
2.682664e-09 8.016664e-09 4.114593e-09 5.7423617e-09 1.4835816e-08 4.4258104e-09 3.933578e-09 8.06309e-09
5.010612e-09 3.6122758e-09 4.322372e-09 4.475439e-09 4.0360026e-09 3.77269e-09 4.26612e-09 7.0370088e-09
1.9661286e-08 3.6538506e-08 1.565882e-08 2.997476e-09 2.4820922e-08 1.3384883e-08 3.1847605e-09 7.123669e-09
4.8442597e-09 3.635655e-09 4.5196384e-09 4.2929056e-09 3.937371e-09 4.6776827e-09 7.518667e-09 1.840903e-08
4.339541e-08 5.1057985e-08 1.72204e-08 2.05705e-09 2.3407775e-08 2.0587114e-08 4.5791597e-09 6.019788e-09
4.8892255e-09 4.048426e-09 6.7507324e-09 5.573361e-09 3.739104e-09 5.4074545e-09 1.0749818e-08 2.988875e-08
5.3995798e-08 4.0129642e-08 9.209657e-09 3.1456178e-09 1.9265412e-08 2.1458487e-08 7.165004e-09 5.5615734e-09
5.3611617e-09 4.338891e-09 1.1539698e-08 1.4756874e-08 7.357657e-09 4.9442637e-09 1.0784102e-08 3.278392e-08
4.1614424e-08 1.7334038e-08 2.322906e-09 7.827345e-09 1.9497795e-08 2.0855142e-08 9.288363e-09 6.03552e-09
6.6976162e-09 4.172371e-09 1.1066162e-08 2.4378409e-08 2.0980428e-08 9.795231e-09 4.6167568e-09 1.3918561e-08
9.028584e-09 1.3760101e-09 1.0138654e-08 2.0970115e-08 2.4992932e-08 1.850012e-08 8.7658965e-09 6.972208e-09
8.41948e-09 5.5719287e-09 4.0790678e-09 1.4521922e-08 2.6763725e-08 2.2967308e-08 7.582497e-09 2.9697569e-09
7.23653e-09 2.4482745e-08 3.317623e-08 2.8036249e-08 1.8338726e-08 9.446376e-09 6.399703e-09 7.929077e-09
9.1787244e-09 8.076312e-09 4.8879687e-09 3.074021e-09 5.5816645e-09 7.723762e-09 5.06644e-09 5.785727e-09
1.2924303e-08 2.0698547e-08 1.7376724e-08 9.708125e-09 4.9509192e-09 4.628942e-09 6.9804442e-09 8.8304155e-09

exp_avg f4 [100]
00000000: 20b6 1fab ef1f 35b8 192a 3239 b1a6 283a
00000010: f0d6 fab9 26b0 1a3a ac7f 7d39 246c 08b8
00000020: 597a 3e38 9d77 9a38 9217 443a 20e2 8fb8
00000030: 4c73 0dba a92e 8db7 0bb5 0fb9 4587 2d39
00000040: 6c28 8fb7 93e2 91b9 2e51 f539 c4a7 5aba
00000050: 938b 9239 37ff 49ba b170 5538 679e 61b8
00000060: 1161 a239 b23a 37ba c852 c7b9 94b7 69ba
00000070: 15ab ee37 0c62 6cb8 45de c239 ab1b fab8
00000080: 42c5 11ba 89a5 d639 d5c2 04b9 0ffd b438
00000090: 2b59 39ba a18e 88b9 d73c bc38 347a 8d38
000000a0: 141a 6038 dd3d 503a cf18 4737 02df 663a
000000b0: 1834 163a bd42 8038 071d ceb9 ffd1 ce39
000000c0: 743a b339 d944 15ba f9dd cab9 b091 063a
000000d0: 31a3 463a eff2 c2b8 f34f af39 e489 fe39
000000e0: 86ce 7138 6bf5 9139 72c2 0b3a 6006 2b3a
000000f0: 0400 0000 0e10 94b8 5ee4 f21b 0400 0000
00000100: 2165 2f39 1883 4b3a 6cb9 ac3a 50a4 acb9
00000110: 6f81 1639 d69e 173a b10d 7cb8 47e4 e4b9
00000120: 7223 4bba 02de 2a3a 2f4e 11b8 aa98 4e38
00000130: f34c 3539 7040 e1b8 256b 70b9 2b32 b5b9
00000140: 300e 1fb8 598b 9a39 dd21 133a 29d6 d8b6
00000150: 46e8 baba f159 1a3a 0c1a e739 9849 5e38
00000160: c4a4 9939 ba09 d238 66c0 eb39 ebd9 ea39
00000170: d6d4 72b9 3347 f239 d249 013a af70 0739
00000180: f85a 313a 3455 8239 7284 b3b9 79a3 9f39
-5.6740897e-13 -4.3183503e-05 0.00016991085 0.00064335304 -0.00047843857 0.0005900882 0.00024175522 -3.252564e-05
4.5413475e-05 7.365572e-05 0.0007480319 -6.8608904e-05 -0.0005395904 -1.6830238e-05 -0.00013704986 0.00016548958
-1.7065751e-05 -0.00027825366 0.00046790525 -0.0008341039 0.0002795128 -0.00077055715 5.088811e-05 -5.3791704e-05
0.00030971368 -0.0006989642 -0.00038017915 -0.00089156 2.8451477e-05 -5.6358098e-05 0.00037168167 -0.000119260825
-0.0005560705 0.00040940594 -0.00012661082 8.630205e-05 -0.0007070477 -0.00026046208 8.975871e-05 6.746166e-05
5.343005e-05 0.00079437887 1.18671005e-05 0.00088070345 0.00057298085 6.1159466e-05 -0.0003931301 0.0003944784
0.00034185091 -0.0005694158 -0.00038693825 0.00051334035 0.0007577418 -9.295891e-05 0.00033438168 0.00048549392
5.7651218e-05 0.00027839406 0.0005331404 0.0006524082 6e-45 -7.06018e-05 4.018312e-22 6e-45
0.00016726974 0.000776337 0.0013177819 -0.0003292882 0.00014353333 0.0005783861 -6.0094233e-05 -0.0004365763
-0.0007749117 0.0006518067 -3.4643508e-05 4.9256407e-05 0.00017290171 -0.000107408385 -0.00022928098 -0.00034560388
-3.7921767e-05 0.0002947699 0.0005612651 -6.462233e-06 -0.0014259897 0.0005888036 0.0004407916 5.2997464e-05
0.00029305194 0.00010015392 0.0004496604 0.0004479432 -0.00023158206 0.00046210884 0.00049319596 0.00012916581
0.00067655696 0.00024859014 -0.0003424022 0.0003044864

exp_avg_sq f4 [100]
00000000: a6fa 1f32 9cd7 2237 c840 1a37 3f12 ab37
00000010: 9873 1b37 339a 4037 09c9 5037 2ace 3137
00000020: 81ee d836 8c91 2637 9027 0537 3927 7137
00000030: 3b59 2437 47a5 0e37 864e 2937 0097 2a37
00000040: cf46 a536 63a8 ec36 80ac 3136 d73a 2537
00000050: afb1 3f37 8e83 1037 4826 bb36 4823 1537
00000060: c3ac 0e37 729f 2d37 25bd 1c37 faaf 3937
00000070: 1eaf 5f37 427a 1c37 96c1 c636 e1d0 c736
00000080: ab73 4537 4869 f436 1e45 3737 5a57 2737
00000090: b3b5 3e37 98b8 1037 a0b8 0c37 6eda 0a37
000000a0: 0fa0 ca36 7b30 1637 76b9 f136 c7ff 5437
000000b0: d07d 5037 2482 3d37 e3d2 c436 1574 5d37
000000c0: b59d 9137 dcf7 0a37 79a9 1c37 11cc 4637
000000d0: 0617 3037 2f7f 2537 0a41 4437 648d 9837
000000e0: 97ea 0637 7724 4437 644b 4d37 4554 4b37
000000f0: cbcd 2c31 84af ea36 5519 2e32 1e1a 7430
00000100: f337 7c37 cffc 1237 82d5 1c37 a002 2037
00000110: 1d2a 1d37 5bc9 1b37 aad7 ed36 1f20 1837
00000120: b1ca dc36 a381 8437 5955 5e37 626a 4437
00000130: ff24 da36 540c eb36 a564 b636 4813 1237
00000140: 2036 c436 2e77 3937 4c68 6537 ddf0 dd36
00000150: c4b5 0337 cb9b 2337 ab50 4c37 baa5 c236
00000160: 9926 2237 61f2 ac36 4a63 1337 233c 1637
00000170: cdd5 a136 6892 4937 54a8 8437 63e1 6037
00000180: 1a92 5937 4bee 1a37 c140 9c36 4d39 c436
9.312009e-09 9.706153e-06 9.194198e-06 2.0393285e-05 9.265634e-06 1.1479994e-05 1.2444573e-05 1.0598023e-05
6.465067e-06 9.928259e-06 7.936629e-06 1.4373852e-05 9.795937e-06 8.502341e-06 1.0091468e-05 1.0167947e-05
4.9256264e-06 7.052951e-06 2.6475464e-06 9.848466e-06 1.1425857e-05 8.613699e-06 5.577491e-06 8.889307e-06
8.504084e-06 1.0348727e-05 9.342363e-06 1.1067832e-05 1.3332608e-05 9.32679e-06 5.923396e-06 5.954979e-06
1.1769046e-05 7.284023e-06 1.0923743e-05 9.974314e-06 1.1367188e-05 8.626048e-06 8.387637e-06 8.276298e-06
6.0387024e-06 8.9519845e-06 7.20395e-06 1.26957375e-05 1.2427059e-05 1.1295579e-05 5.8658056e-06 1.3199654e-05
1.7358785e-05 8.28315e-06 9.337783e-06 1.1849233e-05 1.0495778e-05 9.864379e-06 1.16976535e-05 1.8185652e-05
8.041642e-06 1.16910005e-05 1.2236505e-05 1.2119363e-05 2.5146274e-09 6.994176e-06 1.0133893e-08 8.88038e-10
1.5033397e-05 8.76114e-06 9.348036e-06 9.537354e-06 9.3677345e-06 9.285602e-06 7.088257e-06 9.067385e-06
6.5801073e-06 1.5795993e-05 1.3252103e-05 1.170728e-05 6.501213e-06 7.004981e-06 5.4357392e-06 8.706767e-06
5.847556e-06 1.1054608e-05 1.3673747e-05 6.6143534e-06 7.850529e-06 9.7518305e-06 1.21781295e-05 5.8009437e-06
9.664939e-06 5.154216e-06 8.785e-06 8.954698e-06 4.8230636e-06 1.20146215e-05 1.581401e-05 1.3403917e-05
1.2968225e-05 9.234597e-06 4.6567006e-06 5.847926e-06

exp_avg f4 [10, 100]
00000000: c02a 8227 f010 b33a 432c 34ba 3606 05bb
00000010: 24dd 15bb 34e1 ab3a 0324 a9ba 5e88 b0ba
00000020: 01db 1e3a 4a41 d938 f889 abbb e208 7bbb
00000030: 1acb a039 1afa b4b9 a8b5 5a3a 2aef b537
00000040: c34e abb9 0ae1 1bbb 9178 023a a268 b0ba
00000050: fbc0 413a 8229 b2b9 3030 5bba 29f5 b3b9
00000060: f202 ddba 40f5 463a be08 70b9 0c3c bf3a
00000070: 12e1 a8ba 1b4e 013a 2979 073a dab1 c2ba
00000080: c5b5 8dba f7a8 00bb 6fa8 b4ba a770 37bb
00000090: c679 0abb 4eee 0cbb 9031 90bb daca b1bb
000000a0: e37a c0ba 21df 8ebb 7d9c b9ba 0799 b6b9
000000b0: 4fe4 7cba 5ac8 1539 21d4 45b9 6860 24bb
000000c0: de2e 29bb 4aef f5b9 f1a9 eb3a 11c4 a739
000000d0: cb33 caba 32b8 063a c787 1cbb 85fe 3bbb
000000e0: 81d9 0e3a 741a 62bb f99f 08bb 9884 daba
000000f0: 0400 0080 9bfa 9d3a a16b d419 0400 0080
00000100: bf04 7abb 61ea 00bb 21f9 9cbb 58e2 3fbb
00000110: 1c41 6b39 be71 f8ba a3fe 183a 5af0 8fba
00000120: 768d 69ba ceb3 4dbb 87ac acba aa23 cbb9
00000130: 8579 043b d0b0 3638 974c 95ba 90b0 91b7
00000140: 90d4 1a3a ab39 6abb 57cd 31bc d6dc ae3a
00000150: ca98 163b 75ac 71bb 2fa6 56bb d224 7c3a
00000160: 1c4c 2ebb 3316 25ba 874d 8ebb 8ab0 edba
00000170: df17 20ba 9fb4 cebb eb7f 15bb dd6a 20ba
00000180: 3851 3ebb 4d6d ccbb 2d7b 493a 0c33 f6ba
00000190: c08c 8726 d950 683a 9d1d 293b 2f87 33ba
000001a0: 7d7a 053b b177 393a edd6 1ab9 6e73 c2b9
000001b0: 66a5 68ba 1e7e 2abb a05d 3d39 5e7c 1abb
000001c0: a8b2 a93a fdaf 85bb 8e11 0739 b8a2 fc39
000001d0: 9b0c a5ba ba53 553a 5a64 52bb bb08 37ba
000001e0: 1235 e5ba 889c 11b8 43ac c8ba 5c29 e43a
000001f0: c4ee 003a 0a07 7a39 2189 4039 141d b93a
00000200: 2971 a1ba 0fc0 60b9 6b6c f3b8 9b3a 393b
00000210: b2e5 b93a 8d44 8139 8c2f 3938 bd04 54ba
00000220: 6165 23bb a52a 2d3b 413b 3939 5bed 413a
00000230: fc0d 1137 11d0 4cba 387b 1e3a cee4 6ebb
00000240: c2cc 2dbb b8e9 2a3a 2b34 afba daf6 3a3a
00000250: 72e1 62ba a9b4 7a3a 5264 84b8 0fb4 4037
00000260: 6020 8f3a 88c7 ffba dc10 71bb 6537 c2ba
00000270: dcf8 c43a 5549 223a d702 9bba acf8 5e38
00000280: 0400 0000 c55e d039 7678 ae16 0400 0000
00000290: 6f76 5e38 2f61 7b38 eac6 c2ba 7361 2a3a
000002a0: a0fd c53a da73 e7ba 0257 253a fcbc 593a
000002b0: 1bd2 34ba b75d 2b39 1963 8e39 ccce f2ba
000002c0: 3bdc e939 c391 593a 06df ca3a 4a0e 9d39
000002d0: 0f44 263a cf07 0dbb 99a6 df3a 2fee 7639
000002e0: 1fc8 fb37 80ac 1a38 cef2 4539 7c66 9a39
000002f0: 4297 b0ba 796d 58bb b560 a63a b518 093b
00000300: 4d90 ec39 d9d5 ed3a bb88 beba f180 3bbb
00000310: a1fc fd38 6437 9e3a 0234 803a e727 8638
00000320: 4218 feaa ec08 723a cc8c 753b c5a9 353b
00000330: a292 943b c230 cc3a 09c4 483b 4d00 383b
00000340: 28b5 aab8 88de d33a eff5 c63b fb2f df3b
00000350: ec38 6e3b 5119 963a 06a1 c73a e708 6e3b
00000360: c7f4 57ba 802a 163b 3898 163b a98a 9e3b
00000370: 4148 233b db56 3a3b 54a7 f43a dd32 b93a
00000380: 1a94 763a 5bf4 5a3b ec93 103b d47a 213b
00000390: b300 993b 026c d4b9 37bc 803b 8f4c e23b
000003a0: 8cc2 153b 5fb1 223b 4311 873b 091b c43b
000003b0: 4ada 7b3b c04e af3b 6164 603b 7457 d33b
000003c0: cfd4 133b 6ed4 543b 34de 423b 9e37 503b
000003d0: 2e90 b13a c7ea 68b9 22b7 f43a 3d71 843b
000003e0: ab7d 2a3b eca5 823a fa83 563b e0d6 293a
000003f0: 4b98 433b 0f6e 913a 05da 943b fbd6 9f3b
3.61286e-15 0.0013661664 -0.00068730506 -0.0020297891 -0.0022867406 0.001311338 -0.0012904409 -0.0013468375
0.0006059856 0.000103595274 -0.005234953 -0.0038304855 0.000306689 -0.00034518616 0.0008343109 2.168825e-05
-0.00032674344 -0.0023785257 0.0004977072 -0.0013458917 0.0007391122 -0.0003398173 -0.00083613675 -0.000343242
-0.001686184 0.00075896457 -0.0002289144 0.0014590039 -0.0012884459 0.0004932598 0.00051678956 -0.0014854029
-0.0010811618 -0.001963196 -0.0013783107 -0.002799073 -0.0021129712 -0.0021504345 -0.0044004396 -0.005425793
-0.0014685061 -0.004360095 -0.0014161017 -0.0003482776 -0.0009647058 0.00014284384 -0.00018866408 -0.0025081877
-0.0025815289 -0.00046908326 0.0017979724 0.00031998803 -0.0015426812 0.00051391416 -0.002388464 -0.002868564
0.0005449281 -0.003450063 -0.0020847304 -0.0016671596 -6e-45 0.0012052836 2.1963757e-23 -6e-45
-0.0038149802 -0.001967095 -0.0047904407 -0.0029279198 0.00022435602 -0.0018954796 0.00058362837 -0.0010981665
-0.0008909324 -0.003138769 -0.0013173976 -0.0003874575 0.0020214033 4.355685e-05 -0.0011390623 -1.7367565e-05
0.0005906308 -0.003573994 -0.0108521795 0.0013340961 0.0022979253 -0.0036876474 -0.0032752862 0.0009618524
-0.0026595658 -0.00062975584 -0.004342738 -0.0018134278 -0.00061070727 -0.006308153 -0.002281184 -0.00061194395
-0.002904011 -0.0062386156 0.0007685896 -0.0018783524 9.405657e-16 0.0008862145 0.0025805004 -0.0006848452
0.0020367198 0.00070750254 -0.0001476665 -0.00037088565 -0.0008874744 -0.0026015113 0.00018059323 -0.0023572664
0.001294692 -0.0040798173 0.00012881143 0.0004818642 -0.0012592258 0.00081377814 -0.0032103271 -0.0006982197
-0.001748713 -3.4716475e-05 -0.0015310127 0.0017407346 0.00049183914 0.0002384448 0.00018361631 0.0014123046
-0.001231705 -0.00021433852 -0.000116073374 0.0028263691 0.0014182834 0.00024655872 4.415172e-05 -0.0008087864
-0.0024932253 0.0026423123 0.00017665049 0.00073977344 8.6459295e-06 -0.0007812987 0.00060455827 -0.0036452296
-0.002651975 0.0006519812 -0.0013366988 0.00071321207 -0.000865481 0.00095636636 -6.3129366e-05 1.1486015e-05
0.0010919683 -0.0019514421 -0.003678373 -0.0014817534 0.0015027779 0.0006190737 -0.0011826408 5.316052e-05
6e-45 0.0003974346 2.8187238e-25 6e-45 5.3039224e-05 5.9933573e-05 -0.0014860306 0.00064995064
0.0015105493 -0.0017658428 0.00063072157 0.0008306054 -0.0006897763 0.00016342742 0.00027158184 -0.0018524765
0.00044605308 0.0008299613 0.0015477843 0.0002995602 0.0006342539 -0.0021519547 0.00170632 0.00023549118
3.001472e-05 3.6877114e-05 0.00018877836 0.00029449526 -0.0013472813 -0.0033024235 0.0012693616 0.0020919268
0.0004512094 0.0018145397 -0.0014536598 -0.002861079 0.00012111036 0.0012070951 0.0009781125 6.39705e-05
-4.5136296e-13 0.0009232897 0.0037467955 0.0027719599 0.0045340816 0.0015578496 0.0030634424 0.002807635
-8.139975e-05 0.0016164342 0.006071798 0.0068111396 0.0036349846 0.0011451637 0.0015230484 0.0036321224
-0.0008238074 0.0022913516 0.0022978913 0.004838307 0.0024914893 0.0028433118 0.001866559 0.0014129538
0.0009406224 0.0033409807 0.0022060825 0.0024639862 0.004669273 -0.00040516263 0.003928687 0.006906099
0.0022851555 0.002482496 0.004121931 0.005984668 0.003842967 0.005349964 0.0034239518 0.006449634
0.0022557264 0.003247525 0.0029734494 0.0031771432 0.0013546997 -0.00022212706 0.00186703 0.0040418194
0.0026014845 0.0009967661 0.0032732473 0.0006478857 0.0029845412 0.0011095422 0.0045425915 0.0048779226

exp_avg_sq f4 [10, 100]
00000000: 1d38 b731 3c08 3d38 0729 1339 ec4b 9e39
00000010: 76bd 5239 c5e3 1a38 c444 f139 a387 ee39
00000020: 9cd4 9e38 7aec 0239 d304 a739 fbb0 313a
00000030: 926c bc38 0c68 7c39 7ea4 3138 90bf 4238
00000040: 804b bd38 af7a 5839 61cb c038 9abf 5f39
00000050: f103 f738 7872 3439 0dbc 4139 1a72 4338
00000060: 92de 3638 7b02 6039 ee01 6339 baa5 ef38
00000070: 8638 6f39 786f a938 bd60 1239 f054 0b39
00000080: 4e67 d638 587e 9238 6d7e 173a 43c2 d139
00000090: dbbf a139 de8b 3339 152c 4e38 804f 9439
000000a0: c061 2b39 b3f7 a839 636c 0539 1823 ae39
000000b0: a5fb 3139 ad87 dc37 444d a338 2421 fd38
000000c0: 1c48 a339 c2fb 6d38 bf3a e838 11ca 3939
000000d0: 9216 1339 34e3 9339 f353 123a f2eb 3e39
000000e0: 48a4 ef38 1730 d338 c979 c039 443a c839
000000f0: 019a fd31 e6b5 5439 66a2 da34 2d7a fe31
00000100: be1c 8639 46c3 a139 dcf2 1439 205f 8e39
00000110: 9e64 5338 0eeb e439 464b 6a38 c696 b538
00000120: 32da 3e38 32a1 1839 0f24 9d37 617e 5038
00000130: 9b7d 1a39 323b 0e38 47e3 7438 bc49 9c38
00000140: 11a3 0437 7058 ab39 5cbc 9039 8eee 4b39
00000150: 7b63 a138 7f3a 9239 0086 5939 d77d 7c39
00000160: a08b d339 8bf3 b438 1b8f a738 9ced cb38
00000170: dd9c e538 1753 e639 f78e 9e39 6b6a dd38
00000180: 1f94 6639 f189 e839 30f8 9838 7e01 b338
00000190: 6361 8332 db59 8939 61ad c339 a79f 1a38
000001a0: fee6 5638 cf61 2639 326a 5038 ecfe ed37
000001b0: 411a 9139 1899 8f39 426a e838 8730 7938
000001c0: 3c56 2b3a 5aea f239 9cc5 5338 f79f 0538
000001d0: 85c1 9439 cac1 e136 6901 ec39 9c47 8a38
000001e0: 79f7 3b39 1ee2 9337 b1ff 7339 a320 cd38
000001f0: 0b86 d138 9c11 b737 202a 9e38 a4b7 f339
00000200: 6d0a cd38 d0f0 1f38 a3ba 2539 798e 1639
00000210: 72a8 2238 7814 e536 e3d7 ba38 ee54 1738
00000220: be02 5438 9c14 6939 c833 5c36 8719 1b39
00000230: 73ef c433 7968 9e38 e089 d339 fd7e 8e39
00000240: 7dc4 9039 e6db 3738 2dd1 193a d762 2e39
00000250: e6f9 0f38 0ae7 5537 3207 fd39 fc69 8f39
00000260: ba2f 6238 0ccf 1139 7841 5439 194c 7538
00000270: 69fe 3839 a561 b138 bcdd 8638 3c3d c338
00000280: eacc 592f f0b2 2c39 17cb d631 7eea e62e
00000290: 2636 7c37 2064 0136 b74d 0439 9711 0239
000002a0: 088a e638 be03 5d39 2e7f ec39 1586 0c36
000002b0: 9b66 2837 50bd 1837 4643 0136 8058 a339
000002c0: 8858 ec37 3485 8a39 e4b0 3c38 e6af 7339
000002d0: 83f8 7b36 f938 b838 4d79 0a39 36f5 4b3a
000002e0: 5c19 5736 98ad de37 f189 b637 e0dd 9139
000002f0: 5467 b737 e82d 3e3a d3c4 2138 8015 fc38
00000300: 85b8 4039 5295 2838 03af ac38 4522 b638
00000310: 556f 1338 a7e4 5038 01c9 8b39 b6dd 1d34
00000320: 90f9 2e34 21c9 7e39 813b 113a 0bd7 8c39
00000330: f1df 8239 0457 6a39 575a 6839 6553 3539
00000340: 475c c039 1e64 3339 9463 203a 4072 bf39
00000350: 52f9 003a 0694 c739 dacf 4c38 a2a0 6a39
00000360: 05e3 9339 5f62 9f38 72b4 3239 9006 5f39
00000370: 78d1 5139 fbd8 b238 1fb4 d539 9612 b039
00000380: e866 8c39 f421 d738 a2c9 5639 0a1a a439
00000390: e392 a139 f6c8 d439 eae3 c739 0451 223a
000003a0: 7cff 4239 839d 8438 b491 163a 145f 8a39
000003b0: fc3c 6d39 f8f0 fa39 2ddc a438 57a9 073a
000003c0: de54 8a38 79dd d039 efbf ec39 f7a4 213a
000003d0: 1791 fa39 64c0 4139 b4ee 4739 5bfd 2e3a
000003e0: cd64 8c39 6f0e 4a38 3b2c 9e39 1e59 233a
000003f0: f8c5 f139 58be 3039 1744 343a 182c 9239
5.3323803e-09 4.506878e-05 0.00014034296 0.00030192675 0.0002009774 3.6928588e-05 0.00046018336 0.00045495955
7.573629e-05 0.0001248586 0.00031856316 0.00067783863 8.9847614e-05 0.00024071353 4.2353284e-05 4.643161e-05
9.026285e-05 0.00020645068 9.193156e-05 0.00021338314 0.00011778612 0.0001720878 0.00018475969 4.659789e-05
4.3599466e-05 0.00021363229 0.00021649126 0.00011427277 0.00022813873 8.079311e-05 0.00013959683 0.00013287715
0.00010223557 6.985356e-05 0.0005779032 0.00040008323 0.00030851256 0.00017122875 4.9155282e-05 0.00028287992
0.00016344246 0.00032228007 0.00012724246 0.00033214013 0.0001697378 2.6289223e-05 7.7868375e-05 0.00012070153
0.00031143508 5.673967e-05 0.000110735644 0.0001771825 0.0001402742 0.00028207304 0.00055819674 0.00018207708
0.00011427008 0.000100702215 0.0003671183 0.00038190384 7.3807773e-09 0.00020285658 4.0723825e-07 7.4062627e-09
0.00025579886 0.00030853803 0.00014204852 0.00027155224 5.0400027e-05 0.00043662678 5.586005e-05 8.658836e-05
4.550274e-05 0.000145559 1.873265e-05 4.9708764e-05 0.00014733376 3.3910568e-05 5.8385802e-05 7.452394e-05
7.90578e-06 0.00032681553 0.0002760616 0.00019448457 7.695608e-05 0.00027890873 0.00020744652 0.00024079472
0.00040349085 8.628432e-05 7.989836e-05 9.7240525e-05 0.00010948789 0.00043930925 0.00030242626 0.00010557923
0.00021989689 0.00044353263 7.294153e-05 8.535663e-05 1.5294694e-08 0.00026197624 0.00037322476 3.686515e-05
5.1236704e-05 0.0001586743 4.9689967e-05 2.8371309e-05 0.00027676116 0.0002738915 0.00011082414 5.941142e-05
0.0006535982 0.00046332442 5.049036e-05 3.185865e-05 0.00028372943 6.7280826e-06 0.00045014478 6.593691e-05
0.000179259 1.762906e-05 0.00023269538 9.781241e-05 9.990864e-05 2.18235e-05 7.5418735e-05 0.00046485395
9.777104e-05 3.813283e-05 0.00015805154 0.0001435819 3.8780687e-05 6.8271147e-06 8.909383e-05 3.6080302e-05
5.0547293e-05 0.00022228289 3.2812695e-06 0.00014791462 9.170517e-08 7.553487e-05 0.0004034778 0.00027178964
0.00027612215 4.3835396e-05 0.00058676564 0.00016630754 3.4326593e-05 1.2749582e-05 0.0004826128 0.0002735405
5.3927048e-05 0.00013905409 0.00020242285 5.8483423e-05 0.00017642383 8.4582054e-05 6.430919e-05 9.3097304e-05
1.9808835e-10 0.00016469858 6.2513084e-09 1.0500843e-10 1.5032978e-05 1.9280778e-06 0.00012617452 0.00012404319
0.00010992965 0.00021077596 0.00045108184 2.0939672e-06 1.003747e-05 9.103984e-06 1.9261656e-06 0.0003115572
2.8174618e-05 0.00026420655 4.4987435e-05 0.00023239813 3.7546567e-06 8.784416e-05 0.00013205894 0.0007780375
3.2052258e-06 2.6545298e-05 2.1760325e-05 0.00027821865 2.1863416e-05 0.00072547654 3.8568698e-05 0.00012020301
0.00018379286 4.0193387e-05 8.2341976e-05 8.6848195e-05 3.5151217e-05 4.9804014e-05 0.00026661906 1.4702422e-07
1.6295803e-07 0.00024298254 0.0005540178 0.000268631 0.00024962382 0.00022348395 0.00022158898 0.00017292572
0.00036689846 0.00017108067 0.0006118354 0.00036515482 0.0004919964 0.00038066524 4.8830967e-05 0.0002237582
0.00028207168 7.600034e-05 0.00017042624 0.00021269382 0.00020009826 8.528117e-05 0.00040760727 0.00033583184
0.00026779552 0.00010258323 0.00020483744 0.00031299918 0.00030817752 0.0004058552 0.00038126047 0.0006191882
0.00018596457 6.323589e-05 0.00057437574 0.0002639225 0.000226248 0.00047863252 7.86114e-05 0.0005175075
6.5961605e-05 0.00039837862 0.0004515643 0.0006166244 0.00047791816 0.00018477585 0.00019067043 0.0006675326
0.00026777983 4.8173995e-05 0.00030169063 0.0006231236 0.000461146 0.00016855577 0.0006876601 0.00027880142

exp_avg f4 [10]
00000000: 1c33 52ba e296 f4b8 1a67 0e3b 2df1 5eb8
00000010: 92d1 bcba cdf3 a2ba df23 a23a ccae 55ba
00000020: 4d80 e13a 51f6 2cba
-0.000801848 -0.00011662931 0.0021728934 -5.3153537e-05 -0.0014405719 -0.0012432277 0.001237031 -0.0008151352
0.0017204374 -0.00065979833

exp_avg_sq f4 [10]
00000000: 83b5 e638 4ffd 8338 408c 2e39 0470 2739
00000010: f8f4 6839 7d45 1d39 02d4 ce38 be48 3839
00000020: 668d 4f39 daff 8139
0.00011001064 6.293749e-05 0.0001664618 0.0001596809 0.00022216502 0.00014998573 9.862335e-05 0.00017574706
0.00019793733 0.00024795422
