mlruns/0/models/m-83ebfb85792e416abf6e6b06b97c9e5e/artifacts/data/model.pth (torch, 223305 bytes, 4 tensors)

weight f4 [200, 256]
0.045006875 0.025858738 -0.022774743 -0.02984696 -0.06494129 0.009213318 0.033527367 0.29453477
0.38806897 0.3760422 0.21987776 0.03486471 0.049108565 0.05942336 0.016807396 0.040129516
-0.036110178 0.0155855315 0.022069357 -0.049329735 0.0054132645 -0.011044689 0.15798411 0.2361758
0.2048116 0.23890193 0.12640496 0.036176562 0.020557296 0.000846782 -0.05050081 0.06790166
-0.011657959 0.07950902 0.0033431407 -0.042796478 0.009107171 0.11422279 0.16398308 -0.033923816
-0.08115759 -0.019802498 -0.044446964 0.022656323 0.02819236 -0.035582095 0.04426567 -0.011639113
-0.0070424452 -0.010137682 -0.023433324 -0.015497239 0.117926866 0.22232154 0.13099636 -0.07949051
-0.025603255 -0.047241345 -0.06955007 0.010657851 -0.03250628 0.0080152955 0.032737833 -0.010340093
-0.027393492 0.009404478 -0.0295933 0.05697577 0.106450535 0.12173688 0.014684224 -0.025761828
0.032273073 0.09783656 0.08149369 0.00030474077 -0.044717167 -0.09519139 0.022577224 0.0154328095
0.07750542 0.035815764 0.08637428 0.1547314 0.2436394 0.13854988 0.01363336 0.012142973
-0.03397643 0.04926504 0.009845399 0.013426627 -0.08624747 -0.022614917 0.06868299 0.063659474
0.08184674 0.101886146 0.12073934 0.1463842 0.11110026 -0.037693337 -0.033168625 -0.13521998
-0.12437277 -0.016601602 -0.025096789 0.029132959 -0.10398138 0.039188802 0.0809738 0.0033311096
0.05991455 0.062364288 0.13263512 0.15833981 0.09037383 -0.026279343 -0.031698164 -0.05779944
-0.14577782 -0.045816753 0.0060279514 0.0071482356 -0.0038662355 0.008526781 0.0752133 0.07281712
0.04707193 0.08505969 0.06674189 0.11970525 0.051778007 -0.033183374 -0.03655242 -0.095667176
-0.06691114 -0.030415587 0.050619937 -0.013520879 0.016107775 -0.023988027 0.034839176 0.0105455695
-0.037101272 0.051575083 -0.01026025 0.008908936 -0.016537908 -0.025999617 -0.053485107 -0.0833561
-0.055242013 0.086981714 -0.01710498 0.043171037 0.03206245 0.016144812 -0.024758976 0.03211115
-0.056214295 0.014175935 -0.015703749 0.008324724 0.023711665 -0.020055886 -0.114328995 -0.19598944
-0.0027821392 0.14115739 0.015995547 -0.015190343 -0.04784555 -0.014220093 -0.028546022 0.030034646
-0.022998907 -0.055517968 -0.020331876 -0.032031536 -0.016656725 -0.09197472 -0.1449931 -0.087127365
-0.026878143 0.10141103 0.028155688 -0.047063895 -0.02447632 -0.08167602 -0.059328414 -0.005575542
-0.052010715 -0.044908777 -0.016971612 -0.0027466503 -0.086924575 -0.15505502 -0.11155293 -0.08646874
0.07403614 0.020154027 -0.062606275 -0.051318437 -0.07099445 -0.013622304 -0.033803854 0.019299923
-0.021957923 -0.07423437 -0.030840248 0.022587294 -0.06278795 -0.07027841 -0.08557234 -0.004417356
0.10123424 0.033770975 -0.056105763 -0.04524992 -0.07146205 -0.1298942 -0.009785433 -0.007977813
0.0087267775 -0.05382362 -0.0002447519 0.013482475 -0.06966525 -0.092640206 -0.06932212 0.05923944
-0.09140263 -0.021637907 -0.061690442 -0.036813036 -0.054461364 -0.00935586 -0.015912097 0.04092014
0.011198191 -0.016374117 0.04479538 -0.00045870556 0.041870438 -0.05305424 -0.040545706 -0.024022954
-0.04631223 -0.06486814 -0.007858711 0.010506979 -0.03140673 -0.043603968 0.036023404 -0.05143132
00000000: 2159 383d b4d5 d33c 1992 babc 9d81 f4bc
00000010: f0ff 84bd 75f3 163c fe53 093d 43cd 963e
00000020: fab0 c63e 9a88 c03e a327 613e 4cce 0e3d
00000030: 1026 493d e965 733d aaaf 893c d95e 243d
00000040: 44e8 13bd 755a 7f3c ccca b43c fa0d 4abd
00000050: c161 b13b c9f4 34bc 96c6 213e 12d8 713e
00000060: 22ba 513e b5a2 743e 4d70 013e e02d 143d
00000070: c667 a83c 94fa 5d3a f0d9 4ebd 0710 8b3d
00000080: 0601 3fbc a0d5 a23d 9818 5b3b 5c4b 2fbd
00000090: 3e36 153c a3ed e93d 2eeb 273e b3f3 0abd
000000a0: f335 a6bd d938 a2bc 050e 36bd c199 b93c
000000b0: aaf3 e63c 88be 11bd eb4f 353d fab1 3ebc
000000c0: 50c4 e6bb 8518 26bc 3ef7 bfbc 22e8 7dbc
000000d0: a483 f13d 42a8 633e e923 063e eccb a2bd
000000e0: ebbd d1bc 2480 41bd 4470 8ebd 449e 2e3c
000000f0: 4e25 05bd 9652 033c 1b18 063d 7e69 29bc
00000100: 5168 e0bc 3d15 1a3c a66d f2bc 6d5f 693d
00000110: bd02 da3d 2f51 f93d 1996 703c 780a d3bc
00000120: c530 043d 895e c83d 2ae6 a63d 9dc5 9f39
00000130: 5929 37bd b4f3 c2bd dff3 b83c e5d9 7c3c
00000140: 29bb 9e3d 8db3 123d 00e5 b03d e871 1e3e
00000150: 9b7c 793e 05e0 0d3e 755e 5f3c 52f3 463c
00000160: de2a 0bbd 23ca 493d 994e 213c 5bfb 5b3c
00000170: 83a2 b0bd eb42 b9bc aba9 8c3d e65f 823d
00000180: 439f a73d afa9 d03d 3046 f73d bde5 153e
00000190: 8888 e33d 5464 1abd d3db 07bd 1b77 0abe
000001a0: 27b7 febd 1500 88bc c897 cdbc 3ea8 ee3c
000001b0: 31f4 d4bd 7084 203d 97d5 a53d bf4e 5a3b
000001c0: f668 753d b271 7f3d 80d1 073e d523 223e
000001d0: ea15 b93d c747 d7bc efd5 01bd 1bbf 6cbd
000001e0: c846 15be 59aa 3bbd 1f86 c53b bf3b ea3b
000001f0: ab60 7dbb e9b3 0b3c 6e09 9a3d 2421 953d
00000200: 7fce 403d c633 ae3d f9af 883d 0728 f53d
00000210: 2d15 543d 4aeb 07bd feb7 15bd 27ed c3bd
00000220: b508 89bd 1c2a f9bc da56 4f3d ad86 5dbc
00000230: 74f4 833c 8a82 c4bc 86b3 0e3d 53c7 2c3c
00000240: 81f7 17bd 6540 533d 9c1a 28bc c9f6 113c
00000250: 827a 87bc 26fd d4bc 3313 5bbd 9ab6 aabd
00000260: 7345 62bd 7823 b23d be1f 8cbc 1dd4 303d
00000270: ea53 033d 2042 843c 56d3 cabc fb86 033d
00000280: f640 66bd 2e42 683c 26a5 80bc 6c64 083c
00000290: f73e c23c 3e4c a4bc 5225 eabd 75b1 48be
000002a0: 8d54 36bb 908b 103e 1809 833c ebe0 78bc
000002b0: b2f9 43bd 65fb 68bc 59d9 e9bc 380b f63c
000002c0: 3468 bcbc cf66 63bd 098f a6bc 8033 03bd
000002d0: af73 88bc 3e5d bcbd 1279 14be d56f b2bd
000002e0: 8d2f dcbc 96b0 cf3d c2a6 e63c 12c6 40bd
000002f0: 9082 c8bc c245 a7bd 5a02 73bd 09b3 b6bb
00000300: 3009 55bd 44f2 37bd 0d08 8bbc 2501 34bb
00000310: 8305 b2bd bec6 1ebe dd75 e4bd 8616 b1bd
00000320: 43a0 973d 0f1a a53c b837 80bd 4833 52bd
00000330: 8a65 91bd 1630 5fbc e975 0abd df1a 9e3c
00000340: 1ae1 b3bc 3008 98bd b0a4 fcbc fd08 b93c
00000350: f896 80bd 21ee 8fbd 8d40 afbd 78bf 90bb
00000360: e653 cf3d 6f53 0a3d 28cf 65bd fb57 39bd
00000370: b25a 92bd fc02 05be 1553 20bc 5fb5 02bc
00000380: c2fa 0e3c 2876 5cbd 0b52 80b9 99e5 5c3c
00000390: a8ac 8ebd 26ba bdbd c1f8 8dbd 0ea5 723d
000003a0: 4d31 bbbd fb41 b1bc 1eaf 7cbd 44c9 16bd
000003b0: e112 5fbd 5249 19bc 165a 82bc e09b 273d
000003c0: 9e78 373c 0323 86bc 5c7b 373d 6b7e f0b9
000003d0: 5680 2b3d 674f 59bd 4113 26bd c9cb c4bc
000003e0: e5b1 3dbd 96d9 84bd d3c1 00bc 7725 2c3c
000003f0: 58a4 00bd 139a 32bd 478d 133d a6a9 52bd

bias f4 [200]
-0.030266497 -0.03238526 -0.060717072 -0.074395515 0.023867073 0.049294103 0.033246953 -0.037027832
0.06408447 0.027130919 -0.0598994 0.017575689 -0.017354118 0.017604541 -0.039105605 -0.039025776
-0.03571711 -0.045614004 0.041251518 -0.044132836 -0.012441447 0.021176929 0.0037213315 0.00938815
0.052613202 0.031107794 -0.028426157 0.019271817 -0.032291185 0.05183902 -0.022689164 0.019431677
-0.07057695 0.038656 -0.010836792 0.03249855 -0.006783265 -0.024435353 0.09541264 0.0356772
0.021124205 -0.002462935 -0.018604875 -0.019875852 -0.03410641 -0.08503442 0.025833301 0.052763153
-0.026629273 0.025491187 -0.07462553 0.033981495 0.009037176 -0.041883346 0.010763358 -0.015235868
-0.03477267 -0.046174694 -0.057588644 -0.034201447 0.012454817 0.059211463 -0.06017443 -0.03831851
-0.063747525 0.058425866 0.032183114 0.045901693 -0.003955173 -0.016817449 0.060043547 -0.0345377
-0.0061257896 -0.01978381 -0.046046298 0.05866586 0.015385186 -0.03587746 0.027935917 -0.011405305
0.051234663 -0.010716263 0.040059146 -0.03310258 -0.05648053 0.012033189 0.010521664 -0.05234218
-0.05247272 0.055037726 0.032030262 0.03195013 -0.022367507 -0.08999488 0.035297222 -0.02865457
-0.06477909 -0.016834268 -0.004244194 -0.07758189 -0.015454661 0.014507311 -0.048815038 0.09206039
0.03785724 -0.023347434 0.039914064 -0.0019812393 -0.02506251 0.033846784 0.010101985 0.027881326
0.035403803 0.0010516065 -0.02446562 -0.021287909 -0.053019457 0.012150733 -0.00789887 0.016452838
0.068192095 -0.029792473 0.036580753 -0.07590114 -0.049896978 0.019719906 0.031588603 0.055059444
0.010580322 0.02508113 0.023852 -0.08200242 -0.08158535 0.06812729 0.050753143 -0.043776475
-0.04441628 -0.089411944 0.041481063 -0.06871267 -0.07277262 0.030562993 0.07698195 0.014493274
-0.06410125 -0.032136165 0.018073298 0.01968486 -0.072097376 0.061824225 0.017302282 -0.033113725
-0.049527925 -0.0486545 0.04241545 0.038582914 -0.07424881 0.001925267 -0.0026957453 -0.011105381
-0.05510636 -0.041421697 0.0400837 -0.025975568 0.00064337114 -0.021102907 0.005082385 0.07190028
-0.018527795 -0.016050378 0.0814249 -0.05329936 0.025776984 0.0047014365 -0.01839287 0.046896603
-0.01181135 0.04975482 0.05564715 -0.053276416 -0.05091875 0.012669788 -0.024919866 0.034036122
-0.049984418 0.04810574 0.016319813 0.015444809 -0.010785457 -0.012040388 0.045944706 0.018479845
0.07520458 -0.012838102 0.056784306 -0.032822125 -0.058189794 -0.013146117 0.033645224 -0.006847288
00000000: 72f1 f7bc 68a6 04bd 77b2 78bd ad5c 98bd
00000010: e184 c33c 9de8 493d f52d 083d 7faa 17bd
00000020: b83e 833d a941 de3c 1359 75bd e4fa 8f3c
00000030: 392a 8ebc 6637 903c 332d 20bd 7ed9 1fbd
00000040: 1b4c 12bd c0d5 3abd 5af7 283d a2c4 34bd
00000050: 36d7 4bbc 3d7b ad3c 95e1 733b c1d0 193c
00000060: f180 573d c6d5 fe3c f9dd e8bc eedf 9d3c
00000070: c343 04bd 2755 543d a0de b9bc 2e2f 9f3c
00000080: a68a 90bd c155 1e3d cd8c 31bc 331d 053d
00000090: 2746 debb a62c c8bc b467 c33d 4122 123d
000000a0: ab0c ad3c 3169 21bb 4069 98bc afd2 a2bc
000000b0: 2ab3 0bbd 8726 aebd 5ca0 d33c 2d1e 583d
000000c0: a225 dabc e5d2 d03c 45d5 98bd 2e30 0b3d
000000d0: aa10 143c df8d 2bbd cc58 303c dd9f 79bc
000000e0: ca6d 0ebd ad21 3dbd 12e2 6bbd d116 0cbd
000000f0: 4a0f 4c3c b887 723d 7779 76bd dff3 1cbd
00000100: 108e 82bd f64f 6f3d 71d2 033d 6a03 3c3d
00000110: 659a 81bb bfc4 89bc 39f0 753d 6777 0dbd
00000120: d9ba c8bb a811 a2bc 0b9b 3cbd 9d4b 703d
00000130: 2612 7c3c 3ef4 12bd ddd9 e43c 51dd 3abc
00000140: 70db 513d 4493 2fbc 0f15 243d 9296 07bd
00000150: 2158 67bd da26 453c 0f63 2c3c c164 56bd
00000160: a3ed 56bd 3d6f 613d 2a32 033d 24de 023d
00000170: 103c b7bc 3c4f b8bd d293 103d fdbc eabc
00000180: e6aa 84bd 05e8 89bc e112 8bbb 41e3 9ebd
00000190: 8c35 7dbc 13b0 6d3c 47f2 47bd 288a bc3d
000001a0: 3110 1b3d 1e43 bfbc ee7c 233d aed7 01bb
000001b0: e54f cdbc eda2 0a3d cc82 253c 6167 e43c
000001c0: 9403 113d 0fd6 893a 206c c8bc fb63 aebc
000001d0: ee2a 59bd de13 473c 436a 01bc 1ac8 863c
000001e0: 4ca8 8b3d 580f f4bc b3d5 153d 0f72 9bbd
000001f0: c660 4cbd a48b a13c 0d63 013d 0386 613d
00000200: 1659 2d3c f176 cd3c 4565 c33c e3f0 a7bd
00000210: 3816 a7bd 5286 8b3d 87e2 4f3d f64e 33bd
00000220: d8ed 35bd 9c1d b7bd 0ce8 293d 3ab9 8cbd
00000230: d009 95bd 3e5f fa3c b6a8 9d3d 3275 6d3c
00000240: 8447 83bd 36a1 03bd 740e 943c 2542 a13c
00000250: caa7 93bd 663b 7d3d 84bd 8d3c 42a2 07bd
00000260: cbdd 4abd f149 47bd d3bb 2d3d 1e09 1e3d
00000270: c30f 98bd 3e59 fc3a 1aab 30bb 58f3 35bc
00000280: 35b7 61bd cca9 29bd ce2e 243d b7ca d4bc
00000290: e8a7 283a 01e0 acbc 238a a63b 7440 933d
000002a0: 9ac7 97bc 157c 83bc 19c2 a63d 6e50 5abd
000002b0: 412a d33c 820e 9a3b a5ac 96bc a716 403d
000002c0: 6484 41bc b6cb 4b3d 44ee 633d 5f38 5abd
000002d0: 2e90 50bd f194 4f3c bf24 ccbc 7669 0b3d
000002e0: 76bc 4cbd 860a 453d 21b1 853c 390c 7d3c
000002f0: 7cb5 30bc 0c45 45bc 8430 3c3d 0b63 973c
00000300: dc04 9a3d e756 52bc a996 683d 7e70 06bd
00000310: 6c58 6ebd d062 57bc 93cf 093d 375f e0bb

weight f4 [10, 200]
0.0330435 -0.1486104 -0.12506884 -0.05721217 0.10584193 0.103062145 0.019213555 0.035475407
0.22491807 0.106344886 0.028223965 -0.059493586 -0.2054008 0.11707669 0.06827444 0.07548297
0.14620437 -0.18322954 -0.16413341 -0.042065028 -0.3183986 -0.09773615 0.14116818 0.06383658
-0.08311023 0.09848498 -0.20926619 -0.022806555 -0.011987093 -0.1455463 -0.020955523 0.24823728
0.026657779 0.07839783 0.012296285 -0.14397284 0.09571059 -0.002226462 -0.07438249 0.06934503
-0.03090724 0.033590898 -0.19593406 -0.10803596 -0.17482123 -0.039186016 0.10695284 -0.16789818
0.06876599 -0.12023902 0.13718443 -0.14180925 -0.21313468 -0.032648202 -0.06752535 0.07814266
0.105894245 0.039713725 -0.04160552 -0.085539654 -0.033495117 -0.0687801 0.09274795 -0.014592042
0.14704616 0.111265175 -0.1393754 0.07422888 0.116208196 0.02596106 -0.016869456 -0.18569809
-0.012024065 -0.023203554 0.04498472 0.036216684 0.05170434 -0.09611266 0.017724812 0.18735644
0.11690658 -0.105185986 0.024362508 0.05813175 -0.14077699 0.053730115 -0.09657362 0.019589521
-0.022702778 0.06293891 -0.038934268 -0.06695901 0.039139483 -0.11453929 -0.07725033 -0.21358709
-0.1414551 -0.10114963 -0.017199045 0.14439611 -0.14553253 -0.061135296 -0.10572981 -0.021650802
-0.14089052 0.009350879 -0.17689902 -0.09023641 0.20507178 -0.0633434 0.06657348 -0.046827987
-0.17467809 -0.09396795 -0.048370358 0.20678315 -0.18205854 -0.08066509 -0.21010746 0.032975364
-2.345178e-05 0.15909907 0.016109686 -0.033465743 -0.12375779 -0.0839837 -0.09467281 0.11114564
0.014129266 -0.15474106 -0.13001941 0.09076823 -0.00060705526 -0.028550848 -0.13146845 0.05146328
0.123687334 -0.044529356 -0.12893225 -0.06343759 -0.14826559 -0.042536635 0.14100792 -0.029906267
0.15595824 -0.28984475 0.07926692 0.06322171 -0.02773797 0.06420881 0.122687906 -0.09621974
-0.018622328 0.15454116 0.1124652 -0.0406567 0.037842877 -0.01699385 0.021286625 0.07925445
0.0011841931 -0.045246802 0.025731029 0.13968074 -0.09140279 -0.059617832 0.027298579 -0.0020607552
-0.09586137 0.08177231 -0.1432362 -0.0068867584 -0.009157798 -0.0079016285 -0.016802827 -0.11889767
-0.13000959 0.028699134 0.121849366 -0.18208958 0.026751319 -0.10099024 -0.010142708 0.023011044
0.12697099 0.14706561 0.018133169 -0.008451991 -0.034961626 -0.058852993 0.09964044 -0.0714789
-0.11812327 0.016897123 -0.09160004 0.0036340642 -0.14281999 0.12996526 -0.15970133 -0.021713816
-0.21961822 -0.047901828 0.14585312 -0.03639658 -0.013946293 0.059338428 -0.034448244 -0.16430447
0.020406807 -0.041830976 0.053983364 -0.11330477 0.02752046 -0.13920598 -0.02314235 -0.056649864
-0.010126711 0.09660911 -0.03858761 -0.05364823 -0.08661273 -0.082476065 -0.14908671 -0.05019649
0.09228523 -0.1072469 -0.11604367 -0.025275508 -0.05076523 0.0012990297 -0.072122514 -0.08687969
-0.010057692 -0.14325039 0.012205631 0.029426353 -0.14987874 -0.050015848 -0.08852977 0.1110947
-0.12307908 0.039924473 -0.19234541 -0.13554817 0.08972926 0.1440504 -0.09214297 -0.011992369
-0.10503152 -0.14922462 -0.011287894 0.13580836 -0.0357564 0.007987262 -0.034087144 -0.0952629
00000000: 9f58 073d 532d 18be 0c12 00be 4f57 6abd
00000010: a7c3 d83d 3f12 d33d bf65 9d3c a94e 113d
00000020: ec50 663e 59cb d93d f235 e73c 8caf 73bd
00000030: 9654 52be e7c5 ef3d 78d3 8b3d d196 9a3d
00000040: 99b6 153e 86a0 3bbe 9712 28be 614c 2cbd
00000050: 2405 a3be e429 c8bd 648e 103e c1bc 823d
00000060: b235 aabd 7eb2 c93d e049 56be d0d4 babc
00000070: 8365 44bc 170a 15be ebaa abbc ea31 7e3e
00000080: 6a61 da3c 0b8f a03d 5b76 493c 9e6d 13be
00000090: ea03 c43d d5e9 11bb d955 98bd c404 8e3d
000000a0: 2e31 fdbc 9c96 093d f0a2 48be f541 ddbd
000000b0: 5604 33be 8481 20bd 170a db3d 80ed 2bbe
000000c0: 2fd5 8c3d e03f f6bd 137a 0c3e 7236 11be
000000d0: fa3f 5abe 1fba 05bd bb4a 8abd 4209 a03d
000000e0: 15df d83d dcaa 223d 8d6a 2abd 6a2f afbd
000000f0: 2d32 09bd 95dc 8cbd a3f2 bd3d 7613 6fbc
00000100: 4593 163e ffde e33d 6db8 0ebe 5005 983d
00000110: 90fe ed3d 4aac d43c d031 8abc a427 3ebe
00000120: 9500 45bc 6115 bebc e641 383d f257 143d
00000130: eec7 533d b7d6 c4bd a033 913c 5eda 3f3e
00000140: b86c ef3d c06b d7bd e293 c73c 8f1b 6e3d
00000150: d827 10be 1c14 5c3d 64c8 c5bd 347a a03c
00000160: 2dfb b9bc 1ee6 803d 8a79 1fbd ce21 89bd
00000170: b950 203d 9393 eabd 6c35 9ebd 93b6 5abe
00000180: 9bd9 10be 8a27 cfbd 03e5 8cbc 93dc 133e
00000190: 7b06 15be 0169 7abd df88 d8bd 065d b1bc
000001a0: 9b45 10be 6e34 193c 0425 35be decd b8bd
000001b0: 56fe 513e 2fba 81bd ad57 883d b4ce 3fbd
000001c0: d0de 32be 4572 c0bd ff1f 46bd f6be 533e
000001d0: 8e6d 3abe bd33 a5bd 6926 57be 2d11 073d
000001e0: 50ba c4b7 deea 223e 76f8 833c 6013 09bd
000001f0: b974 fdbd a5ff abbd d1e3 c1bd 53a0 e33d
00000200: 707e 673c 7174 1ebe cf23 05be b2e4 b93d
00000210: ca22 1fba 78e3 e9bc aa9f 06be 29cb 523d
00000220: c94f fd3d 6a64 36bd d106 04be 91eb 81bd
00000230: efd2 17be e53a 2ebd 6164 103e fdfd f4bc
00000240: 84b3 1f3e 8866 94be b256 a23d 627a 813d
00000250: bd3a e3bc e97f 833d cc43 fb3d db0e c5bd
00000260: da8d 98bc 0a40 1e3e 2854 e63d a487 26bd
00000270: 2201 1b3d b036 8bbc 4a61 ae3c 2850 a23d
00000280: ed36 9b3a b654 39bd e1c9 d23c 7808 0f3e
00000290: 6331 bbbd d431 74bd 45a1 df3c bc0d 07bb
000002a0: f752 c4bd 3e78 a73d 83ac 12be 51aa e1bb
000002b0: 970a 16bc d575 01bc 15a6 89bc 9f80 f3bd
000002c0: 3c21 05be 721a eb3c 298c f93d b175 3abe
000002d0: 9525 db3c f9d3 cebd 9a2d 26bc a881 bc3c
000002e0: af04 023e 5e98 163e 038c 943c 387a 0abc
000002f0: ec33 0fbd d60f 71bd 4910 cc3d 8863 92bd
00000300: 9dea f1bd d66b 8a3c cd98 bbbd 7b29 6e3b
00000310: 673f 12be 9d15 053e bf88 23be 2ce1 b1bc
00000320: 99e3 60be b534 44bd 855a 153e 9514 15bd
00000330: fe7e 64bc da0c 733d 9a19 0dbd 6e3f 28be
00000340: 2d2c a73c f556 2bbd a91d 5d3d 550c e8bd
00000350: 9672 e13c 038c 0ebe 0795 bdbc b009 68bd
00000360: 81ea 25bc ffda c53d 0b0e 1ebd 3fbe 5bbd
00000370: 0462 b1bd 36e9 a8bd 30aa 18be d69a 4dbd
00000380: 0a00 bd3d 43a4 dbbd 4ea8 edbd 950e cfbc
00000390: 34ef 4fbd 3444 aa3a f8b4 93bd fbed b1bd
000003a0: 05c9 24bc 3bb0 12be 20fa 473c 890f f13c
000003b0: d079 19be 6bdd 4cbd 194f b5bd 9e85 e33d
000003c0: e210 fcbd d887 233d 32f6 44be 24cd 0abe
000003d0: f9c3 b73d f381 133e 74b5 bcbd a47b 44bc
000003e0: c41a d7bd 57ce 18be dcf0 38bc 5911 0b3e
000003f0: 4e75 12bd 01dd 023c f69e 0bbd 3219 c3bd

bias f4 [10]
-0.07944046 -0.040916592 0.049027283 -0.02848417 0.056036077 0.09368834 -0.07235448 -0.023286842
0.0024760086 -0.053862877
00000000: aeb1 a2bd 2898 27bd d5d0 483d a257 e9bc
00000010: 1686 653d acdf bf3d 962e 94bd 0cc4 bebc
00000020: 8844 223b 529f 5cbd
