mlruns/0/models/m-e3c2e9d98bca414cafa402a281373a1d/artifacts/data/model.pth (torch, 223305 bytes, 4 tensors)

weight f4 [200, 256]
0	0x3c6c1300	0.014408827
1	0x3d1045cb	0.03522281
2	0x3d40b658	0.047048897
3	0x3d30f517	0.043202486
4	0x3d4197fb	0.04726408
5	0xbd1abd42	-0.037778147
6	0xbd651d71	-0.05593628
7	0xbcafa6b9	-0.021441804
8	0xbda556cd	-0.080731966
9	0xbe2040b8	-0.15649688
10	0xbd72e375	-0.05929895
11	0xbd733d22	-0.059384473
12	0xbbf6d885	-0.0075331354
13	0xbd08f07d	-0.033432472
14	0xbc081125	-0.008304869
15	0xbc7d8545	-0.015473668
16	0xbd1c7c74	-0.038204625
17	0x3bd39fed	0.0064582736
18	0x3cfcb2b4	0.030846931
19	0xbd4c0937	-0.049813475
20	0xbd05cc74	-0.032665685
21	0xbd8f456b	-0.06995662
22	0xbd766a03	-0.060159694
23	0xbe1d07a8	-0.15334952
24	0xbe25db64	-0.16196972
25	0xbd73d5ad	-0.05952995
26	0xbdad1d86	-0.08452897
27	0xbd236cb5	-0.039898593
28	0xbd61d928	-0.055138737
29	0xbd55f309	-0.05223373
30	0xbd8cd5a7	-0.068766885
31	0x3d294cab	0.041332882
32	0xbd8fb715	-0.07017342
33	0xbd40f7e7	-0.047111418
34	0xbc183464	-0.009289835
35	0xbdae5c6a	-0.0851372
36	0x3ca658bd	0.020305986
37	0xbdb6d892	-0.08928026
38	0xbddc7018	-0.10763568
39	0xbce7d480	-0.02829957
40	0x3c847937	0.016171081
41	0xbd824dfa	-0.06362529
42	0xbd3897a5	-0.045066494
43	0xbd262bb4	-0.040569022
44	0xbcd498f0	-0.025951833
45	0xbd9ce234	-0.07660332
46	0xbd5c01f2	-0.053712793
47	0x3c841531	0.016123386
48	0xbda53d35	-0.08068315
49	0xbd5fd113	-0.054642748
50	0xbdbd5246	-0.09244208
51	0xbdbba9f4	-0.09163275
52	0xb98dfc89	-0.0002708177
53	0xbd5730af	-0.052536663
54	0xbd912c74	-0.07088557
55	0xbd05c899	-0.032662008
56	0xbc664ae4	-0.014055941
57	0x3c82c8df	0.015964923
58	0xbd3e9546	-0.046529077
59	0xbd591766	-0.05300083
60	0xbda57701	-0.08079339
61	0xbdcb47c1	-0.09925795
62	0xbd8675a5	-0.06565408
63	0xbd576ef1	-0.052596036
64	0xbdad6bfc	-0.08467862
65	0xbd998161	-0.0749538
66	0xbc38c299	-0.011276864
67	0x3c9af8af	0.01891741
68	0xbd1f4621	-0.03888524
69	0x3d82050a	0.063486174
70	0x3d978765	0.07398871
71	0x3cb1383c	0.02163326
72	0x3d5ee0b2	0.054413505
73	0x3c212134	0.009834576
74	0xbc324ef4	-0.010883082
75	0xbd9cb117	-0.07650965
76	0x3c507dd3	0.012725311
77	0xbcbc812e	-0.023010816
78	0xbd4dab04	-0.05021192
79	0xbc9d7aed	-0.019223655
80	0xbdc63548	-0.09678131
81	0xbd83906d	-0.064240314
82	0x3ba8c5ad	0.005150518
83	0xbd7afd5d	-0.061276782
84	0x397a8f8e	0.00023895336
85	0x3d3e0e7c	0.046400532
86	0x3d254392	0.040347643
87	0x3d8e92c5	0.06961588
88	0xbcd63e13	-0.026152646
89	0x3d1bb23e	0.038011782
90	0x3d5a3791	0.05327565
91	0xbc03ff04	-0.008056406
92	0x3d4adea6	0.04952874
93	0x3d5819a7	0.05275884
94	0x3c5cf557	0.013486228
95	0x3d57aadc	0.05265318
96	0x3cfa7458	0.030573055
97	0xbd975726	-0.07389669
98	0x3d0bc5d6	0.034124218
99	0x3d47bbcf	0.048763093
100	0x3cac62a1	0.021043124
101	0x3e187068	0.1488663
102	0x3dc707b9	0.0971827
103	0xbcdaf3ce	-0.026727583
104	0x3d749393	0.05971105
105	0x3d610dcc	0.0549448
106	0xbc3fbd38	-0.011702828
107	0x3d8f70d1	0.0700394
108	0x3d209e0b	0.03921322
109	0x3d736d8d	0.059430648
110	0xbc6835c1	-0.014172972
111	0x3cb306a0	0.021853745
112	0xbd31b545	-0.043385763
113	0x3cf0ef8a	0.029411096
114	0x3ccd41b2	0.02505574
115	0x3dac6565	0.08417777
116	0xbc748ad4	-0.014925677
117	0x3d678615	0.056524355
118	0x3cfb142b	0.030649265
119	0x3d68e274	0.056856588
120	0x3d3ff5d6	0.046865307
121	0xbcf5f8fa	-0.030025948
122	0x3c5ad387	0.013356096
123	0x3d8b2fbb	0.06796213
124	0xbc4d091d	-0.01251438
125	0xbc5aa363	-0.0133446185
126	0xbcebf98c	-0.028805517
127	0xbca34f48	-0.019935265
128	0xbc20e482	-0.0098201055
129	0xbc85eb78	-0.016347632
130	0x3d3f81b7	0.046754565
131	0x3d8fee71	0.07027901
132	0x3c554d35	0.013018896
133	0x3d8d677d	0.069045044
134	0x3ce15010	0.027503997
135	0xbbe41d43	-0.006961496
136	0xbcd31665	-0.025767514
137	0x3d565d08	0.052334815
138	0x3c666639	0.014062458
139	0xbc497700	-0.012296438
140	0x3a0a9072	0.0005285806
141	0x3d78e2f7	0.060763326
142	0x3bd8f870	0.006621413
143	0xbd0e3aa8	-0.034723908
144	0xbcd36e48	-0.025809422
145	0xbd50cffd	-0.050979603
146	0x3d3e063b	0.04639266
147	0x3b8fac98	0.0043845885
148	0x3d49d506	0.04927542
149	0x3db62488	0.088936865
150	0x3d461f9b	0.048369985
151	0x3d9dd882	0.07707311
152	0xbc718059	-0.014740073
153	0xbd6fdc82	-0.058559902
154	0xbccde770	-0.025134772
155	0x3d3e2c48	0.04642895
156	0x3d74fbbf	0.059810396
157	0xbd5286f1	-0.05139822
158	0xbccd4aa9	-0.025060015
159	0xbd4a2ced	-0.04935925
160	0xbda5b2ac	-0.080907196
161	0xb7bdbb34	-2.2617729e-05
162	0x3d5c3147	0.053757932
163	0x3dc3c9d3	0.09559979
164	0x3de37734	0.111067206
165	0x3e131387	0.14362918
166	0x3d97a686	0.07404809
167	0x3de8d3fb	0.11368557
168	0xbc005412	-0.007832544
169	0xbd2fb489	-0.04289678
170	0xbce0b094	-0.027427949
171	0x3cd69462	0.026193801
172	0xbd15cfcd	-0.036575127
173	0xbd4ef0a6	-0.05052247
174	0xbd9e05bf	-0.0771594
175	0xbcea228c	-0.028580926
176	0x3d0c182a	0.034202732
177	0xbdb601e2	-0.08887078
178	0x3cc819f1	0.024426432
179	0x3db3ee7d	0.087857224
180	0x3db3d722	0.08781268
181	0x3e163da0	0.14671946
182	0x3d60b114	0.054856375
183	0x3e0594ff	0.13045119
184	0x3d65da72	0.05611653
185	0xbc1660f1	-0.009178386
186	0xbd88df3a	-0.06683202
187	0x3cd0e6d4	0.025500692
188	0xbd28d218	-0.041215986
189	0xbd055397	-0.03255042
190	0xbd77bc60	-0.060482383
191	0xbd9dbcf1	-0.07702053
192	0x3d04d9a3	0.032434117
193	0xbcba73fa	-0.02276038
194	0x3a842088	0.0010080496
195	0xbcfbf262	-0.030755226
196	0x3d35536c	0.04426901
197	0x3e072199	0.1319641
198	0x3da1edf8	0.07906717
199	0x3d211804	0.039329544
200	0x3d773735	0.060355384
201	0xbd288366	-0.041140936
202	0xbd446026	-0.047943257
203	0x3c8c4795	0.017123977
204	0xbd5199f0	-0.051172197
205	0xbcb0aa3f	-0.021565555
206	0xbd495402	-0.04915238
207	0xbb862744	-0.0040940363
208	0xbd834ef2	-0.06411542
209	0xbd9bb56e	-0.07602964
210	0x3bd34039	0.006446865
211	0x3d432765	0.04764499
212	0x3d6e3c5d	0.058163036
213	0x3d388832	0.04505176
214	0x3ddf9ede	0.109189734
215	0x3ddea928	0.10872108
216	0x3dcbe93c	0.09956595
217	0x3d898ca2	0.06716277
218	0x3d1a045f	0.037601825
219	0xbd19d087	-0.037552383
220	0xbd0cc062	-0.034363158
221	0xbd46ef5f	-0.048568126
222	0xbb386eb9	-0.0028142168
223	0xbdacbbca	-0.084342554
224	0x3d404ac6	0.04694631
225	0xbd0423d5	-0.032260735
226	0xbbafe222	-0.0053675333
227	0xbc9beacf	-0.019032864
228	0x3d47e5cb	0.048803132
229	0xbca8e41e	-0.020616587
230	0x3d888435	0.066658415
231	0x3dca7a27	0.0988658
232	0x3e2c29bd	0.16812797
233	0x3da6bd80	0.08141613
234	0x3db8c0b1	0.09021128
235	0x3ac0a49e	0.0014697497
236	0xbd460033	-0.048340034
237	0xbcd36006	-0.025802623
238	0x3b92a2cd	0.004474974
239	0xbcbaa2e8	-0.022782758
240	0xbc1cde03	-0.009574416
241	0x3cfac91e	0.030613478
242	0x3a821af0	0.0009926241
243	0xbd3ad536	-0.04561349
244	0xbd799273	-0.06093068
245	0x3d319ed8	0.043364376
246	0x3cedf156	0.029045742
247	0x3db5dd07	0.08880048
248	0x3dcba611	0.09943784
249	0x3d3e07b1	0.046394054
250	0xbc8a4bf5	-0.016881922
251	0x3a9700ec	0.001152066
252	0xbd372fd9	-0.044723365
253	0xbd84d121	-0.06485201
254	0xbd868a37	-0.06569331
255	0x3cc05dcf	0.023482231

bias f4 [200]
0	0xbd2f7b88	-0.042842418
1	0x3d6f5119	0.05842695
2	0xbc753cd2	-0.014968114
3	0x3d40254f	0.04691058
4	0x3ced7510	0.028986484
5	0x3d32609b	0.04354916
6	0xbd47ff2b	-0.04882733
7	0x3d9bd4aa	0.07608922
8	0x3b3574f9	0.002768813
9	0x3c09c4af	0.008408709
10	0x3d29498e	0.041329913
11	0xbd77a9f4	-0.060464814
12	0xbd00dc01	-0.031459812
13	0xbc556876	-0.013025394
14	0xba856721	-0.001017783
15	0xbd3be040	-0.04586816
16	0xbc2af2d4	-0.010433871
17	0x3d296068	0.041351706
18	0x3b51a86b	0.0031991254
19	0xbc991580	-0.01868701
20	0x3d8f795f	0.070055716
21	0x3dadff19	0.08495922
22	0x3d5f777a	0.0545573
23	0xbcdf4bc8	-0.027257815
24	0xbcec0cf4	-0.02881477
25	0x3d256f29	0.040389214
26	0x3d93a43e	0.07209061
27	0x3c651ceb	0.013983945
28	0x3ce6ae53	0.028159296
29	0x3d0d7c8c	0.034542605
30	0x3cc84bf2	0.024450276
31	0x3ce017ae	0.027355041
32	0xbcf48726	-0.0298496
33	0x3d92beba	0.071652845
34	0xbcced38b	-0.025247356
35	0xbb0d4f37	-0.0021562108
36	0x3b9259a2	0.0044662515
37	0xbd7a15cf	-0.061055955
38	0xbcd46ad4	-0.025929846
39	0x3ca0b2a1	0.019616427
40	0x3d3af496	0.04564341
41	0x3aef1be4	0.0018242565
42	0x3cb3a75d	0.021930391
43	0xbd0b338a	-0.0339847
44	0xbc6cfd79	-0.014464729
45	0x3cf3ee5a	0.02977674
46	0xbda1e4c4	-0.07904962
47	0x3d58ac44	0.05289866
48	0xba20f584	-0.00061401003
49	0x3cd530f2	0.026024316
50	0x3c6fc488	0.014634259
51	0xbc1a272f	-0.009408756
52	0xbd0770ef	-0.033066686
53	0xbd54b5b3	-0.051931094
54	0x3d961ae9	0.073293515
55	0x3d1891b0	0.037248313
56	0x3d33c3d0	0.043887913
57	0x3d50f992	0.05101926
58	0xbc4c86cd	-0.012483311
59	0xbcf300ca	-0.029663462
60	0x3d394aee	0.045237474
61	0x3d39b3d8	0.045337528
62	0xbbb83b33	-0.0056222915
63	0xbd77dace	-0.060511403
64	0x3d264543	0.040593397
65	0xbc4a6802	-0.012353899
66	0x3d440ddc	0.04786478
67	0xbcbbe244	-0.02293504
68	0x3d3f7790	0.046744883
69	0x3ba5ce76	0.0050600125
70	0xbce09256	-0.027413528
71	0x3c9188e9	0.01776548
72	0x3c8d24cd	0.017229462
73	0xbc882d0b	-0.01662304
74	0x3d431205	0.047624607
75	0xbc498913	-0.012300747
76	0x3d84ba5e	0.06480859
77	0xbcae6aaf	-0.021291105
78	0x3d08463b	0.033270102
79	0xbd5de8b2	-0.054176994
80	0xbbdca739	-0.0067338017
81	0x3d4a0ca8	0.049328476
82	0x3d4a6c44	0.049419656
83	0xbc4872e2	-0.012234421
84	0x3c6be7fa	0.014398569
85	0x3d2359b7	0.03988048
86	0x3d23f017	0.04002389
87	0x3d1bc9be	0.038034193
88	0x3d1945f2	0.03742022
89	0xbc22d240	-0.009937823
90	0x3d1479e0	0.03624904
91	0xbd048976	-0.032357655
92	0x3b57fe31	0.0032957906
93	0xbbfe4bdf	-0.0077605094
94	0xbd25f308	-0.040514976
95	0x3d2ca97c	0.04215382
96	0xbd288925	-0.041146416
97	0x3d17b5e4	0.0370387
98	0xbccd71d0	-0.025078684
99	0x3a83d6e5	0.001005855
100	0x3d777e58	0.060423225
101	0x3bc81d69	0.0061070216
102	0x3d8ec0dc	0.06970379
103	0x3d673b6f	0.056453165
104	0x3c2c8344	0.010529343
105	0x3d15911a	0.036515333
106	0x3b885e67	0.0041616443
107	0xbd1e25bd	-0.03861021
108	0xbd4a6bfa	-0.04941938
109	0x3c67326a	0.014111141
110	0xbc667ec0	-0.0140683055
111	0x3d7459ee	0.059656076
112	0xbb8cd848	-0.0042982437
113	0x3d4b279f	0.049598332
114	0xbd088897	-0.033333387
115	0x3d18bb71	0.037288133
116	0xbd25a500	-0.04044056
117	0x3cf13ae0	0.02944702
118	0xbd8148da	-0.063127235
119	0x3b9762a1	0.004619912
120	0xbd6fa668	-0.058508307
121	0x3c75734a	0.0149811
122	0x3d12fe69	0.035887156
123	0x3d313eb8	0.043272704
124	0xbd1c17eb	-0.038108747
125	0xbcf4c3a2	-0.029878441
126	0xbcb3f4a7	-0.021967245
127	0x3d106ac1	0.03525806
128	0xbc5532e9	-0.013012626
129	0x3b97f450	0.0046372786
130	0xbcc6767e	-0.024226423
131	0x3aec2182	0.0018015357
132	0xbbec7b90	-0.0072168782
133	0x3d594242	0.053041704
134	0x3d748425	0.059696335
135	0x3bae8c50	0.005326785
136	0xbd254a23	-0.040353905
137	0xbbab4278	-0.0052264296
138	0xbca19d2e	-0.01972827
139	0xbd1c8252	-0.03821022
140	0xbd5065b2	-0.050878234
141	0xbca5401b	-0.02017217
142	0xbc8cbf6c	-0.01718112
143	0x3c823279	0.015893208
144	0xbd5c10df	-0.053727027
145	0x3d109bc9	0.03530482
146	0x3d9c64f5	0.076364435
147	0x3d1644af	0.036686596
148	0x3d62194d	0.05519991
149	0xbd208a1e	-0.03919422
150	0x3da2ba37	0.07945674
151	0xbb23292e	-0.0024896371
152	0xbcc7bf5d	-0.024383241
153	0x3d0f483a	0.03498099
154	0xbd2db5c1	-0.042409662
155	0xbcfebfc7	-0.031097306
156	0xbcd06df0	-0.025443047
157	0xbd0594d8	-0.03261265
158	0x3d84d04a	0.064850405
159	0x3d3209df	0.043466445
160	0x3d8817d4	0.0664517
161	0x3d63cec6	0.055617116
162	0x3d659b47	0.056056287
163	0x3d8dd7f0	0.069259524
164	0xbc7c2f46	-0.01539213
165	0x3bc463ba	0.0059933336
166	0xbb944400	-0.004524708
167	0x3cc0dfae	0.023544159
168	0x3c37727b	0.011196728
169	0x3d47e5d4	0.048803166
170	0x3cc3e339	0.02391206
171	0xbcbbc6e2	-0.022921983
172	0x3d79a016	0.060943685
173	0xbd7524c2	-0.059849508
174	0xbc476517	-0.012170098
175	0x3d5b8d7a	0.05360172
176	0x3cad6590	0.021166593
177	0x3c0c276c	0.008554321
178	0xbc8ac3d9	-0.01693909
179	0xbd410d3c	-0.047131762
180	0x3cd9cba0	0.026586354
181	0x3b30abde	0.002695791
182	0x3d0030d9	0.031296585
183	0x3da2ec9c	0.07955286
184	0xbd3a8316	-0.04553517
185	0xbc777755	-0.015104135
186	0xbca26077	-0.019821389
187	0x3d69bee7	0.057066824
188	0xbd8b8d36	-0.06814043
189	0x3c2a9e92	0.010413783
190	0xb9c3f8d5	-0.00037378693
191	0xbd32725b	-0.04356609
192	0x3d4a3e5e	0.049375884
193	0x3cb6917e	0.022286173
194	0x3d40462a	0.046941914
195	0x3c14b4ef	0.009076341
196	0x3ced5560	0.028971374
197	0x3da6bec8	0.081418574
198	0x3cecaffc	0.02889251
199	0x3dbc5ae2	0.09197022

weight f4 [10, 200]
0	0x3de744f4	0.11292449
1	0xbdd115a3	-0.10209205
2	0x3d1fab7a	0.038981892
3	0x3dd9c316	0.10632913
4	0xbbe4db45	-0.006984147
5	0xbd89f04c	-0.06735286
6	0xbc17e338	-0.009270482
7	0xbcc61890	-0.024181634
8	0x3d6b61f3	0.05746646
9	0xbd656c20	-0.05601132
10	0xbe04447e	-0.12916753
11	0xbdc336fb	-0.09531971
12	0xbdbc53f4	-0.091957
13	0xbc0c8283	-0.008576038
14	0x3d5433d7	0.05180725
15	0x3c9f3593	0.019434726
16	0xbc083f22	-0.008315833
17	0x3d7dfa0c	0.06200604
18	0x3d7847e2	0.060615428
19	0xbc9e6784	-0.01933647
20	0x3dff72bf	0.12473058
21	0x3d133536	0.035939418
22	0x3d43f041	0.047836546
23	0x3dd4349a	0.103615955
24	0x3cf9a909	0.03047611
25	0xbda1b0dd	-0.07895062
26	0x3d9cacd4	0.07650152
27	0xbdc54e92	-0.09634127
28	0xbe1e0356	-0.1543096
29	0x3cb373d9	0.021905826
30	0xbe1cc147	-0.15308104
31	0xbdcabc88	-0.09899241
32	0x3dce9184	0.10086349
33	0xbdec9e5c	-0.11553642
34	0x3d4b0181	0.04956198
35	0xbd7bd0e5	-0.061478514
36	0xbdccb4dc	-0.09995434
37	0xbdf0a2ca	-0.117497995
38	0xbd91ca77	-0.07118695
39	0x3c39993d	0.011328039
40	0xbce647f6	-0.028110486
41	0xbd57c575	-0.052678544
42	0x3dcf5d6a	0.10125239
43	0x3d8b2438	0.067940176
44	0x3ddd1e78	0.10796827
45	0xbda8634c	-0.082220644
46	0x3b2f871d	0.0026783415
47	0xbda8c782	-0.08241178
48	0xbd2277c2	-0.03966499
49	0x3db39633	0.087688826
50	0x3dd7873b	0.1052384
51	0xbdd6745b	-0.10471412
52	0xbe05579f	-0.13021706
53	0xbdd71c8d	-0.105034925
54	0x3d95d7d9	0.0731656
55	0xbd906e52	-0.07052292
56	0x3df3017c	0.118655175
57	0x3d7bab4b	0.061442655
58	0x3d2166bb	0.039404612
59	0xbcd89fd9	-0.026443409
60	0xbd4b4dd7	-0.04963478
61	0x3da170d5	0.07882849
62	0xbd8bc5a7	-0.068248086
63	0x3d93554d	0.07194004
64	0xbda66fdf	-0.081268065
65	0x3da4a101	0.080385216
66	0xbd9aa895	-0.07551686
67	0x3e0667d0	0.13125539
68	0x3d84dedc	0.064878196
69	0x3d5913a5	0.05299725
70	0xbd3c51c5	-0.04597642
71	0xbd2fabc5	-0.04288842
72	0x3dca289b	0.09871026
73	0xbd591947	-0.053002622
74	0x3d4ed765	0.050498385
75	0xbbe40886	-0.006959024
76	0xbe92c6e2	-0.2866736
77	0x3e2751f8	0.16339862
78	0x3d8141ba	0.063113645
79	0xbcfe4a68	-0.031041339
80	0x3bce9982	0.0063049207
81	0xbdcc4337	-0.09973758
82	0x3d9ec540	0.07752466
83	0x3da8589f	0.08220028
84	0xbddef212	-0.10886015
85	0x3dae6180	0.085146904
86	0xbe062e26	-0.13103542
87	0xbd359172	-0.04432816
88	0x3d358f39	0.04432604
89	0xbe0c2eee	-0.13689777
90	0x3d32baa6	0.043635033
91	0xbdf02347	-0.117254786
92	0xbd551e21	-0.052030686
93	0xbda0d11c	-0.078523844
94	0x3e68ee92	0.22747257
95	0x3d45e1be	0.048310988
96	0xbd4bb0b7	-0.049729075
97	0x3d7fa4c0	0.062412977
98	0xbe016265	-0.12635191
99	0x3defb65b	0.117047034
100	0x3d57e63e	0.05270981
101	0xbe0a3fa9	-0.13500847
102	0xbd98ce68	-0.07461244
103	0xbd2cc1aa	-0.04217688
104	0xbde67a3a	-0.112537816
105	0xbdec7aa4	-0.11546829
106	0x3cff829e	0.031190213
107	0x3d178581	0.036992554
108	0xbda8d628	-0.08243972
109	0xbd20583f	-0.039146658
110	0xbdbb24ae	-0.091378555
111	0x3da59308	0.080846846
112	0x3d6f7e5d	0.05847012
113	0xbe24ada2	-0.1608186
114	0xbdcc561b	-0.09977361
115	0x3c541ad7	0.012945852
116	0xbdad1940	-0.08452082
117	0x3ba95062	0.005167053
118	0xbdb0a0a7	-0.08624392
119	0xbd8e4fca	-0.06948812
120	0x3d011e49	0.031523023
121	0xbc588969	-0.013216355
122	0x3d33f3b9	0.043933604
123	0xbda6a8d1	-0.08137668
124	0x3ca84c69	0.020544248
125	0x3d1dda5f	0.038538333
126	0xbd854011	-0.0650636
127	0xbca5315b	-0.020165136
128	0xbe2ed8ec	-0.17074937
129	0xbd36f551	-0.044667546
130	0x3d9afeed	0.075681545
131	0x3e45d841	0.19320776
132	0x3d1a6b6a	0.037700094
133	0x3d49a26b	0.04922716
134	0x3cd829b7	0.026387079
135	0xbdc2382d	-0.09483371
136	0x3d0ed858	0.03487429
137	0xbe0ff86b	-0.14059608
138	0x3dc14571	0.09437073
139	0xbd18d8e6	-0.037316225
140	0xbd36dbe1	-0.044643287
141	0xbd90c6d6	-0.07069175
142	0x3dbef57a	0.09324165
143	0x3d98bd81	0.0745802
144	0x3ce59e79	0.028029667
145	0xbd66173c	-0.0561745
146	0xbd1edf84	-0.03878738
147	0x3db68e65	0.08913878
148	0xbc9f57d4	-0.01945106
149	0xbe1b4c28	-0.1516577
150	0x3da80044	0.08203176
151	0xbde3217b	-0.1109037
152	0xbe15c92a	-0.14627519
153	0xbddbc3b3	-0.10730686
154	0xbda744f0	-0.08167446
155	0xbdb73582	-0.08945753
156	0xbdb3cd85	-0.08779434
157	0xbcd675e0	-0.026179254
158	0xbd75d603	-0.06001855
159	0xbdcf5d94	-0.101252705
160	0x3d66e1b9	0.05636761
161	0xbd2844ce	-0.041081242
162	0x3e11cf9f	0.14239357
163	0xbd5faee2	-0.05461014
164	0x3dd97bf5	0.10619346
165	0xbc2c1257	-0.010502419
166	0xbd82122d	-0.06351123
167	0x3d86c942	0.06581356
168	0x3dbde9e3	0.09273126
169	0xbd7d0ba0	-0.061778665
170	0xbe03ee8a	-0.12883964
171	0x3dc12424	0.094307214
172	0x3da5c2ab	0.080937706
173	0xbd949d95	-0.07256619
174	0xbe0ad04e	-0.13556024
175	0xbc046c81	-0.00808251
176	0xbe01f8f4	-0.12692624
177	0x3d5a4b14	0.053294256
178	0x3e2e2ca6	0.1700922
179	0xbd4c4c60	-0.049877524
180	0x3ce09aad	0.027417505
181	0xbd106e21	-0.035261277
182	0xbdda73cb	-0.10666617
183	0xbd51de76	-0.051237546
184	0x3dcecd71	0.100977786
185	0x3d63801c	0.055542096
186	0x3e2723dd	0.16322275
187	0xbbd0ba6f	-0.006369881
188	0xbd922f8a	-0.071379736
189	0xbde3dd6a	-0.11126216
190	0x3cda0621	0.02661425
191	0xbe10df14	-0.14147598
192	0x3df7eb4a	0.12105425
193	0xbd25c9c0	-0.040475607
194	0xbd07a884	-0.033119693
195	0x3b061c7b	0.0020463753
196	0xbd1b01a6	-0.03784337
197	0x3dba2715	0.090894856
198	0x3d1a67a3	0.037696492
199	0xbdb759cf	-0.089526765
200	0x3d8a1796	0.0674278
201	0xbde8f858	-0.11375493
202	0xbd88ab80	-0.06673336
203	0xbdb05b48	-0.086111605
204	0xbc990fe5	-0.018684337
205	0x3ce49152	0.027901325
206	0x3c2b552c	0.010457318
207	0xbe0a9492	-0.13533238
208	0xbcbaa9c6	-0.022786032
209	0xbd8cf32f	-0.06882321
210	0x3dd550ac	0.104157776
211	0x3e00de84	0.12584883
212	0xbd8ee4fc	-0.06977269
213	0xbdb1e003	-0.08685305
214	0xbd1962f3	-0.03744788
215	0x3ba4da9d	0.0050309435
216	0xbdd1c497	-0.10242575
217	0xbd72e4e7	-0.05930033
218	0xbd429172	-0.04750199
219	0xbd86d3bc	-0.06583354
220	0xbc9afd12	-0.018919501
221	0xbdc0f1ae	-0.09421097
222	0xbd61b579	-0.055104706
223	0xbce0e5f0	-0.027453393
224	0xbd8d08e2	-0.0688646
225	0x3dbe016e	0.092776164
226	0xbd9f3b30	-0.07774961
227	0x3c0c3e4e	0.0085597765
228	0xbe16f48f	-0.14741729
229	0xbda79512	-0.0818273
230	0x3ce62520	0.028093874
231	0x3df696c0	0.12040472
232	0xbcfac3f2	-0.030611012
233	0x3c8ca5f2	0.017168973
234	0xbdf2fbd3	-0.11864438
235	0xbda3a550	-0.07990515
236	0xbce50399	-0.027955817
237	0xbce5abf7	-0.0280361
238	0xbcd03523	-0.025415963
239	0xbe0c9fef	-0.13732885
240	0xbbdac9a5	-0.00667687
241	0xbdbd94cf	-0.092568986
242	0xbe03505f	-0.12823628
243	0x3cf11098	0.029426858
244	0xbdcbad66	-0.099451825
245	0x3c2532b6	0.010082891
246	0x3da181f5	0.078861155
247	0xbded17f3	-0.115768336
248	0xbd80a3df	-0.06281256
249	0xbdedb26f	-0.11606299
250	0x3d57320f	0.052537974
251	0x3da373d8	0.0798108
252	0x3c257493	0.010098594
253	0xbb15b2d9	-0.0022842197
254	0xbdd1ab07	-0.10237699
255	0xbdce7fdc	-0.10082981

bias f4 [10]
0	0x3d69da95	0.05709322
1	0xbc890243	-0.016724711
2	0x3ccd65ab	0.025072893
3	0x3d014837	0.03156301
4	0x3d6cf693	0.05785234
5	0x3d147ff4	0.036254838
6	0xbd4a39b5	-0.04937144
7	0xbd9a73b6	-0.07541601
8	0x3c4e5e3a	0.012595708
9	0xbd6c7731	-0.057730857
