1/0f446ce835a9473dbf0396b4525d0aa6/checkpoints/epoch=4-step=570.ckpt (torch, 648240 bytes, 12 tensors)

fc1.weight f4 [200, 256]
000000 21 59 38 3d b4 d5 d3 3c 19 92 ba bc 9d 81 f4 bc
       0.045006875 0.025858738 -0.022774743 -0.02984696
000010 f0 ff 84 bd 75 f3 16 3c fe 53 09 3d 43 cd 96 3e
       -0.06494129 0.009213318 0.033527367 0.29453477
000020 fa b0 c6 3e 9a 88 c0 3e a3 27 61 3e 4c ce 0e 3d
       0.38806897 0.3760422 0.21987776 0.03486471
000030 10 26 49 3d e9 65 73 3d aa af 89 3c d9 5e 24 3d
       0.049108565 0.05942336 0.016807396 0.040129516
000040 44 e8 13 bd 75 5a 7f 3c cc ca b4 3c fa 0d 4a bd
       -0.036110178 0.0155855315 0.022069357 -0.049329735
000050 c1 61 b1 3b c9 f4 34 bc 96 c6 21 3e 12 d8 71 3e
       0.0054132645 -0.011044689 0.15798411 0.2361758
000060 22 ba 51 3e b5 a2 74 3e 4d 70 01 3e e0 2d 14 3d
       0.2048116 0.23890193 0.12640496 0.036176562
000070 c6 67 a8 3c 94 fa 5d 3a f0 d9 4e bd 07 10 8b 3d
       0.020557296 0.000846782 -0.05050081 0.06790166
000080 06 01 3f bc a0 d5 a2 3d 98 18 5b 3b 5c 4b 2f bd
       -0.011657959 0.07950902 0.0033431407 -0.042796478
000090 3e 36 15 3c a3 ed e9 3d 2e eb 27 3e b3 f3 0a bd
       0.009107171 0.11422279 0.16398308 -0.033923816
0000a0 f3 35 a6 bd d9 38 a2 bc 05 0e 36 bd c1 99 b9 3c
       -0.08115759 -0.019802498 -0.044446964 0.022656323
0000b0 aa f3 e6 3c 88 be 11 bd eb 4f 35 3d fa b1 3e bc
       0.02819236 -0.035582095 0.04426567 -0.011639113
0000c0 50 c4 e6 bb 85 18 26 bc 3e f7 bf bc 22 e8 7d bc
       -0.0070424452 -0.010137682 -0.023433324 -0.015497239
0000d0 a4 83 f1 3d 42 a8 63 3e e9 23 06 3e ec cb a2 bd
       0.117926866 0.22232154 0.13099636 -0.07949051
0000e0 eb bd d1 bc 24 80 41 bd 44 70 8e bd 44 9e 2e 3c
       -0.025603255 -0.047241345 -0.06955007 0.010657851
0000f0 4e 25 05 bd 96 52 03 3c 1b 18 06 3d 7e 69 29 bc
       -0.03250628 0.0080152955 0.032737833 -0.010340093
000100 51 68 e0 bc 3d 15 1a 3c a6 6d f2 bc 6d 5f 69 3d
       -0.027393492 0.009404478 -0.0295933 0.05697577
000110 bd 02 da 3d 2f 51 f9 3d 19 96 70 3c 78 0a d3 bc
       0.106450535 0.12173688 0.014684224 -0.025761828
000120 c5 30 04 3d 89 5e c8 3d 2a e6 a6 3d 9d c5 9f 39
       0.032273073 0.09783656 0.08149369 0.00030474077
000130 59 29 37 bd b4 f3 c2 bd df f3 b8 3c e5 d9 7c 3c
       -0.044717167 -0.09519139 0.022577224 0.0154328095
000140 29 bb 9e 3d 8d b3 12 3d 00 e5 b0 3d e8 71 1e 3e
       0.07750542 0.035815764 0.08637428 0.1547314
000150 9b 7c 79 3e 05 e0 0d 3e 75 5e 5f 3c 52 f3 46 3c
       0.2436394 0.13854988 0.01363336 0.012142973
000160 de 2a 0b bd 23 ca 49 3d 99 4e 21 3c 5b fb 5b 3c
       -0.03397643 0.04926504 0.009845399 0.013426627
000170 83 a2 b0 bd eb 42 b9 bc ab a9 8c 3d e6 5f 82 3d
       -0.08624747 -0.022614917 0.06868299 0.063659474
000180 43 9f a7 3d af a9 d0 3d 30 46 f7 3d bd e5 15 3e
       0.08184674 0.101886146 0.12073934 0.1463842
000190 88 88 e3 3d 54 64 1a bd d3 db 07 bd 1b 77 0a be
       0.11110026 -0.037693337 -0.033168625 -0.13521998
0001a0 27 b7 fe bd 15 00 88 bc c8 97 cd bc 3e a8 ee 3c
       -0.12437277 -0.016601602 -0.025096789 0.029132959
0001b0 31 f4 d4 bd 70 84 20 3d 97 d5 a5 3d bf 4e 5a 3b
       -0.10398138 0.039188802 0.0809738 0.0033311096
0001c0 f6 68 75 3d b2 71 7f 3d 80 d1 07 3e d5 23 22 3e
       0.05991455 0.062364288 0.13263512 0.15833981
0001d0 ea 15 b9 3d c7 47 d7 bc ef d5 01 bd 1b bf 6c bd
       0.09037383 -0.026279343 -0.031698164 -0.05779944
0001e0 c8 46 15 be 59 aa 3b bd 1f 86 c5 3b bf 3b ea 3b
       -0.14577782 -0.045816753 0.0060279514 0.0071482356
0001f0 ab 60 7d bb e9 b3 0b 3c 6e 09 9a 3d 24 21 95 3d
       -0.0038662355 0.008526781 0.0752133 0.07281712
000200 7f ce 40 3d c6 33 ae 3d f9 af 88 3d 07 28 f5 3d
       0.04707193 0.08505969 0.06674189 0.11970525
000210 2d 15 54 3d 4a eb 07 bd fe b7 15 bd 27 ed c3 bd
       0.051778007 -0.033183374 -0.03655242 -0.095667176
000220 b5 08 89 bd 1c 2a f9 bc da 56 4f 3d ad 86 5d bc
       -0.06691114 -0.030415587 0.050619937 -0.013520879
000230 74 f4 83 3c 8a 82 c4 bc 86 b3 0e 3d 53 c7 2c 3c
       0.016107775 -0.023988027 0.034839176 0.0105455695
000240 81 f7 17 bd 65 40 53 3d 9c 1a 28 bc c9 f6 11 3c
       -0.037101272 0.051575083 -0.01026025 0.008908936
000250 82 7a 87 bc 26 fd d4 bc 33 13 5b bd 9a b6 aa bd
       -0.016537908 -0.025999617 -0.053485107 -0.0833561
000260 73 45 62 bd 78 23 b2 3d be 1f 8c bc 1d d4 30 3d
       -0.055242013 0.086981714 -0.01710498 0.043171037
000270 ea 53 03 3d 20 42 84 3c 56 d3 ca bc fb 86 03 3d
       0.03206245 0.016144812 -0.024758976 0.03211115
000280 f6 40 66 bd 2e 42 68 3c 26 a5 80 bc 6c 64 08 3c
       -0.056214295 0.014175935 -0.015703749 0.008324724
000290 f7 3e c2 3c 3e 4c a4 bc 52 25 ea bd 75 b1 48 be
       0.023711665 -0.020055886 -0.114328995 -0.19598944
0002a0 8d 54 36 bb 90 8b 10 3e 18 09 83 3c eb e0 78 bc
       -0.0027821392 0.14115739 0.015995547 -0.015190343
0002b0 b2 f9 43 bd 65 fb 68 bc 59 d9 e9 bc 38 0b f6 3c
       -0.04784555 -0.014220093 -0.028546022 0.030034646
0002c0 34 68 bc bc cf 66 63 bd 09 8f a6 bc 80 33 03 bd
       -0.022998907 -0.055517968 -0.020331876 -0.032031536
0002d0 af 73 88 bc 3e 5d bc bd 12 79 14 be d5 6f b2 bd
       -0.016656725 -0.09197472 -0.1449931 -0.087127365
0002e0 8d 2f dc bc 96 b0 cf 3d c2 a6 e6 3c 12 c6 40 bd
       -0.026878143 0.10141103 0.028155688 -0.047063895
0002f0 90 82 c8 bc c2 45 a7 bd 5a 02 73 bd 09 b3 b6 bb
       -0.02447632 -0.08167602 -0.059328414 -0.005575542
000300 30 09 55 bd 44 f2 37 bd 0d 08 8b bc 25 01 34 bb
       -0.052010715 -0.044908777 -0.016971612 -0.0027466503
000310 83 05 b2 bd be c6 1e be dd 75 e4 bd 86 16 b1 bd
       -0.086924575 -0.15505502 -0.11155293 -0.08646874
000320 43 a0 97 3d 0f 1a a5 3c b8 37 80 bd 48 33 52 bd
       0.07403614 0.020154027 -0.062606275 -0.051318437
000330 8a 65 91 bd 16 30 5f bc e9 75 0a bd df 1a 9e 3c
       -0.07099445 -0.013622304 -0.033803854 0.019299923
000340 1a e1 b3 bc 30 08 98 bd b0 a4 fc bc fd 08 b9 3c
       -0.021957923 -0.07423437 -0.030840248 0.022587294
000350 f8 96 80 bd 21 ee 8f bd 8d 40 af bd 78 bf 90 bb
       -0.06278795 -0.07027841 -0.08557234 -0.004417356
000360 e6 53 cf 3d 6f 53 0a 3d 28 cf 65 bd fb 57 39 bd
       0.10123424 0.033770975 -0.056105763 -0.04524992
000370 b2 5a 92 bd fc 02 05 be 15 53 20 bc 5f b5 02 bc
       -0.07146205 -0.1298942 -0.009785433 -0.007977813
000380 c2 fa 0e 3c 28 76 5c bd 0b 52 80 b9 99 e5 5c 3c
       0.0087267775 -0.05382362 -0.0002447519 0.013482475
000390 a8 ac 8e bd 26 ba bd bd c1 f8 8d bd 0e a5 72 3d
       -0.06966525 -0.092640206 -0.06932212 0.05923944
0003a0 4d 31 bb bd fb 41 b1 bc 1e af 7c bd 44 c9 16 bd
       -0.09140263 -0.021637907 -0.061690442 -0.036813036
0003b0 e1 12 5f bd 52 49 19 bc 16 5a 82 bc e0 9b 27 3d
       -0.054461364 -0.00935586 -0.015912097 0.04092014
0003c0 9e 78 37 3c 03 23 86 bc 5c 7b 37 3d 6b 7e f0 b9
       0.011198191 -0.016374117 0.04479538 -0.00045870556
0003d0 56 80 2b 3d 67 4f 59 bd 41 13 26 bd c9 cb c4 bc
       0.041870438 -0.05305424 -0.040545706 -0.024022954
0003e0 e5 b1 3d bd 96 d9 84 bd d3 c1 00 bc 77 25 2c 3c
       -0.04631223 -0.06486814 -0.007858711 0.010506979
0003f0 58 a4 00 bd 13 9a 32 bd 47 8d 13 3d a6 a9 52 bd
       -0.03140673 -0.043603968 0.036023404 -0.05143132

fc1.bias f4 [200]
000000 72 f1 f7 bc 68 a6 04 bd 77 b2 78 bd ad 5c 98 bd
       -0.030266497 -0.03238526 -0.060717072 -0.074395515
000010 e1 84 c3 3c 9d e8 49 3d f5 2d 08 3d 7f aa 17 bd
       0.023867073 0.049294103 0.033246953 -0.037027832
000020 b8 3e 83 3d a9 41 de 3c 13 59 75 bd e4 fa 8f 3c
       0.06408447 0.027130919 -0.0598994 0.017575689
000030 39 2a 8e bc 66 37 90 3c 33 2d 20 bd 7e d9 1f bd
       -0.017354118 0.017604541 -0.039105605 -0.039025776
000040 1b 4c 12 bd c0 d5 3a bd 5a f7 28 3d a2 c4 34 bd
       -0.03571711 -0.045614004 0.041251518 -0.044132836
000050 36 d7 4b bc 3d 7b ad 3c 95 e1 73 3b c1 d0 19 3c
       -0.012441447 0.021176929 0.0037213315 0.00938815
000060 f1 80 57 3d c6 d5 fe 3c f9 dd e8 bc ee df 9d 3c
       0.052613202 0.031107794 -0.028426157 0.019271817
000070 c3 43 04 bd 27 55 54 3d a0 de b9 bc 2e 2f 9f 3c
       -0.032291185 0.05183902 -0.022689164 0.019431677
000080 a6 8a 90 bd c1 55 1e 3d cd 8c 31 bc 33 1d 05 3d
       -0.07057695 0.038656 -0.010836792 0.03249855
000090 27 46 de bb a6 2c c8 bc b4 67 c3 3d 41 22 12 3d
       -0.006783265 -0.024435353 0.09541264 0.0356772
0000a0 ab 0c ad 3c 31 69 21 bb 40 69 98 bc af d2 a2 bc
       0.021124205 -0.002462935 -0.018604875 -0.019875852
0000b0 2a b3 0b bd 87 26 ae bd 5c a0 d3 3c 2d 1e 58 3d
       -0.03410641 -0.08503442 0.025833301 0.052763153
0000c0 a2 25 da bc e5 d2 d0 3c 45 d5 98 bd 2e 30 0b 3d
       -0.026629273 0.025491187 -0.07462553 0.033981495
0000d0 aa 10 14 3c df 8d 2b bd cc 58 30 3c dd 9f 79 bc
       0.009037176 -0.041883346 0.010763358 -0.015235868
0000e0 ca 6d 0e bd ad 21 3d bd 12 e2 6b bd d1 16 0c bd
       -0.03477267 -0.046174694 -0.057588644 -0.034201447
0000f0 4a 0f 4c 3c b8 87 72 3d 77 79 76 bd df f3 1c bd
       0.012454817 0.059211463 -0.06017443 -0.03831851
000100 10 8e 82 bd f6 4f 6f 3d 71 d2 03 3d 6a 03 3c 3d
       -0.063747525 0.058425866 0.032183114 0.045901693
000110 65 9a 81 bb bf c4 89 bc 39 f0 75 3d 67 77 0d bd
       -0.003955173 -0.016817449 0.060043547 -0.0345377
000120 d9 ba c8 bb a8 11 a2 bc 0b 9b 3c bd 9d 4b 70 3d
       -0.0061257896 -0.01978381 -0.046046298 0.05866586
000130 26 12 7c 3c 3e f4 12 bd dd d9 e4 3c 51 dd 3a bc
       0.015385186 -0.03587746 0.027935917 -0.011405305
000140 70 db 51 3d 44 93 2f bc 0f 15 24 3d 92 96 07 bd
       0.051234663 -0.010716263 0.040059146 -0.03310258
000150 21 58 67 bd da 26 45 3c 0f 63 2c 3c c1 64 56 bd
       -0.05648053 0.012033189 0.010521664 -0.05234218
000160 a3 ed 56 bd 3d 6f 61 3d 2a 32 03 3d 24 de 02 3d
       -0.05247272 0.055037726 0.032030262 0.03195013
000170 10 3c b7 bc 3c 4f b8 bd d2 93 10 3d fd bc ea bc
       -0.022367507 -0.08999488 0.035297222 -0.02865457
000180 e6 aa 84 bd 05 e8 89 bc e1 12 8b bb 41 e3 9e bd
       -0.06477909 -0.016834268 -0.004244194 -0.07758189
000190 8c 35 7d bc 13 b0 6d 3c 47 f2 47 bd 28 8a bc 3d
       -0.015454661 0.014507311 -0.048815038 0.09206039
0001a0 31 10 1b 3d 1e 43 bf bc ee 7c 23 3d ae d7 01 bb
       0.03785724 -0.023347434 0.039914064 -0.0019812393
0001b0 e5 4f cd bc ed a2 0a 3d cc 82 25 3c 61 67 e4 3c
       -0.02506251 0.033846784 0.010101985 0.027881326
0001c0 94 03 11 3d 0f d6 89 3a 20 6c c8 bc fb 63 ae bc
       0.035403803 0.0010516065 -0.02446562 -0.021287909
0001d0 ee 2a 59 bd de 13 47 3c 43 6a 01 bc 1a c8 86 3c
       -0.053019457 0.012150733 -0.00789887 0.016452838
0001e0 4c a8 8b 3d 58 0f f4 bc b3 d5 15 3d 0f 72 9b bd
       0.068192095 -0.029792473 0.036580753 -0.07590114
0001f0 c6 60 4c bd a4 8b a1 3c 0d 63 01 3d 03 86 61 3d
       -0.049896978 0.019719906 0.031588603 0.055059444
000200 16 59 2d 3c f1 76 cd 3c 45 65 c3 3c e3 f0 a7 bd
       0.010580322 0.02508113 0.023852 -0.08200242
000210 38 16 a7 bd 52 86 8b 3d 87 e2 4f 3d f6 4e 33 bd
       -0.08158535 0.06812729 0.050753143 -0.043776475
000220 d8 ed 35 bd 9c 1d b7 bd 0c e8 29 3d 3a b9 8c bd
       -0.04441628 -0.089411944 0.041481063 -0.06871267
000230 d0 09 95 bd 3e 5f fa 3c b6 a8 9d 3d 32 75 6d 3c
       -0.07277262 0.030562993 0.07698195 0.014493274
000240 84 47 83 bd 36 a1 03 bd 74 0e 94 3c 25 42 a1 3c
       -0.06410125 -0.032136165 0.018073298 0.01968486
000250 ca a7 93 bd 66 3b 7d 3d 84 bd 8d 3c 42 a2 07 bd
       -0.072097376 0.061824225 0.017302282 -0.033113725
000260 cb dd 4a bd f1 49 47 bd d3 bb 2d 3d 1e 09 1e 3d
       -0.049527925 -0.0486545 0.04241545 0.038582914
000270 c3 0f 98 bd 3e 59 fc 3a 1a ab 30 bb 58 f3 35 bc
       -0.07424881 0.001925267 -0.0026957453 -0.011105381
000280 35 b7 61 bd cc a9 29 bd ce 2e 24 3d b7 ca d4 bc
       -0.05510636 -0.041421697 0.0400837 -0.025975568
000290 e8 a7 28 3a 01 e0 ac bc 23 8a a6 3b 74 40 93 3d
       0.00064337114 -0.021102907 0.005082385 0.07190028
0002a0 9a c7 97 bc 15 7c 83 bc 19 c2 a6 3d 6e 50 5a bd
       -0.018527795 -0.016050378 0.0814249 -0.05329936
0002b0 41 2a d3 3c 82 0e 9a 3b a5 ac 96 bc a7 16 40 3d
       0.025776984 0.0047014365 -0.01839287 0.046896603
0002c0 64 84 41 bc b6 cb 4b 3d 44 ee 63 3d 5f 38 5a bd
       -0.01181135 0.04975482 0.05564715 -0.053276416
0002d0 2e 90 50 bd f1 94 4f 3c bf 24 cc bc 76 69 0b 3d
       -0.05091875 0.012669788 -0.024919866 0.034036122
0002e0 76 bc 4c bd 86 0a 45 3d 21 b1 85 3c 39 0c 7d 3c
       -0.049984418 0.04810574 0.016319813 0.015444809
0002f0 7c b5 30 bc 0c 45 45 bc 84 30 3c 3d 0b 63 97 3c
       -0.010785457 -0.012040388 0.045944706 0.018479845
000300 dc 04 9a 3d e7 56 52 bc a9 96 68 3d 7e 70 06 bd
       0.07520458 -0.012838102 0.056784306 -0.032822125
000310 6c 58 6e bd d0 62 57 bc 93 cf 09 3d 37 5f e0 bb
       -0.058189794 -0.013146117 0.033645224 -0.006847288

fc2.weight f4 [10, 200]
000000 9f 58 07 3d 53 2d 18 be 0c 12 00 be 4f 57 6a bd
       0.0330435 -0.1486104 -0.12506884 -0.05721217
000010 a7 c3 d8 3d 3f 12 d3 3d bf 65 9d 3c a9 4e 11 3d
       0.10584193 0.103062145 0.019213555 0.035475407
000020 ec 50 66 3e 59 cb d9 3d f2 35 e7 3c 8c af 73 bd
       0.22491807 0.106344886 0.028223965 -0.059493586
000030 96 54 52 be e7 c5 ef 3d 78 d3 8b 3d d1 96 9a 3d
       -0.2054008 0.11707669 0.06827444 0.07548297
000040 99 b6 15 3e 86 a0 3b be 97 12 28 be 61 4c 2c bd
       0.14620437 -0.18322954 -0.16413341 -0.042065028
000050 24 05 a3 be e4 29 c8 bd 64 8e 10 3e c1 bc 82 3d
       -0.3183986 -0.09773615 0.14116818 0.06383658
000060 b2 35 aa bd 7e b2 c9 3d e0 49 56 be d0 d4 ba bc
       -0.08311023 0.09848498 -0.20926619 -0.022806555
000070 83 65 44 bc 17 0a 15 be eb aa ab bc ea 31 7e 3e
       -0.011987093 -0.1455463 -0.020955523 0.24823728
000080 6a 61 da 3c 0b 8f a0 3d 5b 76 49 3c 9e 6d 13 be
       0.026657779 0.07839783 0.012296285 -0.14397284
000090 ea 03 c4 3d d5 e9 11 bb d9 55 98 bd c4 04 8e 3d
       0.09571059 -0.002226462 -0.07438249 0.06934503
0000a0 2e 31 fd bc 9c 96 09 3d f0 a2 48 be f5 41 dd bd
       -0.03090724 0.033590898 -0.19593406 -0.10803596
0000b0 56 04 33 be 84 81 20 bd 17 0a db 3d 80 ed 2b be
       -0.17482123 -0.039186016 0.10695284 -0.16789818
0000c0 2f d5 8c 3d e0 3f f6 bd 13 7a 0c 3e 72 36 11 be
       0.06876599 -0.12023902 0.13718443 -0.14180925
0000d0 fa 3f 5a be 1f ba 05 bd bb 4a 8a bd 42 09 a0 3d
       -0.21313468 -0.032648202 -0.06752535 0.07814266
0000e0 15 df d8 3d dc aa 22 3d 8d 6a 2a bd 6a 2f af bd
       0.105894245 0.039713725 -0.04160552 -0.085539654
0000f0 2d 32 09 bd 95 dc 8c bd a3 f2 bd 3d 76 13 6f bc
       -0.033495117 -0.0687801 0.09274795 -0.014592042
000100 45 93 16 3e ff de e3 3d 6d b8 0e be 50 05 98 3d
       0.14704616 0.111265175 -0.1393754 0.07422888
000110 90 fe ed 3d 4a ac d4 3c d0 31 8a bc a4 27 3e be
       0.116208196 0.02596106 -0.016869456 -0.18569809
000120 95 00 45 bc 61 15 be bc e6 41 38 3d f2 57 14 3d
       -0.012024065 -0.023203554 0.04498472 0.036216684
000130 ee c7 53 3d b7 d6 c4 bd a0 33 91 3c 5e da 3f 3e
       0.05170434 -0.09611266 0.017724812 0.18735644
000140 b8 6c ef 3d c0 6b d7 bd e2 93 c7 3c 8f 1b 6e 3d
       0.11690658 -0.105185986 0.024362508 0.05813175
000150 d8 27 10 be 1c 14 5c 3d 64 c8 c5 bd 34 7a a0 3c
       -0.14077699 0.053730115 -0.09657362 0.019589521
000160 2d fb b9 bc 1e e6 80 3d 8a 79 1f bd ce 21 89 bd
       -0.022702778 0.06293891 -0.038934268 -0.06695901
000170 b9 50 20 3d 93 93 ea bd 6c 35 9e bd 93 b6 5a be
       0.039139483 -0.11453929 -0.07725033 -0.21358709
000180 9b d9 10 be 8a 27 cf bd 03 e5 8c bc 93 dc 13 3e
       -0.1414551 -0.10114963 -0.017199045 0.14439611
000190 7b 06 15 be 01 69 7a bd df 88 d8 bd 06 5d b1 bc
       -0.14553253 -0.061135296 -0.10572981 -0.021650802
0001a0 9b 45 10 be 6e 34 19 3c 04 25 35 be de cd b8 bd
       -0.14089052 0.009350879 -0.17689902 -0.09023641
0001b0 56 fe 51 3e 2f ba 81 bd ad 57 88 3d b4 ce 3f bd
       0.20507178 -0.0633434 0.06657348 -0.046827987
0001c0 d0 de 32 be 45 72 c0 bd ff 1f 46 bd f6 be 53 3e
       -0.17467809 -0.09396795 -0.048370358 0.20678315
0001d0 8e 6d 3a be bd 33 a5 bd 69 26 57 be 2d 11 07 3d
       -0.18205854 -0.08066509 -0.21010746 0.032975364
0001e0 50 ba c4 b7 de ea 22 3e 76 f8 83 3c 60 13 09 bd
       -2.345178e-05 0.15909907 0.016109686 -0.033465743
0001f0 b9 74 fd bd a5 ff ab bd d1 e3 c1 bd 53 a0 e3 3d
       -0.12375779 -0.0839837 -0.09467281 0.11114564
000200 70 7e 67 3c 71 74 1e be cf 23 05 be b2 e4 b9 3d
       0.014129266 -0.15474106 -0.13001941 0.09076823
000210 ca 22 1f ba 78 e3 e9 bc aa 9f 06 be 29 cb 52 3d
       -0.00060705526 -0.028550848 -0.13146845 0.05146328
000220 c9 4f fd 3d 6a 64 36 bd d1 06 04 be 91 eb 81 bd
       0.123687334 -0.044529356 -0.12893225 -0.06343759
000230 ef d2 17 be e5 3a 2e bd 61 64 10 3e fd fd f4 bc
       -0.14826559 -0.042536635 0.14100792 -0.029906267
000240 84 b3 1f 3e 88 66 94 be b2 56 a2 3d 62 7a 81 3d
       0.15595824 -0.28984475 0.07926692 0.06322171
000250 bd 3a e3 bc e9 7f 83 3d cc 43 fb 3d db 0e c5 bd
       -0.02773797 0.06420881 0.122687906 -0.09621974
000260 da 8d 98 bc 0a 40 1e 3e 28 54 e6 3d a4 87 26 bd
       -0.018622328 0.15454116 0.1124652 -0.0406567
000270 22 01 1b 3d b0 36 8b bc 4a 61 ae 3c 28 50 a2 3d
       0.037842877 -0.01699385 0.021286625 0.07925445
000280 ed 36 9b 3a b6 54 39 bd e1 c9 d2 3c 78 08 0f 3e
       0.0011841931 -0.045246802 0.025731029 0.13968074
000290 63 31 bb bd d4 31 74 bd 45 a1 df 3c bc 0d 07 bb
       -0.09140279 -0.059617832 0.027298579 -0.0020607552
0002a0 f7 52 c4 bd 3e 78 a7 3d 83 ac 12 be 51 aa e1 bb
       -0.09586137 0.08177231 -0.1432362 -0.0068867584
0002b0 97 0a 16 bc d5 75 01 bc 15 a6 89 bc 9f 80 f3 bd
       -0.009157798 -0.0079016285 -0.016802827 -0.11889767
0002c0 3c 21 05 be 72 1a eb 3c 29 8c f9 3d b1 75 3a be
       -0.13000959 0.028699134 0.121849366 -0.18208958
0002d0 95 25 db 3c f9 d3 ce bd 9a 2d 26 bc a8 81 bc 3c
       0.026751319 -0.10099024 -0.010142708 0.023011044
0002e0 af 04 02 3e 5e 98 16 3e 03 8c 94 3c 38 7a 0a bc
       0.12697099 0.14706561 0.018133169 -0.008451991
0002f0 ec 33 0f bd d6 0f 71 bd 49 10 cc 3d 88 63 92 bd
       -0.034961626 -0.058852993 0.09964044 -0.0714789
000300 9d ea f1 bd d6 6b 8a 3c cd 98 bb bd 7b 29 6e 3b
       -0.11812327 0.016897123 -0.09160004 0.0036340642
000310 67 3f 12 be 9d 15 05 3e bf 88 23 be 2c e1 b1 bc
       -0.14281999 0.12996526 -0.15970133 -0.021713816
000320 99 e3 60 be b5 34 44 bd 85 5a 15 3e 95 14 15 bd
       -0.21961822 -0.047901828 0.14585312 -0.03639658
000330 fe 7e 64 bc da 0c 73 3d 9a 19 0d bd 6e 3f 28 be
       -0.013946293 0.059338428 -0.034448244 -0.16430447
000340 2d 2c a7 3c f5 56 2b bd a9 1d 5d 3d 55 0c e8 bd
       0.020406807 -0.041830976 0.053983364 -0.11330477
000350 96 72 e1 3c 03 8c 0e be 07 95 bd bc b0 09 68 bd
       0.02752046 -0.13920598 -0.02314235 -0.056649864
000360 81 ea 25 bc ff da c5 3d 0b 0e 1e bd 3f be 5b bd
       -0.010126711 0.09660911 -0.03858761 -0.05364823
000370 04 62 b1 bd 36 e9 a8 bd 30 aa 18 be d6 9a 4d bd
       -0.08661273 -0.082476065 -0.14908671 -0.05019649
000380 0a 00 bd 3d 43 a4 db bd 4e a8 ed bd 95 0e cf bc
       0.09228523 -0.1072469 -0.11604367 -0.025275508
000390 34 ef 4f bd 34 44 aa 3a f8 b4 93 bd fb ed b1 bd
       -0.05076523 0.0012990297 -0.072122514 -0.08687969
0003a0 05 c9 24 bc 3b b0 12 be 20 fa 47 3c 89 0f f1 3c
       -0.010057692 -0.14325039 0.012205631 0.029426353
0003b0 d0 79 19 be 6b dd 4c bd 19 4f b5 bd 9e 85 e3 3d
       -0.14987874 -0.050015848 -0.08852977 0.1110947
0003c0 e2 10 fc bd d8 87 23 3d 32 f6 44 be 24 cd 0a be
       -0.12307908 0.039924473 -0.19234541 -0.13554817
0003d0 f9 c3 b7 3d f3 81 13 3e 74 b5 bc bd a4 7b 44 bc
       0.08972926 0.1440504 -0.09214297 -0.011992369
0003e0 c4 1a d7 bd 57 ce 18 be dc f0 38 bc 59 11 0b 3e
       -0.10503152 -0.14922462 -0.011287894 0.13580836
0003f0 4e 75 12 bd 01 dd 02 3c f6 9e 0b bd 32 19 c3 bd
       -0.0357564 0.007987262 -0.034087144 -0.0952629

fc2.bias f4 [10]
000000 ae b1 a2 bd 28 98 27 bd d5 d0 48 3d a2 57 e9 bc
       -0.07944046 -0.040916592 0.049027283 -0.02848417
000010 16 86 65 3d ac df bf 3d 96 2e 94 bd 0c c4 be bc
       0.056036077 0.09368834 -0.07235448 -0.023286842
000020 88 44 22 3b 52 9f 5c bd
       0.0024760086 -0.053862877

exp_avg f4 [200, 256]
000000 8c 79 b3 39 97 1b b3 39 e7 f4 aa 39 2e ee 95 39
       0.000342321 0.00034162097 0.00032607393 0.00028596952
000010 db f0 75 39 3c 2a 33 39 4f d7 ac 38 f4 8c e2 b6
       0.00023454746 0.00017086504 8.2417035e-05 -6.751734e-06
000020 60 c4 85 b8 4e fc 88 b8 fd aa f6 b6 2d d2 e6 38
       -6.378512e-05 -6.531981e-05 -7.351277e-06 0.00011006403
000030 4d 33 6a 39 07 45 99 39 12 47 ab 39 a5 a4 b1 39
       0.0002233509 0.00029233863 0.00032668613 0.0003388274
000040 b0 2d b4 39 c1 5a b3 39 cf df 9f 39 4d 90 5e 39
       0.00034366315 0.00034209157 0.00030493594 0.00021225326
000050 f1 89 cc 38 9c 41 4c b7 8b 14 f1 b8 8d 78 31 b9
       9.7531716e-05 -1.2174623e-05 -0.00011495602 -0.00016924944
000060 db 46 33 b9 b9 94 31 b9 0f 38 27 b9 ca cd 86 b8
       -0.00017097166 -0.00016935439 -0.00015947245 -6.427949e-05
000070 9c 52 ab 38 81 bd 65 39 9e c7 9f 39 df 99 af 39
       8.1693026e-05 0.00021909738 0.0003047557 0.00033493244
000080 c6 f0 b2 39 07 5c ad 39 8f 98 8a 39 2b e2 ec 38
       0.00034130196 0.00033065697 0.00026435076 0.00011295484
000090 e3 0a 42 b8 55 30 10 b9 4f d6 1f b9 3f 07 e3 b8
       -4.6263343e-05 -0.00013750915 -0.00015243258 -0.00010825553
0000a0 07 4f 65 b8 e2 cb 9b b8 3e 74 07 b9 a7 21 c1 b8
       -5.4671455e-05 -7.428952e-05 -0.00012917907 -9.2092254e-05
0000b0 67 be 9b 37 88 5a 2b 39 f7 65 94 39 02 11 ad 39
       1.8566103e-05 0.00016341556 0.0002830473 0.00033009803
0000c0 c9 15 b0 39 23 6e a3 39 e0 08 65 39 a1 77 f0 37
       0.00033585567 0.0003117184 0.00021842448 2.8665936e-05
0000d0 f4 3e fb b8 18 a9 03 b9 ad 09 5c b8 32 bc c1 36
       -0.000119803386 -0.00012556126 -5.24611e-05 5.773757e-06
0000e0 cb fd fe 37 91 f0 8c b6 e2 c5 a0 b8 82 68 94 b8
       3.0397341e-05 -4.2003307e-06 -7.666253e-05 -7.076656e-05
0000f0 7e 18 ba 37 1e a0 1f 39 46 00 8c 39 a6 e5 a7 39
       2.2184333e-05 0.0001522307 0.00026703085 0.00032023824
000100 2d b3 ab 39 dd 45 97 39 74 fc 3b 39 04 f3 6f b7
       0.00032749158 0.00028853017 0.00017927756 -1.4302092e-05
000110 19 d0 01 b9 80 d4 a0 b8 1a 44 1d 36 80 64 0e 38
       -0.00012379921 -7.668976e-05 2.3434463e-06 3.3949036e-05
000120 2e 8f 27 38 e8 0d b1 36 46 cf 80 b8 0d 6f 27 b8
       3.994925e-05 5.27663e-06 -6.142123e-05 -3.9919327e-05
000130 54 25 92 38 37 10 43 39 e6 27 8a 39 e3 23 a2 39
       6.9687754e-05 0.0001860269 0.00026351138 0.00030925786
000140 83 75 a6 39 67 c6 8e 39 47 a1 34 39 8d ae fc 36
       0.0003174954 0.00027232172 0.00017226218 7.5305056e-06
000150 d4 dc ac b8 6c 21 2d b8 3c 49 b1 37 ae dc 41 38
       -8.2427316e-05 -4.127754e-05 2.1134147e-05 4.622031e-05
000160 db 8d f8 37 75 cd 28 b8 14 d0 a8 b8 08 a3 91 37
       2.962996e-05 -4.0245668e-05 -8.049622e-05 1.7361264e-05
000170 06 8b 20 39 25 db 81 39 8d 78 95 39 91 86 a4 39
       0.0001531058 0.00024768073 0.00028509312 0.00031380777
000180 d3 9c a2 39 86 c3 8b 39 85 db 45 39 41 52 8f 38
       0.0003101589 0.00026657822 0.00018869161 6.834092e-05
000190 2b ce 85 36 e4 5d 08 38 58 b9 90 38 60 32 96 38
       3.98771e-06 3.251237e-05 6.900978e-05 7.1619404e-05
0001a0 8b f2 c5 37 71 44 c8 b8 96 7f 1d b9 ec 33 20 b7
       2.3597173e-05 -9.5494914e-05 -0.00015020216 -9.548832e-06
0001b0 a8 26 42 39 5d d1 97 39 9a 1a a5 39 49 0f ac 39
       0.00018515682 0.00028956952 0.00031491072 0.00032817785
0001c0 c7 5d a5 39 a4 a0 8f 39 7b 94 5a 39 3c b9 08 39
       0.00031541122 0.00027394772 0.00020845413 0.00013038976
0001d0 2e e5 e4 38 1d b2 19 39 93 14 29 39 34 ca 05 39
       0.00010914575 0.0001465757 0.0001612476 0.00012759195
0001e0 6d df 01 38 d8 1e 05 b9 e6 45 4b b9 e6 95 5d b8
       3.0964078e-05 -0.00012695359 -0.00019385628 -5.283011e-05
0001f0 7e 15 36 39 62 b0 9e 39 1c 16 b2 39 c1 8c b2 39
       0.00017364879 0.00030267524 0.00033967278 0.00034055675
000200 ea 71 ac 39 4d cd 9b 39 31 f5 76 39 b3 c1 2f 39
       0.0003289127 0.00029716865 0.00023551729 0.00016761459
000210 d4 de 26 39 b1 b0 5e 39 66 89 73 39 ae d4 38 39
       0.00015914004 0.00021237393 0.00023225471 0.00017626837
000220 66 37 c0 37 a1 73 21 b9 69 f7 46 b9 1a b7 44 b8
       2.291398e-05 -0.00015397232 -0.00018974919 -4.6900568e-05
000230 87 3f 26 39 bf 74 9d 39 5e 98 b8 39 ab dc b5 39
       0.0001585466 0.00030032356 0.00035208737 0.0003468742
000240 7b e7 b0 39 f2 10 a8 39 60 30 8d 39 64 5d 53 39
       0.00033741802 0.00032056082 0.00026929658 0.00020157319
000250 3e f2 47 39 75 5d 81 39 51 7d 8d 39 f1 24 5e 39
       0.00019068361 0.00024674428 0.00026986984 0.00021185332
000260 8b bf dc 37 0c f5 2a b9 41 58 1d b9 4e 2a 0c b7
       2.6315238e-05 -0.0001630375 -0.00015005564 -8.3545e-06
000270 ea b2 21 39 63 2c 95 39 93 8a b6 39 a9 cc b6 39
       0.00015420807 0.00028452565 0.0003481699 0.0003486623
000280 a0 ad b2 39 a1 fd aa 39 d6 cd 8e 39 25 12 59 39
       0.00034080166 0.00032613895 0.0002723771 0.00020701492
000290 f2 70 56 39 35 ed 8b 39 23 88 98 39 5a f8 6a 39
       0.00020450706 0.0002668888 0.0002909313 0.00022408497
0002a0 16 19 ba 37 14 6d 23 b9 f0 32 e5 b8 23 bf 5f 37
       2.218461e-05 -0.00015585526 -0.00010929059 1.3336338e-05
0002b0 99 b7 16 39 a6 28 8a 39 a0 5e b0 39 65 85 b6 39
       0.0001437351 0.00026351697 0.00033639837 0.00034813132
0002c0 d6 74 b3 39 e5 16 a2 39 a1 aa 65 39 9c be 22 39
       0.0003422859 0.00030916106 0.00021902706 0.00015520531
0002d0 7d e9 39 39 33 ba 87 39 9e 24 93 39 6d 37 3f 39
       0.00017729956 0.00025887936 0.00028065307 0.00018235827
0002e0 85 1b dc b7 e6 44 11 b9 6d 9a 84 b8 40 fd d8 37
       -2.6238858e-05 -0.00013853944 -6.3230145e-05 2.5867135e-05
0002f0 dd d3 01 39 7a 50 79 39 7c 4c aa 39 8d 00 b6 39
       0.00012381324 0.0002377647 0.00032481912 0.00034714155
000300 96 87 b2 39 63 de 9b 39 1a 0b 41 39 e6 a7 ef 38
       0.00034051825 0.00029729595 0.0001841005 0.000114276816
000310 85 98 03 39 77 99 44 39 65 6d 48 39 d8 93 7e 38
       0.00012549951 0.00018749187 0.00019114239 6.069601e-05
000320 9c ca 02 b9 10 b0 08 b9 f5 7e b9 b7 10 a4 4e 38
       -0.00012473244 -0.00013035559 -2.2112838e-05 4.9267022e-05
000330 f5 66 fa 38 87 20 6a 39 73 1f a7 39 59 22 b5 39
       0.00011940106 0.00022328096 0.00031876154 0.000345486
000340 e3 27 b2 39 80 e8 a1 39 fd b9 60 39 e4 8d 04 39
       0.00033980524 0.0003088154 0.0002143159 0.0001264136
000350 ca 5e d1 38 6f c4 eb 38 8d e2 9c 38 70 b9 8b b8
       9.9835524e-05 0.00011242262 7.480858e-05 -6.662577e-05
000360 8e df 42 b9 eb ce db b8 1b 16 5c 37 ab f1 a2 38
       -0.00018584562 -0.00010481275 1.3118169e-05 7.769776e-05
000370 b7 2f 19 39 cb 4c 83 39 e2 c2 ab 39 c7 77 b4 39
       0.00014608992 0.00025043482 0.0003276086 0.00034421516
000380 c5 94 b2 39 0d ed ab 39 4e 89 8e 39 09 8f 3d 39
       0.00034061648 0.00032792278 0.0002718665 0.0001807773
000390 8e 45 07 39 b2 1d dc 38 4e 69 0c 38 34 af cb b8
       0.00012900514 0.00010495949 3.3476674e-05 -9.7124284e-05
0003a0 b8 de 18 b9 3e 9b 0a b8 f0 02 91 38 26 2e 0d 39
       -0.00014578819 -3.3046344e-05 6.914686e-05 0.00013464
0003b0 99 ac 63 39 52 08 9f 39 d6 cb b2 39 49 33 b4 39
       0.00021712705 0.00030333042 0.00034102675 0.00034370486
0003c0 da f1 b2 39 60 4a b1 39 c2 0b a6 39 42 ae 8c 39
       0.00034131 0.00033815484 0.00031670748 0.00026832713
0003d0 3d 67 71 39 e9 00 4a 39 4f 6a eb 38 7f 43 96 37
       0.0002302201 0.0001926456 0.00011225475 1.7912824e-05
0003e0 eb 0f b3 37 5f 10 ea 38 78 19 3f 39 9d 82 7a 39
       2.1345875e-05 0.00011161039 0.00018224667 0.00023890515
0003f0 ab 08 9d 39 e2 0b b0 39 77 3e b4 39 84 92 b3 39
       0.00029951832 0.0003357819 0.00034378815 0.00034250703

exp_avg_sq f4 [200, 256]
000000 b8 ec b1 35 ad bf af 35 64 1c a9 35 22 c2 97 35
       1.3256422e-06 1.3094301e-06 1.2599744e-06 1.1306877e-06
000010 2c b4 6d 35 88 76 21 35 e6 0d cc 34 c7 c7 8a 34
       8.8551565e-07 6.014966e-07 3.8008073e-07 2.584986e-07
000020 0f 84 86 34 a4 a4 ab 34 ea 20 cb 34 ea 9e 0c 35
       2.505553e-07 3.1971024e-07 3.7835645e-07 5.2385315e-07
000030 2d 01 5c 35 79 1f 91 35 7c 49 a5 35 cd 8e ae 35
       8.19581e-07 1.0812502e-06 1.2314845e-06 1.3005571e-06
000040 60 aa b0 35 58 c2 aa 35 8e a5 9a 35 11 57 6e 35
       1.3162608e-06 1.2722548e-06 1.1522077e-06 8.878861e-07
000050 bb 26 18 35 80 c3 ce 34 77 68 97 34 3c 98 90 34
       5.668077e-07 3.8512735e-07 2.820195e-07 2.6932855e-07
000060 a3 83 ae 34 c5 2a ba 34 2c c3 b6 34 b4 4b c3 34
       3.2505804e-07 3.467632e-07 3.4042148e-07 3.6376662e-07
000070 91 07 18 35 2e 7d 6e 35 81 61 98 35 2d 5c aa 35
       5.6635423e-07 8.884407e-07 1.135326e-06 1.2692814e-06
000080 74 53 ae 35 de a2 a2 35 e3 80 86 35 a5 f5 34 35
       1.2988298e-06 1.2117341e-06 1.0021289e-06 6.7412685e-07
000090 16 69 e2 34 89 03 aa 34 c8 3b 97 34 44 5d bc 34
       4.217224e-07 3.166754e-07 2.8169438e-07 3.5085588e-07
0000a0 5d ca ea 34 93 e8 c6 34 25 9a ac 34 42 e1 d3 34
       4.3733135e-07 3.7049594e-07 3.2149651e-07 3.946571e-07
0000b0 f4 12 13 35 71 ed 5c 35 9d 78 90 35 67 1f a7 35
       5.478935e-07 8.230191e-07 1.0763939e-06 1.2451609e-06
0000c0 33 58 a9 35 a9 31 95 35 5b 11 64 35 f6 67 18 35
       1.261715e-06 1.1115818e-06 8.4961874e-07 5.6775696e-07
0000d0 c5 7c c6 34 d7 a1 97 34 28 35 b6 34 38 f2 03 35
       3.6971156e-07 2.8243696e-07 3.3938818e-07 4.915378e-07
0000e0 40 48 16 35 9b c2 d2 34 03 0f a8 34 9b ca e4 34
       5.598449e-07 3.9257142e-07 3.130336e-07 4.2615724e-07
0000f0 29 f2 1f 35 f7 c2 5c 35 72 22 8e 35 2c f4 a5 35
       5.9584505e-07 8.22401e-07 1.0589849e-06 1.2364521e-06
000100 93 7b a2 35 82 bc 88 35 b1 a5 48 35 e7 3b 0e 35
       1.2105905e-06 1.0187653e-06 7.474692e-07 5.298629e-07
000110 18 3b c5 34 f9 35 b1 34 a9 a6 ee 34 5d 1b 2a 35
       3.6737106e-07 3.300809e-07 4.4452216e-07 6.3369754e-07
000120 ff 3d 23 35 c9 c5 d2 34 56 ff b8 34 b6 db fb 34
       6.081245e-07 3.9259456e-07 3.4458452e-07 4.6912254e-07
000130 ae 8a 28 35 4c 76 5a 35 7f 75 8c 35 0c c4 a4 35
       6.278668e-07 8.1383473e-07 1.0465009e-06 1.2276009e-06
000140 18 35 9f 35 6f 1f 86 35 bd 0f 47 35 18 0f 0d 35
       1.1861875e-06 9.992926e-07 7.415618e-07 5.254856e-07
000150 b8 f2 ce 34 c0 c4 c6 34 0e 56 06 35 ef 8b 26 35
       3.854709e-07 3.7023528e-07 5.0044116e-07 6.204345e-07
000160 97 3a 0d 35 9c 43 c2 34 aa c9 c2 34 d7 45 03 35
       5.261185e-07 3.6184508e-07 3.6282046e-07 4.8902933e-07
000170 a1 8e 25 35 e1 db 56 35 5f 9b 8b 35 01 62 a3 35
       6.167484e-07 8.004118e-07 1.0401526e-06 1.2172969e-06
000180 01 b9 9f 35 d5 9d 8a 35 01 de 57 35 b3 1b 19 35
       1.1900266e-06 1.0327736e-06 8.04168e-07 5.703725e-07
000190 f7 7c df 34 97 fc c7 34 cf c2 f6 34 b1 d3 09 35
       4.162791e-07 3.7250422e-07 4.5962813e-07 5.134453e-07
0001a0 0b cc e3 34 4c d2 b7 34 ed 6d cf 34 ea d1 f9 34
       4.2430506e-07 3.4239417e-07 3.8636736e-07 4.6532597e-07
0001b0 63 27 1d 35 f7 cb 5b 35 06 4d 8e 35 61 d0 a3 35
       5.8544373e-07 8.1880665e-07 1.0602241e-06 1.2205093e-06
0001c0 07 b4 a2 35 c9 df 90 35 ce 30 6b 35 ba b5 2b 35
       1.2122335e-06 1.0793966e-06 8.761534e-07 6.396691e-07
0001d0 8f 13 02 35 06 f2 ee 34 71 ad ff 34 cc b7 02 35
       4.8457235e-07 4.450705e-07 4.7623647e-07 4.8696234e-07
0001e0 92 34 e1 34 9a d6 c5 34 d7 d7 c7 34 2f 1a e0 34
       4.1947766e-07 3.6850253e-07 3.7223683e-07 4.1742302e-07
0001f0 58 6d 1d 35 1a 77 67 35 9d ff 91 35 3a 8c a4 35
       5.8646174e-07 8.622752e-07 1.0877735e-06 1.2259763e-06
000200 3c f7 a6 35 93 f6 97 35 8a ac 7f 35 15 a6 43 35
       1.2439918e-06 1.1322139e-06 9.524598e-07 7.288484e-07
000210 d4 cf 23 35 8b 78 18 35 1e e2 11 35 9c 2c 07 35
       6.102466e-07 5.6799826e-07 5.4345753e-07 5.0356334e-07
000220 bf f9 dc 34 4a af ac 34 c4 85 a6 34 e6 cc dd 34
       4.1159907e-07 3.2165036e-07 3.1017237e-07 4.131354e-07
000230 d8 ff 2d 35 d1 bc 76 35 36 7c 94 35 84 5b a4 35
       6.4819824e-07 9.1916905e-07 1.1063009e-06 1.2245587e-06
000240 ce fa aa 35 bb 73 9e 35 35 8b 85 35 2b 05 56 35
       1.2738981e-06 1.1805599e-06 9.949787e-07 7.972873e-07
000250 b8 8a 3e 35 91 5a 30 35 c0 83 17 35 d0 e6 ed 34
       7.098238e-07 6.56969e-07 5.6443605e-07 4.4312628e-07
000260 f0 0a b1 34 f5 48 92 34 0d 08 ac 34 3f 79 ff 34
       3.2976777e-07 2.7247702e-07 3.2043354e-07 4.758567e-07
000270 f5 7f 40 35 67 a8 82 35 92 b7 98 35 93 8f a5 35
       7.1711776e-07 9.734766e-07 1.1378308e-06 1.2335244e-06
000280 da 65 ad 35 c3 ff a2 35 3b 48 89 35 ae f0 63 35
       1.2919147e-06 1.2144377e-06 1.0228317e-06 8.4914325e-07
000290 e4 ba 5a 35 2f 7f 52 35 04 f3 25 35 e7 29 d7 34
       8.148329e-07 7.841617e-07 6.1820924e-07 4.007736e-07
0002a0 82 ef 99 34 61 eb 8e 34 f7 1e da 34 3f 95 1a 35
       2.8672736e-07 2.6620822e-07 4.0628194e-07 5.758665e-07
0002b0 2a fa 53 35 ed af 8a 35 29 23 a0 35 82 ed a9 35
       7.896766e-07 1.0333002e-06 1.1931162e-06 1.2660605e-06
0002c0 83 62 ae 35 3c 9f a5 35 4c 61 8e 35 1c 03 6a 35
       1.2992681e-06 1.2339801e-06 1.0608142e-06 8.717632e-07
0002d0 b1 c2 60 35 a4 e8 60 35 25 f6 28 35 28 71 d2 34
       8.3729816e-07 8.378504e-07 6.2943064e-07 3.919788e-07
0002e0 d7 07 a7 34 c9 6e 90 34 23 9c ef 34 d0 b6 2d 35
       3.1111878e-07 2.6902697e-07 4.4630823e-07 6.471355e-07
0002f0 ad 95 65 35 f8 99 91 35 8a c5 a5 35 69 c4 ad 35
       8.5526955e-07 1.0848153e-06 1.2350949e-06 1.2946667e-06
000300 2e 61 af 35 fe 8a a8 35 e2 bc 96 35 3a f3 79 35
       1.3066799e-06 1.2557427e-06 1.1230843e-06 9.311367e-07
000310 cf 4f 66 35 a5 01 65 35 1b 08 21 35 54 a3 be 34
       8.5797814e-07 8.531154e-07 5.998897e-07 3.5509095e-07
000320 b8 54 a6 34 2a 20 98 34 d0 02 09 35 5a 48 46 35
       3.098155e-07 2.833561e-07 5.104057e-07 7.3866033e-07
000330 c9 40 77 35 41 05 97 35 28 03 a9 35 41 c7 af 35
       9.2108945e-07 1.1251906e-06 1.25924e-06 1.3096507e-06
000340 06 47 b1 35 8b 8a ac 35 ee 22 9e 35 bb 31 86 35
       1.3208198e-06 1.285532e-06 1.1782083e-06 9.998251e-07
000350 99 bb 6b 35 c2 48 5c 35 8b 25 0f 35 0b c0 9b 34
       8.781731e-07 8.2062263e-07 5.3326283e-07 2.901073e-07
000360 c7 7b 93 34 85 a9 c0 34 a9 ad 2c 35 f7 c4 58 35
       2.7470944e-07 3.5886129e-07 6.43277e-07 8.075289e-07
000370 d4 77 81 35 a8 5e 9b 35 ca a4 ab 35 5f e6 b0 35
       9.646124e-07 1.1575949e-06 1.2788453e-06 1.3180069e-06
000380 85 3f b2 35 d6 2e af 35 00 30 a3 35 43 10 8d 35
       1.328052e-06 1.3052147e-06 1.2158416e-06 1.0510051e-06
000390 ce 1f 6c 35 4d 22 48 35 4e 96 08 35 5a 12 a7 34
       8.7963133e-07 7.455572e-07 5.088267e-07 3.1119527e-07
0003a0 07 e2 9c 34 49 cd fe 34 6d 9f 38 35 3d d2 57 35
       2.922172e-07 4.746055e-07 6.8777337e-07 8.039968e-07
0003b0 2b 9e 84 35 e6 99 9e 35 2b cd ad 35 2f b6 b1 35
       9.880799e-07 1.1816708e-06 1.2949216e-06 1.324055e-06
0003c0 2b 62 b2 35 25 d7 b0 35 47 e5 a9 35 ad 5b 99 35
       1.3290604e-06 1.3175637e-06 1.265821e-06 1.142607e-06
0003d0 66 57 81 35 0b 8b 4c 35 54 89 0b 35 ad ab ab 34
       9.636685e-07 7.6198256e-07 5.1981374e-07 3.1976143e-07
0003e0 72 d6 b0 34 77 ce 11 35 cf b6 4c 35 c6 b9 79 35
       3.2938584e-07 5.4317155e-07 7.6261944e-07 9.3030064e-07
0003f0 6c ee 92 35 32 e4 a5 35 b6 c4 af 35 fc 0e b2 35
       1.0947238e-06 1.2359872e-06 1.3095766e-06 1.3266394e-06

exp_avg f4 [200]
000000 df 13 b3 b9 35 1a b7 b5 ef ab a2 b9 60 f3 05 b0
       -0.00034156346 -1.364219e-06 -0.00031027148 -4.8730975e-10
000010 5d 1c a4 39 f8 c6 52 b9 62 98 03 14 c1 92 36 ba
       0.0003130165 -0.00020101282 6.643862e-27 -0.0006964617
000020 18 9f 9e ba 10 cd 4c b9 ae 4f 46 39 6e e7 10 b8
       -0.0012101857 -0.00019531348 0.00018912434 -3.454781e-05
000030 d9 e8 44 39 02 59 c4 b9 01 a1 ad b9 f7 28 00 b8
       0.00018778759 -0.0003745035 -0.0003311709 -3.055573e-05
000040 f7 57 60 39 01 de 3d 39 70 81 ce 39 3d 6c d3 b9
       0.00021395074 0.00018107147 0.0003938782 -0.000403257
000050 85 d8 1e 3a 68 72 16 b4 90 62 9c 38 a0 0b ca 39
       0.00060594856 -1.401146e-07 7.4570184e-05 0.00038537104
000060 09 bd 65 b9 d3 ab a3 b9 12 e5 1e b9 c4 e2 29 0e
       -0.00021909563 -0.00031217802 -0.0001515339 2.0940042e-30
000070 fe ba 6e b6 79 12 28 3a 99 d2 8f 31 72 55 05 ba
       -3.5573607e-06 0.0006411444 4.18579e-09 -0.00050862797
000080 30 f7 0a 0f 9f c1 87 3a b0 c4 dc 13 17 38 fd b8
       6.851532e-30 0.0010357386 5.5729757e-27 -0.00012074428
000090 82 4f 8d b9 31 0d ad a9 70 80 48 3a ff de 12 b9
       -0.00026952854 -7.685032e-14 0.0007648533 -0.00014006718
0000a0 ef c1 aa 39 5e 10 9d 38 65 65 fb b8 4d 85 c2 b9
       0.0003256942 7.489392e-05 -0.00011987499 -0.0003710188
0000b0 60 bd 96 39 27 00 f4 39 23 78 91 b9 1c ef 26 3a
       0.00028751325 0.0004653942 -0.00027746064 0.00063680275
0000c0 b6 a9 43 b9 16 a5 10 ba e3 2b a3 b9 f5 56 84 b7
       -0.00018659871 -0.0005517764 -0.0003112248 -1.5776119e-05
0000d0 a2 fe 8c b7 bd 95 1b 0f f3 b3 d5 39 43 4d 06 37
       -1.6807873e-05 7.6709286e-30 0.00040760598 8.005011e-06
0000e0 db 9a e5 38 28 e4 12 ba 35 2b e5 39 5d 3d 1e ba
       0.00010948415 -0.0005603456 0.00043710475 -0.00060363655
0000f0 24 19 79 ad 13 98 d3 39 5e 40 1c ba cc 52 8b 39
       -1.4159594e-11 0.0004035836 -0.0005960519 0.00026573834
000100 a4 19 45 39 93 97 af b9 70 be 60 b8 a0 92 a0 38
       0.00018796936 -0.00033491533 -5.358312e-05 7.6567056e-05
000110 5b 66 ea b9 a7 ae 1e 0e 6e 80 43 3a a0 f0 9f 39
       -0.0004470822 1.9559096e-30 0.0007457797 0.00030506123
000120 0e 53 6f b4 fe 15 ba 0e 51 90 07 38 cf f9 23 ba
       -2.2288825e-07 4.5873718e-30 3.2320913e-05 -0.0006255181
000130 ae 21 c5 b7 19 3f 14 3a fb 94 16 3a 45 c9 c5 b9
       -2.3499913e-05 0.0005655154 0.0005744246 -0.00037724726
000140 42 98 bd 36 4c 49 41 39 6a 39 fe b9 2c ff e7 b9
       5.650364e-06 0.0001843322 -0.00048489432 -0.0004424987
000150 75 0d 94 b8 ae b7 b6 b8 4c b4 13 ba 3e 54 01 b9
       -7.0596965e-05 -8.712649e-05 -0.00056344713 -0.00012333781
000160 fe a8 19 11 c5 e0 fb b9 d8 25 4a 3a 44 e3 85 b9
       1.2121647e-28 -0.00048041917 0.00077113276 -0.00025537063
000170 6d 23 6e b9 ee 7e 91 38 41 cb 86 3a a3 57 1c 39
       -0.00022710646 6.937781e-05 0.0010283963 0.00014909967
000180 29 02 4a 39 d0 e7 be 38 fe 85 25 b1 65 73 46 b9
       0.00019265026 9.1030844e-05 -2.4086826e-09 -0.0001892574
000190 61 7a 85 39 18 b5 4d 39 5f 53 5b b9 34 fe b4 38
       0.00025458916 0.00019617786 -0.00020916526 8.630418e-05
0001a0 81 ff f2 39 1d 14 00 3a e6 e1 bb 39 fd 27 07 38
       0.00046348202 0.00048858096 0.00035835727 3.222375e-05
0001b0 b6 cb 22 3a 0b 65 a0 39 41 dc 23 39 43 74 5c 3a
       0.0006210165 0.0003059286 0.00015626942 0.00084096583
0001c0 b3 72 b3 b9 c4 a3 cd b9 77 62 22 39 bd c4 da b8
       -0.00034226998 -0.00039222662 0.00015486205 -0.000104316954
0001d0 92 0e ef 38 96 3f 39 ba 04 af ae b9 4a 3e ad b9
       0.00011399122 -0.0007066665 -0.00033318263 -0.0003304354
0001e0 1f ef a6 39 6c a1 43 b8 6c 02 6e b9 3b d1 ea 38
       0.00031840146 -4.664196e-05 -0.00022698351 0.00011196962
0001f0 d8 41 13 b9 5e 01 45 b8 9e 95 96 39 47 c1 0e 39
       -0.00014043541 -4.6969733e-05 0.00028721703 0.00013614177
000200 cd c5 1d 14 2d a8 e8 39 0a 2b 87 b9 1a 1e 84 ba
       7.965484e-27 0.0004437579 -0.00025781273 -0.0010079772
000210 16 cd 52 af e2 73 f5 39 6b aa 9c 38 65 29 e8 b8
       -1.917225e-10 0.0004681638 7.4704025e-05 -0.000110703324
000220 06 61 3a b9 22 37 25 0e 24 2f 0f 39 c3 8d 43 0e
       -0.00017774486 2.0364366e-30 0.00013655104 2.4103861e-30
000230 b9 87 45 39 91 b7 74 b9 01 c9 14 ba d6 f8 87 0d
       0.00018837945 -0.00023338037 -0.0005675704 8.379922e-31
000240 fc 33 dc b9 92 a6 59 b9 d9 4a b0 39 e4 33 8a 39
       -0.000420004 -0.00020756785 0.00033625102 0.00026360073
000250 96 24 1a ad d9 43 11 3a b8 13 26 39 2a 6d 00 3a
       -8.76201e-12 0.0005541421 0.0001583834 0.0004899079
000260 7c be 5d 2c 9b b0 8a 39 c8 fd e4 b9 66 ef 8c 38
       3.151173e-12 0.00026452992 -0.0004367663 6.720312e-05
000270 4d 2c a1 ac 04 6e d1 b7 a3 e1 26 ba f8 0a 57 39
       -4.5808136e-12 -2.4965972e-05 -0.000636602 0.00020508084
000280 71 06 5e b7 34 90 e7 0e cf da 13 3a f3 3f 8e 39
       -1.3233731e-05 5.708476e-30 0.000564021 0.00027131996
000290 fb ef 33 b9 2e 8f d6 39 2e fa 0a 3a 6b 6f cb b9
       -0.0001716017 0.00040923938 0.0005301562 -0.0003880219
0002a0 a3 44 cc 39 e9 b4 a1 39 0b ed 15 3a 51 75 57 b9
       0.0003896105 0.00030843102 0.0005719221 -0.00020547702
0002b0 ec 04 56 b3 74 05 05 3a 79 29 7d 0f b4 8a 96 b7
       -4.9830234e-08 0.000507436 1.24818504e-29 -1.7945982e-05
0002c0 bc af 15 3a e9 d7 68 b9 21 c2 61 39 70 33 ac b8
       0.00057100854 -0.00022205677 0.00021529991 -8.21118e-05
0002d0 0a fb 41 0e f1 e9 ce 39 35 c6 9c b2 d4 4b 61 3a
       2.3909958e-30 0.00039465682 -1.8250924e-08 0.0008594368
0002e0 c1 eb f9 39 7f 66 43 b9 17 b3 ac 39 71 f5 b5 b8
       0.0004766863 -0.00018634832 0.0003293983 -8.6764696e-05
0002f0 6a 7b 2b 39 22 16 31 b9 d3 ce 09 3a c9 a1 f3 38
       0.00016353806 -0.0001688828 0.00052569545 0.00011617278
000300 fe 33 44 b8 73 0b d6 0d 00 ae 89 38 6e 84 95 0e
       -4.6778463e-05 1.3191525e-30 6.565079e-05 3.685886e-30
000310 c4 73 b0 38 09 4b 6d b9 bb 2b 43 39 05 60 57 b2
       8.413897e-05 -0.00022630034 0.0001861294 -1.2536479e-08

exp_avg_sq f4 [200]
000000 a2 69 b2 35 fe 7f 93 32 18 65 4b 36 93 12 93 33
       1.3292777e-06 1.7171256e-08 3.0308202e-06 6.8485996e-08
000010 6e 39 6d 36 1a 02 91 35 9e d2 3d 34 ac 97 26 36
       3.534918e-06 1.0803954e-06 1.7678619e-07 2.4824212e-06
000020 fb 31 42 36 51 74 af 35 86 06 0c 36 86 4e 11 36
       2.8937345e-06 1.3072369e-06 2.0865423e-06 2.165239e-06
000030 6b a7 56 36 32 5b e2 36 2f 9c 96 36 23 0b 38 36
       3.1985935e-06 6.7459414e-06 4.4885305e-06 2.742462e-06
000040 c5 80 07 36 07 a0 58 36 3a 48 4a 36 3c 7c 63 36
       2.0191521e-06 3.2279656e-06 3.0142387e-06 3.389795e-06
000050 d7 00 4f 36 60 bd 3b 34 5b 11 3f 36 ee 60 1b 36
       3.0845893e-06 1.7484626e-07 2.847132e-06 2.315322e-06
000060 8a ce 5d 36 1e 07 40 36 c9 4b 64 36 f1 73 04 31
       3.3051788e-06 2.8614372e-06 3.401876e-06 1.9274433e-09
000070 9c 83 63 33 79 d4 80 36 d2 6d fb 32 a2 12 b3 35
       5.2972254e-08 3.8394323e-06 2.9270186e-08 1.3341962e-06
000080 9c 2d 3e 32 5f 26 3e 36 1f a1 ff 32 ef 2f 21 36
       1.1069826e-08 2.8334541e-06 2.9759176e-08 2.401877e-06
000090 b8 05 3b 36 29 8a 89 33 e6 56 db 36 2b 1e 5f 36
       2.78685e-06 6.404691e-08 6.536825e-06 3.324715e-06
0000a0 53 bb 39 36 3f ba 2c 36 81 e7 19 36 32 b1 76 36
       2.7676185e-06 2.5738407e-06 2.293353e-06 3.6759998e-06
0000b0 6d 5e d9 35 92 87 c8 35 97 f5 b5 35 e6 89 9e 36
       1.6195241e-06 1.4940617e-06 1.3557027e-06 4.7248204e-06
0000c0 67 fe 27 36 41 2d db 34 59 3a 71 36 ce 0f 8b 36
       2.503302e-06 4.0824855e-07 3.5945761e-06 4.1443627e-06
0000d0 87 bd 2e 34 5f 1b 6b 32 f1 ff 8d 36 bd 4e e1 34
       1.6273962e-07 1.3685024e-08 4.231923e-06 4.1966805e-07
0000e0 14 2d 89 36 28 66 8b 36 89 b3 6e 36 35 07 3a 36
       4.088166e-06 4.1544154e-06 3.5569267e-06 2.7720355e-06
0000f0 71 68 64 32 25 74 5a 36 d0 bb 4f 36 e2 b3 10 36
       1.3295094e-08 3.2552136e-06 3.0954725e-06 2.1562378e-06
000100 08 d7 8b 35 71 3d 1f 36 4f 37 07 36 ad 12 7e 36
       1.0418889e-06 2.372861e-06 2.0148761e-06 3.785982e-06
000110 96 fd 61 36 3e 9e 2f 31 db d1 59 36 56 39 58 36
       3.367522e-06 2.5555802e-09 3.2457672e-06 3.2219882e-06
000120 4a 8f 12 33 5e 4f c2 31 f9 9e 7b 36 7e 84 df 35
       3.4123595e-08 5.655166e-09 3.7494449e-06 1.6653355e-06
000130 58 f9 18 36 b0 a0 01 36 53 03 58 36 ce d1 33 36
       2.2794902e-06 1.931603e-06 3.2188443e-06 2.67952e-06
000140 69 2b e5 35 03 07 8a 36 f4 e2 72 36 e3 fc f9 35
       1.7074464e-06 4.1135368e-06 3.6192914e-06 1.8625545e-06
000150 87 c7 87 36 27 6e 89 36 ee f6 39 36 66 a8 e6 35
       4.0465416e-06 4.0957416e-06 2.771088e-06 1.7185346e-06
000160 d5 cc 56 32 2d 8b 35 36 b7 11 e7 36 a5 5e 20 36
       1.2503013e-08 2.7052113e-06 6.8863988e-06 2.3896948e-06
000170 c0 8d 99 36 22 a8 5d 36 3a 0f 7f 36 cc f3 0f 37
       4.576257e-06 3.3029432e-06 3.8006824e-06 8.580228e-06
000180 c9 92 e5 35 a1 a8 2f 36 5c 94 98 32 f2 d0 5e 36
       1.710455e-06 2.6175187e-06 1.7762595e-08 3.32022e-06
000190 14 01 32 35 f2 8c cb 36 2d ca ad 35 41 25 8e 36
       6.6311736e-07 6.0662796e-06 1.2948345e-06 4.2362667e-06
0001a0 2a c9 4c 36 ae 0e fd 35 a5 2b 8d 36 be 9c 55 36
       3.0515462e-06 1.8854241e-06 4.2072083e-06 3.183071e-06
0001b0 03 83 8f 36 77 97 74 36 bf 33 65 36 28 d9 b6 36
       4.276984e-06 3.6446997e-06 3.415378e-06 5.449303e-06
0001c0 20 15 12 36 51 3b 0e 36 5a 1e 41 36 da a7 96 35
       2.1767992e-06 2.1194176e-06 2.8776908e-06 1.1224722e-06
0001d0 95 a7 a6 36 04 4c ab 36 27 61 07 36 40 bb 62 36
       4.9666946e-06 5.1050465e-06 2.0173118e-06 3.3785618e-06
0001e0 82 af e3 35 09 90 07 36 84 29 bd 35 61 74 03 36
       1.6963897e-06 2.0200407e-06 1.409368e-06 1.9588263e-06
0001f0 9e 06 f9 35 df e1 21 36 b9 7e 4e 36 78 6d 13 36
       1.8553872e-06 2.4122344e-06 3.0770154e-06 2.1968426e-06
000200 f3 71 00 34 38 53 ee 35 6e 47 6b 36 35 1c 95 36
       1.1962383e-07 1.7756602e-06 3.5059306e-06 4.4438298e-06
000210 c1 88 8d 30 c1 e8 88 36 9a 18 5f 36 47 db 2a 36
       1.0297968e-09 4.080212e-06 3.324391e-06 2.545961e-06
000220 c0 cb bd 36 74 72 4a 30 9c f0 06 36 44 41 58 31
       5.6563586e-06 7.364982e-10 2.010761e-06 3.1469236e-09
000230 79 5d 67 34 53 05 9f 36 e5 5d 2e 36 c1 77 89 2f
       2.1547557e-07 4.739189e-06 2.5982674e-06 2.5005245e-10
000240 b6 35 1e 36 3f 15 55 36 a5 32 3b 36 10 ef 84 36
       2.3575099e-06 3.175184e-06 2.789465e-06 3.961737e-06
000250 11 56 18 30 25 6e 7a 36 15 e9 1e 36 69 62 8b 36
       5.5419586e-10 3.7317016e-06 2.3679506e-06 4.1539793e-06
000260 63 16 4c 33 58 50 71 35 77 32 74 36 a4 03 3f 36
       4.7517812e-08 8.989641e-07 3.6388208e-06 2.8463337e-06
000270 4b d4 1d 34 bf 3f 1c 36 25 fb 6e 36 49 70 06 36
       1.4698996e-07 2.3282917e-06 3.561095e-06 2.0032915e-06
000280 ba e1 3e 34 a3 69 81 32 82 c3 af 36 f6 48 01 37
       1.7777248e-07 1.5065615e-08 5.2381665e-06 7.705987e-06
000290 ce 63 88 36 01 d8 f0 34 72 c4 89 36 3f 21 19 36
       4.0647346e-06 4.4860647e-07 4.1057874e-06 2.2818128e-06
0002a0 00 e2 c6 36 f4 1d c0 35 c7 2a 9a 36 f8 5a a8 35
       5.9271697e-06 1.4313832e-06 4.5945376e-06 1.2543451e-06
0002b0 36 63 10 33 b9 46 03 36 55 09 f6 32 33 71 0b 36
       3.3617845e-08 1.9561687e-06 2.8642413e-08 2.0778505e-06
0002c0 09 65 56 36 22 80 1a 36 cb 2c 07 36 31 9c ee 35
       3.1947295e-06 2.3022371e-06 2.014264e-06 1.777784e-06
0002d0 63 29 e8 30 2c 0a 40 36 68 bd 4a 30 16 c5 4a 36
       1.6891984e-09 2.861615e-06 7.3756334e-10 3.0215065e-06
0002e0 4d 11 59 36 14 68 10 36 c2 b3 19 36 75 6f 01 33
       3.234559e-06 2.1518254e-06 2.290341e-06 3.0136523e-08
0002f0 58 c3 2b 36 53 72 5e 36 c3 94 f6 36 73 9b 13 36
       2.559469e-06 3.3147123e-06 7.3486895e-06 2.199519e-06
000300 1d 15 8b 36 e3 a4 36 30 a8 99 6b 36 3d d5 9c 31
       4.1449807e-06 6.644553e-10 3.5107169e-06 4.56444e-09
000310 43 cb 66 36 8c 94 c3 36 4e 21 e6 35 ff ef 8c 32
       3.4390985e-06 5.828746e-06 1.7146028e-06 1.6407283e-08
