mlruns/0/models/m-771443367dac4482b4d9c00e1a68a417/artifacts/data/model.pth (torch, 116553 bytes, 4 tensors)

weight f4 [100, 256]
000000 28 45 16 bd bf 18 eb bc 06 f6 97 3c 34 13 d2 bd
       -0.036687046 -0.028698323 0.01854993 -0.10257569
000010 58 a6 9a bd 0c 74 05 bd 15 26 a0 bb d1 c0 4d bd
       -0.07551259 -0.032581374 -0.004887352 -0.050232712
000020 ae d6 b2 bd c1 f6 81 bd 22 6b 6e 3c 1e ae d4 bc
       -0.08732353 -0.06345893 0.01455191 -0.025961932
000030 1c f6 ab bd 34 0d 32 bd c7 40 43 bc 9a c3 a7 bc
       -0.08396551 -0.043469623 -0.0119173 -0.020479012
000040 47 b8 f9 3c db 4d 27 3c 12 48 49 bd d5 c1 87 bc
       0.030483378 0.010211433 -0.049140997 -0.016571919
000050 28 23 8f bd ab 3a b5 bd 07 06 48 bd 66 7a ea bd
       -0.069891274 -0.08849081 -0.048833873 -0.11449127
000060 24 ad 79 bd ab 33 22 3d 39 98 44 3b ac da ad b9
       -0.060956135 0.039600056 0.0029997958 -0.00033160055
000070 98 4b ee bc 9b 28 63 3c fb f9 b3 bd 12 f0 32 bd
       -0.02908878 0.013864662 -0.08787914 -0.04368598
000080 23 06 60 bd bc fd d6 bc 14 4f c9 bd 1c 24 c5 bd
       -0.054693352 -0.026244037 -0.09829536 -0.09626028
000090 fd 9f ad bd 5b 8b d7 bc f8 54 bd 3c 3b 20 49 bd
       -0.08477781 -0.026311567 0.023111805 -0.049103003
0000a0 80 b2 a0 bc 51 60 db bc 2b 8e a5 bc 21 88 85 3c
       -0.019616365 -0.026779326 -0.020209393 0.016300263
0000b0 73 25 c0 bd 29 8f 14 bd 60 ab 57 bd 12 04 86 bc
       -0.09382143 -0.03626934 -0.05265367 -0.016359363
0000c0 a3 9e 93 3c a1 59 85 bd 2b fa 38 bc 6d ea 35 bd
       0.01801998 -0.06511236 -0.011290113 -0.04441302
0000d0 48 62 8e bc 84 09 00 bd 93 ae 27 3c 5f 42 35 3d
       -0.017380849 -0.031259075 0.010234493 0.04425275
0000e0 68 a3 99 bd 9c 9b b8 bd 53 fc 98 bd db 4d ee bd
       -0.075018704 -0.09014055 -0.07470002 -0.116359435
0000f0 30 90 6a bd 7f 3a 4e bd 03 69 7c 3c 90 bd b3 3c
       -0.057266414 -0.050348755 0.015405896 0.021940976
000100 e9 bd f5 bc 6f 85 b5 bc 80 0e 63 bc c7 ef 73 bd
       -0.029997783 -0.022158353 -0.013858438 -0.05955484
000110 c8 a2 5c bd 75 29 c5 3d 21 0f 70 3c 64 a6 00 3d
       -0.053866178 0.09627048 0.0146520445 0.031408682
000120 38 60 4e bd cf 31 06 be 21 32 01 be ef c2 9c bd
       -0.05038473 -0.13104938 -0.12616779 -0.07654368
000130 49 5a 86 bd 66 9f d5 bd d6 e8 31 bd e1 ad b8 bd
       -0.06560189 -0.104307935 -0.04343494 -0.0901754
000140 0d e0 8e 3c 92 c5 73 bd be 78 80 bd 5c 65 75 bd
       0.01744082 -0.05951459 -0.0627303 -0.059911117
000150 db 74 22 bd 07 e0 f8 3c 76 6d 28 bd e7 bc 78 bd
       -0.039662223 0.030380262 -0.041120015 -0.060727026
000160 7a 13 04 be bc e0 c1 bd 10 63 c8 bd 0d 6d a7 bd
       -0.12898055 -0.09466693 -0.0978452 -0.08175097
000170 91 47 2f be eb 02 f6 bd a2 f5 16 bd 28 66 aa bd
       -0.17117144 -0.12012275 -0.036855347 -0.08320266
000180 17 ab b4 bd ef cf af bd 51 f9 8f bd 3a 0d 28 bb
       -0.08821695 -0.08584582 -0.07029975 -0.002564265
000190 27 9f cb bc 17 70 79 bc ed 59 f6 bd 86 a7 1a be
       -0.024856163 -0.015224478 -0.12028871 -0.15102968
0001a0 64 88 d7 bd 8f b9 bb bd 77 db cb bd 21 5e 0d be
       -0.10524061 -0.09166252 -0.09953969 -0.13805439
0001b0 6f 88 df bd c2 8f cd bd 2d ba 85 3c eb ad b1 3c
       -0.109146945 -0.10037185 0.016324127 0.021689376
0001c0 25 05 35 bd 41 3d 1f 3b f8 db 73 bd a9 49 c9 bc
       -0.04419436 0.0024297985 -0.05953595 -0.024571257
0001d0 4b ca e2 3c d7 fc 66 3d 9b 7b 9f bd 33 ef d3 bd
       0.027684351 0.05639347 -0.07787248 -0.10348358
0001e0 93 30 d3 bd 6d b1 f3 bd 6d cb 02 be 25 5c bc bd
       -0.10311999 -0.11899076 -0.12772913 -0.09197263
0001f0 3f 77 e5 bb e4 07 51 bb bb 24 31 ba 5d 5e f8 bc
       -0.0070027406 -0.0031895572 -0.00067574874 -0.030318433
000200 1b cd 53 bd af d8 a3 3c 3f b8 5a 3d c5 08 0e bc
       -0.051709276 0.020000784 0.053398367 -0.008669083
000210 3b 8e c5 3d 00 ce a3 3d 1d b3 9f bd b6 38 46 bd
       0.09646269 0.07998276 -0.07797835 -0.048393928
000220 39 5e 27 bd af 3d 8e bd 52 43 65 bc 6a 56 2c bd
       -0.040861342 -0.06945359 -0.013993101 -0.0420746
000230 d1 ca 97 3c 87 0a 7e bd 4d da a7 bc d8 7d bb bc
       0.018529328 -0.06202176 -0.020489836 -0.022887155
000240 54 a1 74 bb 3f b0 0f 3d d3 06 44 3d 5c ed a5 3d
       -0.0037327604 0.03508019 0.04785807 0.08101913
000250 54 b5 2c bb 70 18 cc 3d 88 8d 67 bd a5 f8 ec bd
       -0.0026353197 0.099655986 -0.05653146 -0.11570863
000260 f9 96 c8 bd 34 31 46 bd 41 bd a6 3d ee 3a 33 3d
       -0.09794421 -0.048386768 0.08141566 0.04375737
000270 d6 fe a2 bb 18 3b 7f 3c 8a 07 ab bc a7 a8 04 bc
       -0.0049742265 0.015578054 -0.020877618 -0.0080968505
000280 9a e9 e8 bc 87 89 97 3d a1 ca 5f 3d c4 a6 09 3d
       -0.028431702 0.07399278 0.0546366 0.033606306
000290 0e 0e 5e 3d 7c 86 50 3d ed 88 9d bb c6 16 3f bd
       0.054212622 0.050909504 -0.0048075826 -0.046652578
0002a0 a1 6e d5 bc d0 fe 72 3c db 65 6d 3d b0 ab f9 3d
       -0.026053729 0.01483126 0.057958465 0.1219095
0002b0 96 e6 27 bc 93 eb 8e 3c 4c 1e 26 3c e4 0e 25 bd
       -0.010247847 0.017446315 0.010139059 -0.040297404
0002c0 08 47 f6 3b 8b 80 55 3c 03 8b bf 3d 6c c5 8f 3d
       0.007515792 0.013031135 0.09352686 0.07020077
0002d0 55 06 b4 3d 65 66 f7 3d 95 88 a3 3a 98 ce 73 bc
       0.0879027 0.12080077 0.0012476618 -0.014880799
0002e0 dc 14 7a bd 04 3c a4 3c 85 08 07 3e d3 73 7b 3d
       -0.06105505 0.020048149 0.13186844 0.061389755
0002f0 1d 41 2c 3c c6 13 45 3d 97 f6 0c 3c 4f a6 a5 bd
       0.010513571 0.04811456 0.0086037135 -0.080883615
000300 00 45 62 3d 04 10 1a 3d 42 65 cc 3d 79 e5 01 3e
       0.055241585 0.03761293 0.09980251 0.12685193
000310 b1 d6 a0 3d d7 2d 1b 3e e9 bf 08 3e 4a 24 76 bc
       0.07853449 0.15154205 0.13354458 -0.0150233
000320 63 48 e7 bc 90 98 bb 3d fd 17 60 3d 95 8d bd 3c
       -0.028232759 0.09159958 0.054710377 0.0231388
000330 79 e3 c4 3d 90 5b 11 bc 1f 13 40 3d cd 66 23 bc
       0.096136995 -0.008871928 0.046893235 -0.00997324
000340 dc d0 d6 3c 69 9f f9 bb 5e 02 a8 3d 34 24 7d 3d
       0.026222639 -0.00761788 0.082035765 0.061802104
000350 27 87 1e 3e 16 5d 1d 3e d9 7c ef 3d 3f 88 22 3e
       0.15481244 0.1536754 0.11693735 0.15872286
000360 24 08 87 3d 99 fc a7 3d a3 2a 05 3e 38 f8 06 3e
       0.065933496 0.08202476 0.13004546 0.13180625
000370 90 fa 49 3d 10 c5 5f 3d 91 67 2b 3d 9d 70 8c 3a
       0.04931122 0.054631293 0.041846815 0.0010714714
000380 eb af 76 3b a3 24 2e bd e0 0f 44 3b 82 a7 0f 3e
       0.0037641476 -0.04251541 0.0029916689 0.14028743
000390 29 1c 3b 3e 77 69 03 3e 9c b6 1f 3e 64 09 e2 3d
       0.18272461 0.128332 0.15597004 0.11036947
0003a0 d0 7c 7f 3d 78 72 26 3e 28 02 f7 3d 24 86 84 3d
       0.06237489 0.16254604 0.12060958 0.06470898
0003b0 52 a8 6f 3d c5 77 9f 3d de ed 4a 3c 6b 3c 5a 3b
       0.058510132 0.07786516 0.0123858135 0.0033300172
0003c0 fc 7f 55 3c be d4 f6 3c 6a 85 a1 3c 55 5d 65 3d
       0.013031002 0.03013074 0.019716937 0.05599721
0003d0 fe 24 cc 3d 23 c9 18 3e d7 1e 89 3d 62 5a 46 3c
       0.09967993 0.14920478 0.06695335 0.01210651
0003e0 29 04 df bc f7 17 0d bd d4 7a 2f bd 46 35 6a 3d
       -0.027223663 -0.034446683 -0.042841747 0.05717971
0003f0 49 24 26 3d a1 7a 5e 3d 2e 2f 9e bd 4c b1 06 3d
       0.040561948 0.054316167 -0.077238426 0.032883927

bias f4 [100]
000000 67 f9 04 3d 63 7c 76 3d bb b6 4f 3d 6b 9b 05 3c
       0.03246441 0.06017722 0.050711375 0.00815473
000010 57 b1 f4 3c e2 30 2f bd ee 6b 02 3d 4d a9 05 3d
       0.029869718 -0.042771228 0.03184121 0.03263216
000020 48 31 6a 3c 73 99 9d 3d 53 2d 0e bd 40 d3 85 3d
       0.014293976 0.07695284 -0.034711193 0.06534433
000030 90 04 83 3d 26 1a 8d 3b f7 03 f3 bc 8d 2d 13 3d
       0.063973546 0.0043060957 -0.029664977 0.035932112
000040 65 a6 8b 3d 5e 4e fd 3b bd f7 49 3c 50 83 3b bd
       0.068188466 0.0077302894 0.012327132 -0.045779526
000050 2b 18 03 3d 7c c7 de bc 28 2b b5 3d 4f ac 36 3d
       0.03200547 -0.027194731 0.08846122 0.04459792
000060 7d c9 d6 bc e9 fb 8b bc 85 cc 1a bd d8 46 e3 ba
       -0.026219124 -0.017087894 -0.0377927 -0.0017339839
000070 c4 b4 92 3d c8 82 dc 3c 4c b1 f3 bc b3 6f b9 bc
       0.071633846 0.02691783 -0.029747628 -0.02263627
000080 9c 6b a8 3d 29 26 30 3c f9 30 64 bd 36 52 88 3d
       0.0822365 0.010751286 -0.055710766 0.066563055
000090 31 22 4d bc c0 6b 8a 3d df d4 67 3d ff 51 5b 3c
       -0.012520359 0.06758833 0.056599494 0.013386249
0000a0 a2 b3 f6 3b aa dd 00 bd ef e8 9c 3d ab 3f c2 3a
       0.007528738 -0.031461395 0.07661616 0.001482
0000b0 2d 49 44 3d ef 64 57 bc de 47 30 bb c3 8a 09 3d
       0.04792135 -0.013146623 -0.0026898305 0.0335796
0000c0 a1 43 26 3d 27 cb 9e bc e0 45 41 bd 41 5e fe bb
       0.04059184 -0.01938398 -0.04718578 -0.007762701
0000d0 fc 42 02 bc 94 fa 57 3d 25 c4 8a bc ad dd 69 bd
       -0.007950541 0.052729204 -0.016939232 -0.057096172
0000e0 6f 43 53 bd a5 a9 bc 3c ae df 40 3d 25 1b b9 bc
       -0.05157798 0.023030112 0.047088318 -0.022595951
0000f0 ab 05 63 3c 0a 02 81 bc b3 cc 60 3d c1 74 3d 3d
       0.013856332 -0.015748043 0.054882716 0.046253923
000100 aa 2b e5 3b af 2b cf bc fb b8 ec 3c 90 de 7e bb
       0.0069937306 -0.025289385 0.0288968 -0.0038889982
000110 00 68 61 b8 d1 02 03 3d 49 c4 c7 3b 3b c4 ac bb
       -5.3741038e-05 0.031985108 0.006096397 -0.005272416
000120 a6 a5 d8 3c 25 26 b5 3b db a6 90 bc 90 6d 93 3c
       0.026446175 0.005528229 -0.017657688 0.01799658
000130 b6 6d 1e 3d 18 72 84 3c 7b d9 1b ba 01 2b 46 3d
       0.038678847 0.016167685 -0.0005945188 0.048380855
000140 e1 8f c4 bb 17 82 ec bc 8c 05 39 3c 0f 0a 63 bb
       -0.005998597 -0.028870625 0.011292826 -0.0034643447
000150 8a 57 96 3d 74 68 13 3d 53 b5 0b 3c 99 2d 08 bc
       0.073409155 0.035988286 0.008527118 -0.008311653
000160 20 92 4d 3d 2b e8 6a 3a dd 74 26 3d 51 41 80 bc
       0.050188184 0.00089609873 0.040638793 -0.015656145
000170 a0 00 96 3c b6 66 ad 39 9f 16 85 3c 3d 2a de bc
       0.018310845 0.00033073657 0.016246138 -0.02711975
000180 80 ea 38 bc e8 a7 13 3d f0 1e 93 3c 06 68 25 bd
       -0.011286378 0.0360488 0.017959088 -0.040382408

weight f4 [10, 100]
000000 c7 66 8d 3d 3e d7 02 be d7 0c 03 3e 0c 4f 05 be
       0.06904369 -0.12777421 0.12797867 -0.13018435
000010 8c 22 bc bd dd 14 39 be e2 0c 32 be 1e 0c 07 be
       -0.09186277 -0.18074365 -0.17387727 -0.13188216
000020 57 71 fe 3d b6 49 03 3e 92 e7 13 be b0 da 33 be
       0.124239616 0.12821087 -0.14443806 -0.17563891
000030 f3 64 6b 3d aa 7a 70 bc 24 1a 90 3d bc 5d 20 be
       0.05746932 -0.014677683 0.07036236 -0.15660757
000040 18 ff d1 bc 73 be 99 3d f9 7f 1a 3d 6e fd 00 bd
       -0.025634333 0.075070284 0.0377197 -0.03149169
000050 bb da c5 bd 58 51 fb bd 29 41 1c bd dc c1 d5 bc
       -0.0966086 -0.122713745 -0.03814808 -0.026093416
000060 04 0f 43 be 13 69 bf 3d 72 c5 15 be d6 2b c9 bd
       -0.19048697 0.09346213 -0.146261 -0.09822814
000070 c8 30 4a be 4c 2f f4 bd 35 15 9e 3d a7 d7 04 3e
       -0.19745171 -0.11923084 0.07718889 0.1297289
000080 d2 56 8d bc 9a 8c 10 be 8b e2 fe bd 98 5b e0 bd
       -0.017253313 -0.14116135 -0.124455534 -0.1095497
000090 d3 c2 c6 3c 50 3d 4a 3e 60 ba b5 bd 1e 40 0b be
       0.024262821 0.19749951 -0.08873439 -0.13598678
0000a0 09 74 05 3e 2e e6 9e bd 38 f8 06 3e 0c 98 b3 3c
       0.13032545 -0.07758747 0.13180625 0.021923088
0000b0 0e b6 4d bd 08 ef 80 3d fa d8 0b be d9 e8 f6 3d
       -0.05022245 0.062955916 -0.13656989 0.12056131
0000c0 a7 c3 5a bd 26 4a ec bd 96 08 ad bd 30 2d f7 3d
       -0.053409245 -0.1153758 -0.08448903 0.12069166
0000d0 2c 18 64 3d 3a c5 1e 3e ea b6 a0 3d b3 70 b0 bc
       0.055687115 0.15504923 0.07847388 -0.021538114
0000e0 44 af 89 bd f3 9b 2c be 3c 5d 1d be e4 e6 32 bd
       -0.067228824 -0.16856365 -0.15367597 -0.043677226
0000f0 e6 07 f4 3c c0 d1 03 3d c0 93 03 3e 07 2d 3e be
       0.029788923 0.032182455 0.12849331 -0.18571864
000100 2f 67 10 3e c1 ae d0 3d eb 82 1b bd 31 02 87 3d
       0.14101861 0.10189582 -0.03796665 0.06592215
000110 3a fb f9 3c 43 75 05 3e cd 48 32 bd a9 48 d8 bd
       0.030515302 0.13033013 -0.04352646 -0.10560734
000120 5d 24 40 bd 5e 06 0d 3e 6e 76 cf bd 10 7b 08 be
       -0.04690968 0.1377196 -0.101300105 -0.13328195
000130 d2 e2 28 3e df 86 78 bd 1b c8 bb 3c 17 ed 8d 3d
       0.16492775 -0.060675498 0.022922566 0.06929987
000140 07 70 3a bd 8b 11 05 be 10 b4 ed bd ec 01 2a be
       -0.045516994 -0.12994973 -0.1160661 -0.16602296
000150 da c1 97 be 90 26 ba 3d af fc ec bc 52 d9 18 be
       -0.29640085 0.090893865 -0.028929083 -0.14926651
000160 35 39 b6 bd ba c6 25 3e 18 7a ae 3d 9c 52 86 bd
       -0.0889763 0.1618909 0.08519381 -0.06558725
000170 37 88 ae 3d f5 04 b1 3c e1 39 19 3e e7 b3 5b 3d
       0.08522075 0.021608809 0.14963485 0.053638365
000180 47 c4 6e 3d 07 08 09 bd 62 3f 89 bd 0a 91 a6 3d
       0.058292653 -0.03345492 -0.067015424 0.08133133
000190 69 1c 8e bd ec 91 af bc a9 b7 0b be 67 5d 3c 3e
       -0.069390126 -0.021431886 -0.1364428 0.18395005
0001a0 fb 5a 49 be 49 85 b2 3d f4 9d 62 3d 3e d5 1d be
       -0.19663613 0.087168284 0.055326417 -0.15413377
0001b0 55 b3 45 be 99 3e 03 3b d9 7d 40 bd b9 60 ac bc
       -0.19306691 0.0020026325 -0.046995018 -0.021042215
0001c0 91 0f 46 3d 5e ed 95 3c 6e 7f 8a bd f0 91 5e bd
       0.04835469 0.018301662 -0.067625865 -0.054338396
0001d0 40 06 e3 3d f7 7e 0c bc 9e a5 44 be f8 8e 18 be
       0.110851765 -0.008575193 -0.19203803 -0.14898288
0001e0 92 d7 06 bd e1 44 00 3e b0 82 0f 3d 3b b9 4f be
       -0.032920428 0.12526275 0.035036743 -0.20285504
0001f0 25 ed 7b bc 5a 8f af 3d d3 fa 36 3d fc 60 0f 3e
       -0.015376364 0.08572264 0.0446728 0.1400184
000200 18 fe 18 bd f1 ac ce 3d b7 06 10 bd e8 ad 52 3d
       -0.037351698 0.1009158 -0.035162654 0.05143538
000210 d8 14 b6 bb ef 7c 49 be 92 b7 c7 3c e7 15 97 bd
       -0.005556684 -0.19676565 0.024379525 -0.073772244
000220 c7 bc 1f be d4 32 ef bc 6a cc 4b 3b e3 a9 2c 3c
       -0.15599357 -0.029199041 0.0031097182 0.010538551
000230 16 ef 5a 3d ef 84 b0 3d 29 ac 50 be 8e 64 81 bd
       0.053450666 0.08619105 -0.20378174 -0.063180074
000240 46 17 a0 3d 19 b7 ed 3d bc fb 52 be 49 9e d1 bd
       0.07816939 0.11607189 -0.20603842 -0.102352686
000250 96 ed bf bd 19 cb e0 bd 48 05 b5 3c 8e b1 b8 3d
       -0.09371488 -0.10976238 0.022097245 0.09018241
000260 07 5c a3 3d 6e fc 56 be ba 78 ec bd 76 eb e2 3c
       0.07976537 -0.20994732 -0.11546464 0.027700167
000270 a0 4f 04 be f8 66 89 3c 65 ff 01 3e 99 e8 71 be
       -0.12921 0.016772732 0.12695082 -0.23623885
000280 6b 08 a8 3b 2e 18 14 3e c5 93 51 bd 56 b5 a6 3d
       0.0051279566 0.14462349 -0.051166315 0.08140056
000290 0f 8d 6c be 16 df c8 3d 28 58 47 be 2c 20 5a bd
       -0.23100685 0.09808175 -0.19467223 -0.053253338
0002a0 bf fb fd 3d 68 7b 38 be aa 73 2e 3d 2c ce 11 3e
       0.124015324 -0.18015826 0.042590775 0.14238805
0002b0 c0 3e 00 be e1 14 ea bd 6a a4 a8 3d 5d dd 07 3e
       -0.12523937 -0.114297636 0.082344845 0.13268037
0002c0 b0 ea be 3d 30 77 65 bc 35 b2 9b 3c 7e 60 4e be
       0.09322107 -0.014005467 0.019005874 -0.20153996
0002d0 1d d5 97 3d b7 5e 62 3d 1c a8 bb 3d 9f 33 03 3e
       0.07413695 0.05526611 0.09162924 0.1281266
0002e0 d7 d4 b5 3c dc 7a b7 bd 70 0d 82 3d c3 54 eb 3c
       0.022196217 -0.089589804 0.06350219 0.028726941
0002f0 2a 96 9a bd 7c cd 03 bd c8 7b 1a be 5b 6f 8d 3d
       -0.07548173 -0.032178387 -0.15086281 0.06906005
000300 05 42 d9 bd 1f 1b 05 be 32 88 1e bd 2d bf 4a be
       -0.10608295 -0.12998627 -0.038704105 -0.1979949
000310 a6 3f 49 be 19 60 13 3d 4b d2 d4 bc 6d da 02 3e
       -0.19653186 0.035980318 -0.025979182 0.12778635
000320 d9 ec ca 3d 58 e9 7b bd a1 17 66 3a de 5c d3 bc
       0.09908456 -0.06150183 0.00087773247 -0.025801118
000330 e5 c6 00 bc ac 05 21 be 15 61 01 bc 7c 7b 4b 3d
       -0.00785992 -0.1572482 -0.007896681 0.04967831
000340 ae e7 11 3d e0 f6 b0 3d 91 73 cf 3c 22 e4 ba 3d
       0.035621338 0.08640838 0.025323661 0.09125544
000350 90 3f a4 bd e2 4b 9e 3d 4a 06 1b bb eb a4 2c 3d
       -0.08019936 0.07729317 -0.0023654872 0.042149466
000360 30 b5 17 3e 57 5a 38 be 41 ba 22 3e ee fd e8 3d
       0.14815211 -0.18003212 0.15891363 0.11376558
000370 bd 0f b0 3d e2 61 ec 3d 45 c8 ac 3c 29 36 2a 3e
       0.08596752 0.11542107 0.02109159 0.16622223
000380 c0 28 68 3e 1d 5b 72 3d c7 e2 d1 bd 3d 10 de bd
       0.22671795 0.059168924 -0.102483325 -0.10842941
000390 b4 88 80 3e 6f 29 c6 bc 7a 12 97 3d c3 fa aa 3d
       0.25104296 -0.024189679 0.07376571 0.0834861
0003a0 5c 28 11 3e f1 a4 c0 3d 59 60 ff bd 39 0b 33 be
       0.14175552 0.0940646 -0.12469549 -0.1748475
0003b0 84 03 83 bd 3b 68 fc 3c 5e 43 b4 bd 02 c1 98 bd
       -0.06397155 0.03081142 -0.08801912 -0.07458688
0003c0 d5 21 c6 bd 24 f6 20 bd 7d 4e 9a 3d 84 e6 09 bd
       -0.09674422 -0.039297238 0.07534502 -0.033667102
0003d0 72 e2 1a be 5a 5f df 3c 57 44 b1 3c ba 98 5f be
       -0.15125445 0.027267147 0.021639032 -0.21835604
0003e0 07 96 ed bc 29 e1 4d 3d d5 54 c0 3a c4 de e2 bc
       -0.029002203 0.050263558 0.0014673719 -0.027694114
0003f0 6d 5f 0f 3e e0 b1 0c 3e 00 e3 ca 3d 40 ee ad bd
       0.14001246 0.13739729 0.09906578 -0.08492708

bias f4 [10]
000000 a4 a3 3b 3d 19 1c 01 be e7 9d f1 3d 82 05 76 bd
       0.045810357 -0.12608375 0.117976956 -0.060063846
000010 17 ca 24 bd 31 30 46 3d c5 ed e2 bc 41 8b a0 bd
       -0.04023179 0.048385803 -0.027701268 -0.078390606
000020 f8 ad 82 3d 1c 49 0f bd
       0.06380838 -0.034981832
